2026-01-15 22:06:24,944 - INFO - >>> [Bake] Starting Qwen3 Process...
2026-01-15 22:06:24,944 - INFO -     > Seq Len: 4096
2026-01-15 22:06:24,944 - INFO -     > Staging: ./model_staging_qwen
2026-01-15 22:06:24,944 - INFO - >>> [Bake] Cleaning up stale NPU cache...
2026-01-15 22:06:24,945 - INFO - >>> [Bake] Stage 1: Exporting + NNCF INT4...
2026-01-15 22:06:40,703 - DEBUG - Inlined graph:
graph(%self.1 : __torch__.transformers.models.qwen2.modeling_qwen2.Qwen2ForCausalLM,
      %input_ids : Long(2, 16, strides=[16, 1], requires_grad=0, device=cpu),
      %attention_mask.1 : Long(2, 16, strides=[16, 1], requires_grad=0, device=cpu),
      %position_ids : Long(2, 16, strides=[16, 1], requires_grad=0, device=cpu)):
  %lm_head : __torch__.torch.nn.modules.linear.___torch_mangle_463.Linear = prim::GetAttr[name="lm_head"](%self.1)
  %model : __torch__.transformers.models.qwen2.modeling_qwen2.Qwen2Model = prim::GetAttr[name="model"](%self.1)
  %24 : Double(requires_grad=0, device=cpu) = prim::Constant[value={1e-06}](), scope: __module.model/__module.model.layers.0/__module.model.layers.0.input_layernorm # /home/phil2/Super-Intel-NPU/current/Super-Intel-NPU/venv_offering/lib/python3.12/site-packages/transformers/models/qwen2/modeling_qwen2.py:200:0
  %25 : bool = prim::Constant[value=1](), scope: __module.model/__module.model.layers.0/__module.model.layers.0.input_layernorm # /home/phil2/Super-Intel-NPU/current/Super-Intel-NPU/venv_offering/lib/python3.12/site-packages/transformers/models/qwen2/modeling_qwen2.py:199:0
  %26 : float = prim::Constant[value=0.088388347648318447](), scope: __module.model/__module.model.layers.0/__module.model.layers.0.self_attn # /home/phil2/Super-Intel-NPU/current/Super-Intel-NPU/venv_offering/lib/python3.12/site-packages/transformers/integrations/sdpa_attention.py:96:0
  %27 : float = prim::Constant[value=0.](), scope: __module.model/__module.model.layers.0/__module.model.layers.0.self_attn # /home/phil2/Super-Intel-NPU/current/Super-Intel-NPU/venv_offering/lib/python3.12/site-packages/transformers/integrations/sdpa_attention.py:96:0
  %28 : Long(requires_grad=0, device=cpu) = prim::Constant[value={4}](), scope: __module.model/__module.model.layers.0/__module.model.layers.0.self_attn # /home/phil2/Super-Intel-NPU/current/Super-Intel-NPU/venv_offering/lib/python3.12/site-packages/transformers/integrations/sdpa_attention.py:27:0
  %29 : Long(requires_grad=0, device=cpu) = prim::Constant[value={2}](), scope: __module.model/__module.model.layers.0/__module.model.layers.0.self_attn # /home/phil2/Super-Intel-NPU/current/Super-Intel-NPU/venv_offering/lib/python3.12/site-packages/torch/_tensor.py:1119:0
  %30 : int = prim::Constant[value=128](), scope: __module.model/__module.model.layers.0/__module.model.layers.0.self_attn # /home/phil2/Super-Intel-NPU/current/Super-Intel-NPU/venv_offering/lib/python3.12/site-packages/transformers/models/qwen2/modeling_qwen2.py:153:0
  %31 : Double(requires_grad=0, device=cpu) = prim::Constant[value={1}](), scope: __module.model/__module.model.rotary_emb # /home/phil2/Super-Intel-NPU/current/Super-Intel-NPU/venv_offering/lib/python3.12/site-packages/transformers/models/qwen2/modeling_qwen2.py:303:0
  %32 : Float(requires_grad=0, device=cpu) = prim::Constant[value={-65504}](), scope: __module.model # /home/phil2/Super-Intel-NPU/current/Super-Intel-NPU/venv_offering/lib/python3.12/site-packages/optimum/exporters/openvino/model_patcher.py:208:0
  %33 : int = prim::Constant[value=6](), scope: __module.model # /home/phil2/Super-Intel-NPU/current/Super-Intel-NPU/venv_offering/lib/python3.12/site-packages/optimum/exporters/openvino/model_patcher.py:207:0
  %34 : Float(requires_grad=0, device=cpu) = prim::Constant[value={0}](), scope: __module.model # /home/phil2/Super-Intel-NPU/current/Super-Intel-NPU/venv_offering/lib/python3.12/site-packages/optimum/exporters/openvino/model_patcher.py:207:0
  %35 : int = prim::Constant[value=4](), scope: __module.model # /home/phil2/Super-Intel-NPU/current/Super-Intel-NPU/venv_offering/lib/python3.12/site-packages/optimum/exporters/onnx/model_patcher.py:407:0
  %36 : int = prim::Constant[value=3](), scope: __module.model # /home/phil2/Super-Intel-NPU/current/Super-Intel-NPU/venv_offering/lib/python3.12/site-packages/optimum/exporters/onnx/model_patcher.py:405:0
  %37 : int = prim::Constant[value=9223372036854775807](), scope: __module.model # /home/phil2/Super-Intel-NPU/current/Super-Intel-NPU/venv_offering/lib/python3.12/site-packages/optimum/exporters/onnx/model_patcher.py:405:0
  %38 : int = prim::Constant[value=2](), scope: __module.model # /home/phil2/Super-Intel-NPU/current/Super-Intel-NPU/venv_offering/lib/python3.12/site-packages/optimum/exporters/onnx/model_patcher.py:405:0
  %39 : int = prim::Constant[value=11](), scope: __module.model # /home/phil2/Super-Intel-NPU/current/Super-Intel-NPU/venv_offering/lib/python3.12/site-packages/transformers/masking_utils.py:723:0
  %40 : Device = prim::Constant[value="cpu"](), scope: __module.model # /home/phil2/Super-Intel-NPU/current/Super-Intel-NPU/venv_offering/lib/python3.12/site-packages/transformers/models/qwen2/modeling_qwen2.py:352:0
  %41 : NoneType = prim::Constant(), scope: __module.model
  %42 : int = prim::Constant[value=0](), scope: __module.model # /home/phil2/Super-Intel-NPU/current/Super-Intel-NPU/venv_offering/lib/python3.12/site-packages/transformers/models/qwen2/modeling_qwen2.py:352:0
  %43 : Long(requires_grad=0, device=cpu) = prim::Constant[value={0}](), scope: __module.model # /home/phil2/Super-Intel-NPU/current/Super-Intel-NPU/venv_offering/lib/python3.12/site-packages/transformers/models/qwen2/modeling_qwen2.py:353:0
  %44 : int = prim::Constant[value=1](), scope: __module.model # /home/phil2/Super-Intel-NPU/current/Super-Intel-NPU/venv_offering/lib/python3.12/site-packages/transformers/models/qwen2/modeling_qwen2.py:353:0
  %45 : int = prim::Constant[value=-1](), scope: __module.model/__module.model.embed_tokens # /home/phil2/Super-Intel-NPU/current/Super-Intel-NPU/venv_offering/lib/python3.12/site-packages/torch/nn/functional.py:2542:0
  %46 : bool = prim::Constant[value=0](), scope: __module.model/__module.model.embed_tokens # /home/phil2/Super-Intel-NPU/current/Super-Intel-NPU/venv_offering/lib/python3.12/site-packages/torch/nn/functional.py:2542:0
  %norm : __torch__.transformers.models.qwen2.modeling_qwen2.___torch_mangle_462.Qwen2RMSNorm = prim::GetAttr[name="norm"](%model)
  %layers : __torch__.torch.nn.modules.container.ModuleList = prim::GetAttr[name="layers"](%model)
  %_35 : __torch__.transformers.models.qwen2.modeling_qwen2.___torch_mangle_461.Qwen2DecoderLayer = prim::GetAttr[name="35"](%layers)
  %layers.69 : __torch__.torch.nn.modules.container.ModuleList = prim::GetAttr[name="layers"](%model)
  %_34 : __torch__.transformers.models.qwen2.modeling_qwen2.___torch_mangle_448.Qwen2DecoderLayer = prim::GetAttr[name="34"](%layers.69)
  %layers.67 : __torch__.torch.nn.modules.container.ModuleList = prim::GetAttr[name="layers"](%model)
  %_33 : __torch__.transformers.models.qwen2.modeling_qwen2.___torch_mangle_435.Qwen2DecoderLayer = prim::GetAttr[name="33"](%layers.67)
  %layers.65 : __torch__.torch.nn.modules.container.ModuleList = prim::GetAttr[name="layers"](%model)
  %_32 : __torch__.transformers.models.qwen2.modeling_qwen2.___torch_mangle_422.Qwen2DecoderLayer = prim::GetAttr[name="32"](%layers.65)
  %layers.63 : __torch__.torch.nn.modules.container.ModuleList = prim::GetAttr[name="layers"](%model)
  %_31 : __torch__.transformers.models.qwen2.modeling_qwen2.___torch_mangle_409.Qwen2DecoderLayer = prim::GetAttr[name="31"](%layers.63)
  %layers.61 : __torch__.torch.nn.modules.container.ModuleList = prim::GetAttr[name="layers"](%model)
  %_30 : __torch__.transformers.models.qwen2.modeling_qwen2.___torch_mangle_396.Qwen2DecoderLayer = prim::GetAttr[name="30"](%layers.61)
  %layers.59 : __torch__.torch.nn.modules.container.ModuleList = prim::GetAttr[name="layers"](%model)
  %_29 : __torch__.transformers.models.qwen2.modeling_qwen2.___torch_mangle_383.Qwen2DecoderLayer = prim::GetAttr[name="29"](%layers.59)
  %layers.57 : __torch__.torch.nn.modules.container.ModuleList = prim::GetAttr[name="layers"](%model)
  %_28 : __torch__.transformers.models.qwen2.modeling_qwen2.___torch_mangle_370.Qwen2DecoderLayer = prim::GetAttr[name="28"](%layers.57)
  %layers.55 : __torch__.torch.nn.modules.container.ModuleList = prim::GetAttr[name="layers"](%model)
  %_27 : __torch__.transformers.models.qwen2.modeling_qwen2.___torch_mangle_357.Qwen2DecoderLayer = prim::GetAttr[name="27"](%layers.55)
  %layers.53 : __torch__.torch.nn.modules.container.ModuleList = prim::GetAttr[name="layers"](%model)
  %_26 : __torch__.transformers.models.qwen2.modeling_qwen2.___torch_mangle_344.Qwen2DecoderLayer = prim::GetAttr[name="26"](%layers.53)
  %layers.51 : __torch__.torch.nn.modules.container.ModuleList = prim::GetAttr[name="layers"](%model)
  %_25 : __torch__.transformers.models.qwen2.modeling_qwen2.___torch_mangle_331.Qwen2DecoderLayer = prim::GetAttr[name="25"](%layers.51)
  %layers.49 : __torch__.torch.nn.modules.container.ModuleList = prim::GetAttr[name="layers"](%model)
  %_24 : __torch__.transformers.models.qwen2.modeling_qwen2.___torch_mangle_318.Qwen2DecoderLayer = prim::GetAttr[name="24"](%layers.49)
  %layers.47 : __torch__.torch.nn.modules.container.ModuleList = prim::GetAttr[name="layers"](%model)
  %_23 : __torch__.transformers.models.qwen2.modeling_qwen2.___torch_mangle_305.Qwen2DecoderLayer = prim::GetAttr[name="23"](%layers.47)
  %layers.45 : __torch__.torch.nn.modules.container.ModuleList = prim::GetAttr[name="layers"](%model)
  %_22 : __torch__.transformers.models.qwen2.modeling_qwen2.___torch_mangle_292.Qwen2DecoderLayer = prim::GetAttr[name="22"](%layers.45)
  %layers.43 : __torch__.torch.nn.modules.container.ModuleList = prim::GetAttr[name="layers"](%model)
  %_21 : __torch__.transformers.models.qwen2.modeling_qwen2.___torch_mangle_279.Qwen2DecoderLayer = prim::GetAttr[name="21"](%layers.43)
  %layers.41 : __torch__.torch.nn.modules.container.ModuleList = prim::GetAttr[name="layers"](%model)
  %_20 : __torch__.transformers.models.qwen2.modeling_qwen2.___torch_mangle_266.Qwen2DecoderLayer = prim::GetAttr[name="20"](%layers.41)
  %layers.39 : __torch__.torch.nn.modules.container.ModuleList = prim::GetAttr[name="layers"](%model)
  %_19 : __torch__.transformers.models.qwen2.modeling_qwen2.___torch_mangle_253.Qwen2DecoderLayer = prim::GetAttr[name="19"](%layers.39)
  %layers.37 : __torch__.torch.nn.modules.container.ModuleList = prim::GetAttr[name="layers"](%model)
  %_18 : __torch__.transformers.models.qwen2.modeling_qwen2.___torch_mangle_240.Qwen2DecoderLayer = prim::GetAttr[name="18"](%layers.37)
  %layers.35 : __torch__.torch.nn.modules.container.ModuleList = prim::GetAttr[name="layers"](%model)
  %_17 : __torch__.transformers.models.qwen2.modeling_qwen2.___torch_mangle_227.Qwen2DecoderLayer = prim::GetAttr[name="17"](%layers.35)
  %layers.33 : __torch__.torch.nn.modules.container.ModuleList = prim::GetAttr[name="layers"](%model)
  %_16 : __torch__.transformers.models.qwen2.modeling_qwen2.___torch_mangle_214.Qwen2DecoderLayer = prim::GetAttr[name="16"](%layers.33)
  %layers.31 : __torch__.torch.nn.modules.container.ModuleList = prim::GetAttr[name="layers"](%model)
  %_15 : __torch__.transformers.models.qwen2.modeling_qwen2.___torch_mangle_201.Qwen2DecoderLayer = prim::GetAttr[name="15"](%layers.31)
  %layers.29 : __torch__.torch.nn.modules.container.ModuleList = prim::GetAttr[name="layers"](%model)
  %_14 : __torch__.transformers.models.qwen2.modeling_qwen2.___torch_mangle_188.Qwen2DecoderLayer = prim::GetAttr[name="14"](%layers.29)
  %layers.27 : __torch__.torch.nn.modules.container.ModuleList = prim::GetAttr[name="layers"](%model)
  %_13 : __torch__.transformers.models.qwen2.modeling_qwen2.___torch_mangle_175.Qwen2DecoderLayer = prim::GetAttr[name="13"](%layers.27)
  %layers.25 : __torch__.torch.nn.modules.container.ModuleList = prim::GetAttr[name="layers"](%model)
  %_12 : __torch__.transformers.models.qwen2.modeling_qwen2.___torch_mangle_162.Qwen2DecoderLayer = prim::GetAttr[name="12"](%layers.25)
  %layers.23 : __torch__.torch.nn.modules.container.ModuleList = prim::GetAttr[name="layers"](%model)
  %_11 : __torch__.transformers.models.qwen2.modeling_qwen2.___torch_mangle_149.Qwen2DecoderLayer = prim::GetAttr[name="11"](%layers.23)
  %layers.21 : __torch__.torch.nn.modules.container.ModuleList = prim::GetAttr[name="layers"](%model)
  %_10 : __torch__.transformers.models.qwen2.modeling_qwen2.___torch_mangle_136.Qwen2DecoderLayer = prim::GetAttr[name="10"](%layers.21)
  %layers.19 : __torch__.torch.nn.modules.container.ModuleList = prim::GetAttr[name="layers"](%model)
  %_9 : __torch__.transformers.models.qwen2.modeling_qwen2.___torch_mangle_123.Qwen2DecoderLayer = prim::GetAttr[name="9"](%layers.19)
  %layers.17 : __torch__.torch.nn.modules.container.ModuleList = prim::GetAttr[name="layers"](%model)
  %_8 : __torch__.transformers.models.qwen2.modeling_qwen2.___torch_mangle_110.Qwen2DecoderLayer = prim::GetAttr[name="8"](%layers.17)
  %layers.15 : __torch__.torch.nn.modules.container.ModuleList = prim::GetAttr[name="layers"](%model)
  %_7 : __torch__.transformers.models.qwen2.modeling_qwen2.___torch_mangle_97.Qwen2DecoderLayer = prim::GetAttr[name="7"](%layers.15)
  %layers.13 : __torch__.torch.nn.modules.container.ModuleList = prim::GetAttr[name="layers"](%model)
  %_6 : __torch__.transformers.models.qwen2.modeling_qwen2.___torch_mangle_84.Qwen2DecoderLayer = prim::GetAttr[name="6"](%layers.13)
  %layers.11 : __torch__.torch.nn.modules.container.ModuleList = prim::GetAttr[name="layers"](%model)
  %_5 : __torch__.transformers.models.qwen2.modeling_qwen2.___torch_mangle_71.Qwen2DecoderLayer = prim::GetAttr[name="5"](%layers.11)
  %layers.9 : __torch__.torch.nn.modules.container.ModuleList = prim::GetAttr[name="layers"](%model)
  %_4 : __torch__.transformers.models.qwen2.modeling_qwen2.___torch_mangle_58.Qwen2DecoderLayer = prim::GetAttr[name="4"](%layers.9)
  %layers.7 : __torch__.torch.nn.modules.container.ModuleList = prim::GetAttr[name="layers"](%model)
  %_3 : __torch__.transformers.models.qwen2.modeling_qwen2.___torch_mangle_45.Qwen2DecoderLayer = prim::GetAttr[name="3"](%layers.7)
  %layers.5 : __torch__.torch.nn.modules.container.ModuleList = prim::GetAttr[name="layers"](%model)
  %_2 : __torch__.transformers.models.qwen2.modeling_qwen2.___torch_mangle_32.Qwen2DecoderLayer = prim::GetAttr[name="2"](%layers.5)
  %layers.3 : __torch__.torch.nn.modules.container.ModuleList = prim::GetAttr[name="layers"](%model)
  %_1 : __torch__.transformers.models.qwen2.modeling_qwen2.___torch_mangle_19.Qwen2DecoderLayer = prim::GetAttr[name="1"](%layers.3)
  %layers.1 : __torch__.torch.nn.modules.container.ModuleList = prim::GetAttr[name="layers"](%model)
  %_0 : __torch__.transformers.models.qwen2.modeling_qwen2.Qwen2DecoderLayer = prim::GetAttr[name="0"](%layers.1)
  %rotary_emb : __torch__.transformers.models.qwen2.modeling_qwen2.Qwen2RotaryEmbedding = prim::GetAttr[name="rotary_emb"](%model)
  %embed_tokens : __torch__.torch.nn.modules.sparse.Embedding = prim::GetAttr[name="embed_tokens"](%model)
  %weight.3 : Tensor = prim::GetAttr[name="weight"](%embed_tokens)
  %inputs_embeds : Float(2, 16, 4096, strides=[65536, 4096, 1], requires_grad=0, device=cpu) = aten::embedding(%weight.3, %input_ids, %45, %46, %46), scope: __module.model/__module.model.embed_tokens # /home/phil2/Super-Intel-NPU/current/Super-Intel-NPU/venv_offering/lib/python3.12/site-packages/torch/nn/functional.py:2542:0
  %124 : int = aten::size(%inputs_embeds, %44), scope: __module.model # /home/phil2/Super-Intel-NPU/current/Super-Intel-NPU/venv_offering/lib/python3.12/site-packages/transformers/models/qwen2/modeling_qwen2.py:353:0
  %125 : Long(device=cpu) = prim::NumToTensor(%124), scope: __module.model
  %126 : Long(requires_grad=0, device=cpu) = aten::add(%125, %43, %44), scope: __module.model # /home/phil2/Super-Intel-NPU/current/Super-Intel-NPU/venv_offering/lib/python3.12/site-packages/transformers/models/qwen2/modeling_qwen2.py:353:0
  %127 : Scalar = aten::ScalarImplicit(%126), scope: __module.model
  %cache_position : Long(16, strides=[1], requires_grad=0, device=cpu) = aten::arange(%42, %127, %41, %41, %40, %46), scope: __module.model # /home/phil2/Super-Intel-NPU/current/Super-Intel-NPU/venv_offering/lib/python3.12/site-packages/transformers/models/qwen2/modeling_qwen2.py:352:0
  %attention_mask.3 : Bool(2, 16, strides=[16, 1], requires_grad=0, device=cpu) = aten::to(%attention_mask.1, %40, %39, %46, %46, %41), scope: __module.model # /home/phil2/Super-Intel-NPU/current/Super-Intel-NPU/venv_offering/lib/python3.12/site-packages/transformers/masking_utils.py:723:0
  %130 : int = aten::size(%inputs_embeds, %44), scope: __module.model # /home/phil2/Super-Intel-NPU/current/Super-Intel-NPU/venv_offering/lib/python3.12/site-packages/transformers/masking_utils.py:730:0
  %131 : int = aten::size(%inputs_embeds, %42), scope: __module.model # /home/phil2/Super-Intel-NPU/current/Super-Intel-NPU/venv_offering/lib/python3.12/site-packages/transformers/masking_utils.py:794:0
  %132 : int = aten::size(%cache_position, %42), scope: __module.model # /home/phil2/Super-Intel-NPU/current/Super-Intel-NPU/venv_offering/lib/python3.12/site-packages/optimum/exporters/onnx/model_patcher.py:391:0
  %133 : Long(1, 16, strides=[16, 1], requires_grad=0, device=cpu) = aten::unsqueeze(%cache_position, %42), scope: __module.model # /home/phil2/Super-Intel-NPU/current/Super-Intel-NPU/venv_offering/lib/python3.12/site-packages/optimum/exporters/onnx/model_patcher.py:405:0
  %134 : Long(1, 1, 16, strides=[16, 16, 1], requires_grad=0, device=cpu) = aten::unsqueeze(%133, %44), scope: __module.model # /home/phil2/Super-Intel-NPU/current/Super-Intel-NPU/venv_offering/lib/python3.12/site-packages/optimum/exporters/onnx/model_patcher.py:405:0
  %135 : Long(1, 1, 16, strides=[16, 16, 1], requires_grad=0, device=cpu) = aten::slice(%134, %38, %42, %37, %44), scope: __module.model # /home/phil2/Super-Intel-NPU/current/Super-Intel-NPU/venv_offering/lib/python3.12/site-packages/optimum/exporters/onnx/model_patcher.py:405:0
  %q_idx : Long(1, 1, 16, 1, strides=[16, 16, 1, 1], requires_grad=0, device=cpu) = aten::unsqueeze(%135, %36), scope: __module.model # /home/phil2/Super-Intel-NPU/current/Super-Intel-NPU/venv_offering/lib/python3.12/site-packages/optimum/exporters/onnx/model_patcher.py:405:0
  %137 : Long(2, strides=[1], requires_grad=0, device=cpu) = aten::arange(%131, %35, %41, %40, %46), scope: __module.model # /home/phil2/Super-Intel-NPU/current/Super-Intel-NPU/venv_offering/lib/python3.12/site-packages/optimum/exporters/onnx/model_patcher.py:407:0
  %138 : Long(2, strides=[1], requires_grad=0, device=cpu) = aten::slice(%137, %42, %42, %37, %44), scope: __module.model # /home/phil2/Super-Intel-NPU/current/Super-Intel-NPU/venv_offering/lib/python3.12/site-packages/optimum/exporters/onnx/model_patcher.py:407:0
  %139 : Long(2, 1, strides=[1, 1], requires_grad=0, device=cpu) = aten::unsqueeze(%138, %44), scope: __module.model # /home/phil2/Super-Intel-NPU/current/Super-Intel-NPU/venv_offering/lib/python3.12/site-packages/optimum/exporters/onnx/model_patcher.py:407:0
  %140 : Long(2, 1, 1, strides=[1, 1, 1], requires_grad=0, device=cpu) = aten::unsqueeze(%139, %38), scope: __module.model # /home/phil2/Super-Intel-NPU/current/Super-Intel-NPU/venv_offering/lib/python3.12/site-packages/optimum/exporters/onnx/model_patcher.py:407:0
  %batch_idx : Long(2, 1, 1, 1, strides=[1, 1, 1, 1], requires_grad=0, device=cpu) = aten::unsqueeze(%140, %36), scope: __module.model # /home/phil2/Super-Intel-NPU/current/Super-Intel-NPU/venv_offering/lib/python3.12/site-packages/optimum/exporters/onnx/model_patcher.py:407:0
  %142 : Long(16, strides=[1], requires_grad=0, device=cpu) = aten::arange(%130, %35, %41, %40, %46), scope: __module.model # /home/phil2/Super-Intel-NPU/current/Super-Intel-NPU/venv_offering/lib/python3.12/site-packages/optimum/exporters/onnx/model_patcher.py:408:0
  %143 : Long(1, 16, strides=[16, 1], requires_grad=0, device=cpu) = aten::unsqueeze(%142, %42), scope: __module.model # /home/phil2/Super-Intel-NPU/current/Super-Intel-NPU/venv_offering/lib/python3.12/site-packages/optimum/exporters/onnx/model_patcher.py:408:0
  %144 : Long(1, 1, 16, strides=[16, 16, 1], requires_grad=0, device=cpu) = aten::unsqueeze(%143, %44), scope: __module.model # /home/phil2/Super-Intel-NPU/current/Super-Intel-NPU/venv_offering/lib/python3.12/site-packages/optimum/exporters/onnx/model_patcher.py:408:0
  %145 : Long(1, 1, 1, 16, strides=[16, 16, 16, 1], requires_grad=0, device=cpu) = aten::unsqueeze(%144, %38), scope: __module.model # /home/phil2/Super-Intel-NPU/current/Super-Intel-NPU/venv_offering/lib/python3.12/site-packages/optimum/exporters/onnx/model_patcher.py:408:0
  %146 : Long(1, 1, 1, 16, strides=[16, 16, 16, 1], requires_grad=0, device=cpu) = aten::slice(%145, %36, %42, %37, %44), scope: __module.model # /home/phil2/Super-Intel-NPU/current/Super-Intel-NPU/venv_offering/lib/python3.12/site-packages/optimum/exporters/onnx/model_patcher.py:408:0
  %kv_idx : Long(1, 1, 1, 16, strides=[16, 16, 16, 1], requires_grad=0, device=cpu) = aten::add(%146, %43, %44), scope: __module.model # /home/phil2/Super-Intel-NPU/current/Super-Intel-NPU/venv_offering/lib/python3.12/site-packages/optimum/exporters/onnx/model_patcher.py:408:0
  %148 : int[] = prim::ListConstruct(), scope: __module.model
  %result.1 : Bool(requires_grad=0, device=cpu) = aten::new_ones(%q_idx, %148, %39, %41, %41, %46), scope: __module.model # /home/phil2/Super-Intel-NPU/current/Super-Intel-NPU/venv_offering/lib/python3.12/site-packages/transformers/masking_utils.py:52:0
  %150 : Bool(1, 1, 16, 16, strides=[256, 256, 16, 1], requires_grad=0, device=cpu) = aten::le(%kv_idx, %q_idx), scope: __module.model # /home/phil2/Super-Intel-NPU/current/Super-Intel-NPU/venv_offering/lib/python3.12/site-packages/transformers/masking_utils.py:78:0
  %151 : Bool(1, 1, 16, 16, strides=[256, 256, 16, 1], requires_grad=0, device=cpu) = aten::to(%150, %39, %42, %40, %41, %46, %46, %41), scope: __module.model # /home/phil2/Super-Intel-NPU/current/Super-Intel-NPU/venv_offering/lib/python3.12/site-packages/transformers/masking_utils.py:54:0
  %result : Bool(1, 1, 16, 16, strides=[256, 256, 16, 1], requires_grad=0, device=cpu) = aten::__and__(%result.1, %151), scope: __module.model # /home/phil2/Super-Intel-NPU/current/Super-Intel-NPU/venv_offering/lib/python3.12/site-packages/transformers/masking_utils.py:54:0
  %153 : Tensor?[] = prim::ListConstruct(%batch_idx, %kv_idx), scope: __module.model
  %154 : Bool(2, 1, 1, 16, strides=[16, 16, 16, 1], requires_grad=0, device=cpu) = aten::index(%attention_mask.3, %153), scope: __module.model # /home/phil2/Super-Intel-NPU/current/Super-Intel-NPU/venv_offering/lib/python3.12/site-packages/transformers/masking_utils.py:142:0
  %155 : Bool(2, 1, 1, 16, strides=[16, 16, 16, 1], requires_grad=0, device=cpu) = aten::to(%154, %39, %42, %40, %41, %46, %46, %41), scope: __module.model # /home/phil2/Super-Intel-NPU/current/Super-Intel-NPU/venv_offering/lib/python3.12/site-packages/transformers/masking_utils.py:54:0
  %causal_mask : Bool(2, 1, 16, 16, strides=[256, 256, 16, 1], requires_grad=0, device=cpu) = aten::__and__(%result, %155), scope: __module.model # /home/phil2/Super-Intel-NPU/current/Super-Intel-NPU/venv_offering/lib/python3.12/site-packages/transformers/masking_utils.py:54:0
  %157 : int[] = prim::ListConstruct(%131, %45, %132, %130), scope: __module.model
  %mask : Bool(2, 1, 16, 16, strides=[256, 256, 16, 1], requires_grad=0, device=cpu) = aten::expand(%causal_mask, %157, %46), scope: __module.model # /home/phil2/Super-Intel-NPU/current/Super-Intel-NPU/venv_offering/lib/python3.12/site-packages/optimum/exporters/onnx/model_patcher.py:412:0
  %159 : Float(requires_grad=0, device=cpu) = aten::to(%34, %40, %33, %46, %46, %41), scope: __module.model # /home/phil2/Super-Intel-NPU/current/Super-Intel-NPU/venv_offering/lib/python3.12/site-packages/optimum/exporters/openvino/model_patcher.py:207:0
  %160 : Float(requires_grad=0, device=cpu) = aten::detach(%159), scope: __module.model # /home/phil2/Super-Intel-NPU/current/Super-Intel-NPU/venv_offering/lib/python3.12/site-packages/optimum/exporters/openvino/model_patcher.py:207:0
  %161 : Float(requires_grad=0, device=cpu) = aten::to(%32, %40, %33, %46, %46, %41), scope: __module.model # /home/phil2/Super-Intel-NPU/current/Super-Intel-NPU/venv_offering/lib/python3.12/site-packages/optimum/exporters/openvino/model_patcher.py:208:0
  %162 : Float(requires_grad=0, device=cpu) = aten::detach(%161), scope: __module.model # /home/phil2/Super-Intel-NPU/current/Super-Intel-NPU/venv_offering/lib/python3.12/site-packages/optimum/exporters/openvino/model_patcher.py:208:0
  %attention_mask.5 : Float(2, 1, 16, 16, strides=[256, 256, 16, 1], requires_grad=0, device=cpu) = aten::where(%mask, %160, %162), scope: __module.model # /home/phil2/Super-Intel-NPU/current/Super-Intel-NPU/venv_offering/lib/python3.12/site-packages/optimum/exporters/openvino/model_patcher.py:205:0
  %inv_freq : Tensor = prim::GetAttr[name="inv_freq"](%rotary_emb)
  %165 : Float(1, 64, strides=[64, 1], requires_grad=0, device=cpu) = aten::unsqueeze(%inv_freq, %42), scope: __module.model/__module.model.rotary_emb # /home/phil2/Super-Intel-NPU/current/Super-Intel-NPU/venv_offering/lib/python3.12/site-packages/transformers/models/qwen2/modeling_qwen2.py:296:0
  %166 : Float(1, 64, strides=[64, 1], requires_grad=0, device=cpu) = aten::slice(%165, %44, %42, %37, %44), scope: __module.model/__module.model.rotary_emb # /home/phil2/Super-Intel-NPU/current/Super-Intel-NPU/venv_offering/lib/python3.12/site-packages/transformers/models/qwen2/modeling_qwen2.py:296:0
  %167 : Float(1, 64, 1, strides=[64, 1, 1], requires_grad=0, device=cpu) = aten::unsqueeze(%166, %38), scope: __module.model/__module.model.rotary_emb # /home/phil2/Super-Intel-NPU/current/Super-Intel-NPU/venv_offering/lib/python3.12/site-packages/transformers/models/qwen2/modeling_qwen2.py:296:0
  %168 : Float(1, 64, 1, strides=[64, 1, 1], requires_grad=0, device=cpu) = aten::to(%167, %33, %46, %46, %41), scope: __module.model/__module.model.rotary_emb # /home/phil2/Super-Intel-NPU/current/Super-Intel-NPU/venv_offering/lib/python3.12/site-packages/transformers/models/qwen2/modeling_qwen2.py:296:0
  %169 : int = aten::size(%position_ids, %42), scope: __module.model/__module.model.rotary_emb # /home/phil2/Super-Intel-NPU/current/Super-Intel-NPU/venv_offering/lib/python3.12/site-packages/transformers/models/qwen2/modeling_qwen2.py:296:0
  %170 : int[] = prim::ListConstruct(%169, %45, %44), scope: __module.model/__module.model.rotary_emb
  %171 : Float(2, 64, 1, strides=[0, 1, 1], requires_grad=0, device=cpu) = aten::expand(%168, %170, %46), scope: __module.model/__module.model.rotary_emb # /home/phil2/Super-Intel-NPU/current/Super-Intel-NPU/venv_offering/lib/python3.12/site-packages/transformers/models/qwen2/modeling_qwen2.py:296:0
  %inv_freq_expanded.1 : Float(2, 64, 1, strides=[0, 1, 1], requires_grad=0, device=cpu) = aten::to(%171, %33, %42, %40, %41, %46, %46, %41), scope: __module.model/__module.model.rotary_emb # /home/phil2/Super-Intel-NPU/current/Super-Intel-NPU/venv_offering/lib/python3.12/site-packages/transformers/models/qwen2/modeling_qwen2.py:296:0
  %173 : Long(2, 16, strides=[16, 1], requires_grad=0, device=cpu) = aten::slice(%position_ids, %42, %42, %37, %44), scope: __module.model/__module.model.rotary_emb # /home/phil2/Super-Intel-NPU/current/Super-Intel-NPU/venv_offering/lib/python3.12/site-packages/transformers/models/qwen2/modeling_qwen2.py:297:0
  %174 : Long(2, 1, 16, strides=[16, 16, 1], requires_grad=0, device=cpu) = aten::unsqueeze(%173, %44), scope: __module.model/__module.model.rotary_emb # /home/phil2/Super-Intel-NPU/current/Super-Intel-NPU/venv_offering/lib/python3.12/site-packages/transformers/models/qwen2/modeling_qwen2.py:297:0
  %175 : Long(2, 1, 16, strides=[16, 16, 1], requires_grad=0, device=cpu) = aten::slice(%174, %38, %42, %37, %44), scope: __module.model/__module.model.rotary_emb # /home/phil2/Super-Intel-NPU/current/Super-Intel-NPU/venv_offering/lib/python3.12/site-packages/transformers/models/qwen2/modeling_qwen2.py:297:0
  %position_ids_expanded.1 : Float(2, 1, 16, strides=[16, 16, 1], requires_grad=0, device=cpu) = aten::to(%175, %33, %46, %46, %41), scope: __module.model/__module.model.rotary_emb # /home/phil2/Super-Intel-NPU/current/Super-Intel-NPU/venv_offering/lib/python3.12/site-packages/transformers/models/qwen2/modeling_qwen2.py:297:0
  %inv_freq_expanded : Float(2, 64, 1, strides=[0, 1, 1], requires_grad=0, device=cpu) = aten::to(%inv_freq_expanded.1, %33, %46, %46, %41), scope: __module.model/__module.model.rotary_emb # /home/phil2/Super-Intel-NPU/current/Super-Intel-NPU/venv_offering/lib/python3.12/site-packages/transformers/models/qwen2/modeling_qwen2.py:301:0
  %position_ids_expanded : Float(2, 1, 16, strides=[16, 16, 1], requires_grad=0, device=cpu) = aten::to(%position_ids_expanded.1, %33, %46, %46, %41), scope: __module.model/__module.model.rotary_emb # /home/phil2/Super-Intel-NPU/current/Super-Intel-NPU/venv_offering/lib/python3.12/site-packages/transformers/models/qwen2/modeling_qwen2.py:301:0
  %179 : Float(2, 64, 16, strides=[1024, 16, 1], requires_grad=0, device=cpu) = aten::matmul(%inv_freq_expanded, %position_ids_expanded), scope: __module.model/__module.model.rotary_emb # /home/phil2/Super-Intel-NPU/current/Super-Intel-NPU/venv_offering/lib/python3.12/site-packages/transformers/models/qwen2/modeling_qwen2.py:301:0
  %freqs : Float(2, 16, 64, strides=[1024, 1, 16], requires_grad=0, device=cpu) = aten::transpose(%179, %44, %38), scope: __module.model/__module.model.rotary_emb # /home/phil2/Super-Intel-NPU/current/Super-Intel-NPU/venv_offering/lib/python3.12/site-packages/transformers/models/qwen2/modeling_qwen2.py:301:0
  %181 : Tensor[] = prim::ListConstruct(%freqs, %freqs), scope: __module.model/__module.model.rotary_emb
  %emb : Float(2, 16, 128, strides=[2048, 128, 1], requires_grad=0, device=cpu) = aten::cat(%181, %45), scope: __module.model/__module.model.rotary_emb # /home/phil2/Super-Intel-NPU/current/Super-Intel-NPU/venv_offering/lib/python3.12/site-packages/transformers/models/qwen2/modeling_qwen2.py:302:0
  %183 : Float(2, 16, 128, strides=[2048, 128, 1], requires_grad=0, device=cpu) = aten::cos(%emb), scope: __module.model/__module.model.rotary_emb # /home/phil2/Super-Intel-NPU/current/Super-Intel-NPU/venv_offering/lib/python3.12/site-packages/transformers/models/qwen2/modeling_qwen2.py:303:0
  %cos.1 : Float(2, 16, 128, strides=[2048, 128, 1], requires_grad=0, device=cpu) = aten::mul(%183, %31), scope: __module.model/__module.model.rotary_emb # /home/phil2/Super-Intel-NPU/current/Super-Intel-NPU/venv_offering/lib/python3.12/site-packages/transformers/models/qwen2/modeling_qwen2.py:303:0
  %185 : Float(2, 16, 128, strides=[2048, 128, 1], requires_grad=0, device=cpu) = aten::sin(%emb), scope: __module.model/__module.model.rotary_emb # /home/phil2/Super-Intel-NPU/current/Super-Intel-NPU/venv_offering/lib/python3.12/site-packages/transformers/models/qwen2/modeling_qwen2.py:304:0
  %sin.1 : Float(2, 16, 128, strides=[2048, 128, 1], requires_grad=0, device=cpu) = aten::mul(%185, %31), scope: __module.model/__module.model.rotary_emb # /home/phil2/Super-Intel-NPU/current/Super-Intel-NPU/venv_offering/lib/python3.12/site-packages/transformers/models/qwen2/modeling_qwen2.py:304:0
  %cos.3 : Float(2, 16, 128, strides=[2048, 128, 1], requires_grad=0, device=cpu) = aten::to(%cos.1, %33, %46, %46, %41), scope: __module.model/__module.model.rotary_emb # /home/phil2/Super-Intel-NPU/current/Super-Intel-NPU/venv_offering/lib/python3.12/site-packages/transformers/models/qwen2/modeling_qwen2.py:306:0
  %sin.3 : Float(2, 16, 128, strides=[2048, 128, 1], requires_grad=0, device=cpu) = aten::to(%sin.1, %33, %46, %46, %41), scope: __module.model/__module.model.rotary_emb # /home/phil2/Super-Intel-NPU/current/Super-Intel-NPU/venv_offering/lib/python3.12/site-packages/transformers/models/qwen2/modeling_qwen2.py:306:0
  %189 : (Float(2, 16, 128, strides=[2048, 128, 1], requires_grad=0, device=cpu), Float(2, 16, 128, strides=[2048, 128, 1], requires_grad=0, device=cpu)) = prim::TupleConstruct(%cos.3, %sin.3)
  %190 : Float(2, 16, 128, strides=[2048, 128, 1], requires_grad=0, device=cpu), %191 : Float(2, 16, 128, strides=[2048, 128, 1], requires_grad=0, device=cpu) = prim::TupleUnpack(%189)
  %mlp.1 : __torch__.transformers.models.qwen2.modeling_qwen2.Qwen2MLP = prim::GetAttr[name="mlp"](%_0)
  %post_attention_layernorm.1 : __torch__.transformers.models.qwen2.modeling_qwen2.___torch_mangle_6.Qwen2RMSNorm = prim::GetAttr[name="post_attention_layernorm"](%_0)
  %self_attn.1 : __torch__.transformers.models.qwen2.modeling_qwen2.Qwen2Attention = prim::GetAttr[name="self_attn"](%_0)
  %input_layernorm.1 : __torch__.transformers.models.qwen2.modeling_qwen2.Qwen2RMSNorm = prim::GetAttr[name="input_layernorm"](%_0)
  %weight.5 : Tensor = prim::GetAttr[name="weight"](%input_layernorm.1)
  %hidden_states.1 : Float(2, 16, 4096, strides=[65536, 4096, 1], requires_grad=0, device=cpu) = aten::to(%inputs_embeds, %33, %46, %46, %41), scope: __module.model/__module.model.layers.0/__module.model.layers.0.input_layernorm # /home/phil2/Super-Intel-NPU/current/Super-Intel-NPU/venv_offering/lib/python3.12/site-packages/transformers/models/qwen2/modeling_qwen2.py:198:0
  %198 : Float(2, 16, 4096, strides=[65536, 4096, 1], requires_grad=0, device=cpu) = aten::pow(%hidden_states.1, %38), scope: __module.model/__module.model.layers.0/__module.model.layers.0.input_layernorm # /home/phil2/Super-Intel-NPU/current/Super-Intel-NPU/venv_offering/lib/python3.12/site-packages/transformers/models/qwen2/modeling_qwen2.py:199:0
  %199 : int[] = prim::ListConstruct(%45), scope: __module.model/__module.model.layers.0/__module.model.layers.0.input_layernorm
  %variance.1 : Float(2, 16, 1, strides=[16, 1, 1], requires_grad=0, device=cpu) = aten::mean(%198, %199, %25, %41), scope: __module.model/__module.model.layers.0/__module.model.layers.0.input_layernorm # /home/phil2/Super-Intel-NPU/current/Super-Intel-NPU/venv_offering/lib/python3.12/site-packages/transformers/models/qwen2/modeling_qwen2.py:199:0
  %201 : Float(2, 16, 1, strides=[16, 1, 1], requires_grad=0, device=cpu) = aten::add(%variance.1, %24, %44), scope: __module.model/__module.model.layers.0/__module.model.layers.0.input_layernorm # /home/phil2/Super-Intel-NPU/current/Super-Intel-NPU/venv_offering/lib/python3.12/site-packages/transformers/models/qwen2/modeling_qwen2.py:200:0
  %202 : Float(2, 16, 1, strides=[16, 1, 1], requires_grad=0, device=cpu) = aten::rsqrt(%201), scope: __module.model/__module.model.layers.0/__module.model.layers.0.input_layernorm # /home/phil2/Super-Intel-NPU/current/Super-Intel-NPU/venv_offering/lib/python3.12/site-packages/transformers/models/qwen2/modeling_qwen2.py:200:0
  %hidden_states.3 : Float(2, 16, 4096, strides=[65536, 4096, 1], requires_grad=0, device=cpu) = aten::mul(%hidden_states.1, %202), scope: __module.model/__module.model.layers.0/__module.model.layers.0.input_layernorm # /home/phil2/Super-Intel-NPU/current/Super-Intel-NPU/venv_offering/lib/python3.12/site-packages/transformers/models/qwen2/modeling_qwen2.py:200:0
  %hidden_states.5 : Float(2, 16, 4096, strides=[65536, 4096, 1], requires_grad=0, device=cpu) = aten::to(%hidden_states.3, %33, %46, %46, %41), scope: __module.model/__module.model.layers.0/__module.model.layers.0.input_layernorm # /home/phil2/Super-Intel-NPU/current/Super-Intel-NPU/venv_offering/lib/python3.12/site-packages/transformers/models/qwen2/modeling_qwen2.py:201:0
  %hidden_states.7 : Float(2, 16, 4096, strides=[65536, 4096, 1], requires_grad=0, device=cpu) = aten::mul(%weight.5, %hidden_states.5), scope: __module.model/__module.model.layers.0/__module.model.layers.0.input_layernorm # /home/phil2/Super-Intel-NPU/current/Super-Intel-NPU/venv_offering/lib/python3.12/site-packages/transformers/models/qwen2/modeling_qwen2.py:201:0
  %206 : (Float(2, 16, 4096, strides=[65536, 4096, 1], requires_grad=0, device=cpu), Float(2, 16, 4096, strides=[65536, 4096, 1], requires_grad=0, device=cpu)) = prim::TupleConstruct(%hidden_states.7, %hidden_states.1)
  %207 : Float(2, 16, 4096, strides=[65536, 4096, 1], requires_grad=0, device=cpu), %208 : Float(2, 16, 4096, strides=[65536, 4096, 1], requires_grad=0, device=cpu) = prim::TupleUnpack(%206)
  %o_proj.1 : __torch__.torch.nn.modules.linear.___torch_mangle_2.Linear = prim::GetAttr[name="o_proj"](%self_attn.1)
  %v_proj.1 : __torch__.torch.nn.modules.linear.___torch_mangle_1.Linear = prim::GetAttr[name="v_proj"](%self_attn.1)
  %k_proj.1 : __torch__.torch.nn.modules.linear.___torch_mangle_0.Linear = prim::GetAttr[name="k_proj"](%self_attn.1)
  %q_proj.1 : __torch__.torch.nn.modules.linear.Linear = prim::GetAttr[name="q_proj"](%self_attn.1)
  %213 : int = aten::size(%207, %42), scope: __module.model/__module.model.layers.0/__module.model.layers.0.self_attn # /home/phil2/Super-Intel-NPU/current/Super-Intel-NPU/venv_offering/lib/python3.12/site-packages/transformers/models/qwen2/modeling_qwen2.py:150:0
  %214 : int = aten::size(%207, %44), scope: __module.model/__module.model.layers.0/__module.model.layers.0.self_attn # /home/phil2/Super-Intel-NPU/current/Super-Intel-NPU/venv_offering/lib/python3.12/site-packages/transformers/models/qwen2/modeling_qwen2.py:150:0
  %bias.1 : Tensor = prim::GetAttr[name="bias"](%q_proj.1)
  %weight.7 : Tensor = prim::GetAttr[name="weight"](%q_proj.1)
  %217 : Float(2, 16, 4096, strides=[65536, 4096, 1], requires_grad=0, device=cpu) = aten::linear(%207, %weight.7, %bias.1), scope: __module.model/__module.model.layers.0/__module.model.layers.0.self_attn/__module.model.layers.0.self_attn.q_proj # /home/phil2/Super-Intel-NPU/current/Super-Intel-NPU/venv_offering/lib/python3.12/site-packages/torch/nn/modules/linear.py:134:0
  %218 : int[] = prim::ListConstruct(%213, %214, %45, %30), scope: __module.model/__module.model.layers.0/__module.model.layers.0.self_attn
  %219 : Float(2, 16, 32, 128, strides=[65536, 4096, 128, 1], requires_grad=0, device=cpu) = aten::view(%217, %218), scope: __module.model/__module.model.layers.0/__module.model.layers.0.self_attn # /home/phil2/Super-Intel-NPU/current/Super-Intel-NPU/venv_offering/lib/python3.12/site-packages/transformers/models/qwen2/modeling_qwen2.py:153:0
  %q.1 : Float(2, 32, 16, 128, strides=[65536, 128, 4096, 1], requires_grad=0, device=cpu) = aten::transpose(%219, %44, %38), scope: __module.model/__module.model.layers.0/__module.model.layers.0.self_attn # /home/phil2/Super-Intel-NPU/current/Super-Intel-NPU/venv_offering/lib/python3.12/site-packages/transformers/models/qwen2/modeling_qwen2.py:153:0
  %bias.3 : Tensor = prim::GetAttr[name="bias"](%k_proj.1)
  %weight.9 : Tensor = prim::GetAttr[name="weight"](%k_proj.1)
  %223 : Float(2, 16, 1024, strides=[16384, 1024, 1], requires_grad=0, device=cpu) = aten::linear(%207, %weight.9, %bias.3), scope: __module.model/__module.model.layers.0/__module.model.layers.0.self_attn/__module.model.layers.0.self_attn.k_proj # /home/phil2/Super-Intel-NPU/current/Super-Intel-NPU/venv_offering/lib/python3.12/site-packages/torch/nn/modules/linear.py:134:0
  %224 : int[] = prim::ListConstruct(%213, %214, %45, %30), scope: __module.model/__module.model.layers.0/__module.model.layers.0.self_attn
  %225 : Float(2, 16, 8, 128, strides=[16384, 1024, 128, 1], requires_grad=0, device=cpu) = aten::view(%223, %224), scope: __module.model/__module.model.layers.0/__module.model.layers.0.self_attn # /home/phil2/Super-Intel-NPU/current/Super-Intel-NPU/venv_offering/lib/python3.12/site-packages/transformers/models/qwen2/modeling_qwen2.py:154:0
  %k.1 : Float(2, 8, 16, 128, strides=[16384, 128, 1024, 1], requires_grad=0, device=cpu) = aten::transpose(%225, %44, %38), scope: __module.model/__module.model.layers.0/__module.model.layers.0.self_attn # /home/phil2/Super-Intel-NPU/current/Super-Intel-NPU/venv_offering/lib/python3.12/site-packages/transformers/models/qwen2/modeling_qwen2.py:154:0
  %bias.5 : Tensor = prim::GetAttr[name="bias"](%v_proj.1)
  %weight.11 : Tensor = prim::GetAttr[name="weight"](%v_proj.1)
  %229 : Float(2, 16, 1024, strides=[16384, 1024, 1], requires_grad=0, device=cpu) = aten::linear(%207, %weight.11, %bias.5), scope: __module.model/__module.model.layers.0/__module.model.layers.0.self_attn/__module.model.layers.0.self_attn.v_proj # /home/phil2/Super-Intel-NPU/current/Super-Intel-NPU/venv_offering/lib/python3.12/site-packages/torch/nn/modules/linear.py:134:0
  %230 : int[] = prim::ListConstruct(%213, %214, %45, %30), scope: __module.model/__module.model.layers.0/__module.model.layers.0.self_attn
  %231 : Float(2, 16, 8, 128, strides=[16384, 1024, 128, 1], requires_grad=0, device=cpu) = aten::view(%229, %230), scope: __module.model/__module.model.layers.0/__module.model.layers.0.self_attn # /home/phil2/Super-Intel-NPU/current/Super-Intel-NPU/venv_offering/lib/python3.12/site-packages/transformers/models/qwen2/modeling_qwen2.py:155:0
  %hidden_states.13 : Float(2, 8, 16, 128, strides=[16384, 128, 1024, 1], requires_grad=0, device=cpu) = aten::transpose(%231, %44, %38), scope: __module.model/__module.model.layers.0/__module.model.layers.0.self_attn # /home/phil2/Super-Intel-NPU/current/Super-Intel-NPU/venv_offering/lib/python3.12/site-packages/transformers/models/qwen2/modeling_qwen2.py:155:0
  %cos.5 : Float(2, 1, 16, 128, strides=[2048, 2048, 128, 1], requires_grad=0, device=cpu) = aten::unsqueeze(%190, %44), scope: __module.model/__module.model.layers.0/__module.model.layers.0.self_attn # /home/phil2/Super-Intel-NPU/current/Super-Intel-NPU/venv_offering/lib/python3.12/site-packages/transformers/models/qwen2/modeling_qwen2.py:77:0
  %sin.5 : Float(2, 1, 16, 128, strides=[2048, 2048, 128, 1], requires_grad=0, device=cpu) = aten::unsqueeze(%191, %44), scope: __module.model/__module.model.layers.0/__module.model.layers.0.self_attn # /home/phil2/Super-Intel-NPU/current/Super-Intel-NPU/venv_offering/lib/python3.12/site-packages/transformers/models/qwen2/modeling_qwen2.py:78:0
  %235 : Float(2, 32, 16, 128, strides=[65536, 128, 4096, 1], requires_grad=0, device=cpu) = aten::mul(%q.1, %cos.5), scope: __module.model/__module.model.layers.0/__module.model.layers.0.self_attn # /home/phil2/Super-Intel-NPU/current/Super-Intel-NPU/venv_offering/lib/python3.12/site-packages/transformers/models/qwen2/modeling_qwen2.py:79:0
  %236 : int = aten::size(%q.1, %36), scope: __module.model/__module.model.layers.0/__module.model.layers.0.self_attn # /home/phil2/Super-Intel-NPU/current/Super-Intel-NPU/venv_offering/lib/python3.12/site-packages/transformers/models/qwen2/modeling_qwen2.py:52:0
  %237 : Long(device=cpu) = prim::NumToTensor(%236), scope: __module.model/__module.model.layers.0/__module.model.layers.0.self_attn
  %238 : Long(requires_grad=0, device=cpu) = aten::floor_divide(%237, %29), scope: __module.model/__module.model.layers.0/__module.model.layers.0.self_attn # /home/phil2/Super-Intel-NPU/current/Super-Intel-NPU/venv_offering/lib/python3.12/site-packages/torch/_tensor.py:1119:0
  %239 : int = aten::Int(%238), scope: __module.model/__module.model.layers.0/__module.model.layers.0.self_attn
  %x1.1 : Float(2, 32, 16, 64, strides=[65536, 128, 4096, 1], requires_grad=0, device=cpu) = aten::slice(%q.1, %36, %42, %239, %44), scope: __module.model/__module.model.layers.0/__module.model.layers.0.self_attn # /home/phil2/Super-Intel-NPU/current/Super-Intel-NPU/venv_offering/lib/python3.12/site-packages/transformers/models/qwen2/modeling_qwen2.py:52:0
  %241 : int = aten::size(%q.1, %36), scope: __module.model/__module.model.layers.0/__module.model.layers.0.self_attn # /home/phil2/Super-Intel-NPU/current/Super-Intel-NPU/venv_offering/lib/python3.12/site-packages/transformers/models/qwen2/modeling_qwen2.py:53:0
  %242 : Long(device=cpu) = prim::NumToTensor(%241), scope: __module.model/__module.model.layers.0/__module.model.layers.0.self_attn
  %243 : Long(requires_grad=0, device=cpu) = aten::floor_divide(%242, %29), scope: __module.model/__module.model.layers.0/__module.model.layers.0.self_attn # /home/phil2/Super-Intel-NPU/current/Super-Intel-NPU/venv_offering/lib/python3.12/site-packages/torch/_tensor.py:1119:0
  %244 : int = aten::Int(%243), scope: __module.model/__module.model.layers.0/__module.model.layers.0.self_attn
  %x2.1 : Float(2, 32, 16, 64, strides=[65536, 128, 4096, 1], requires_grad=0, device=cpu) = aten::slice(%q.1, %36, %244, %37, %44), scope: __module.model/__module.model.layers.0/__module.model.layers.0.self_attn # /home/phil2/Super-Intel-NPU/current/Super-Intel-NPU/venv_offering/lib/python3.12/site-packages/transformers/models/qwen2/modeling_qwen2.py:53:0
  %246 : Float(2, 32, 16, 64, strides=[32768, 64, 2048, 1], requires_grad=0, device=cpu) = aten::neg(%x2.1), scope: __module.model/__module.model.layers.0/__module.model.layers.0.self_attn # /home/phil2/Super-Intel-NPU/current/Super-Intel-NPU/venv_offering/lib/python3.12/site-packages/transformers/models/qwen2/modeling_qwen2.py:54:0
  %247 : Tensor[] = prim::ListConstruct(%246, %x1.1), scope: __module.model/__module.model.layers.0/__module.model.layers.0.self_attn
  %248 : Float(2, 32, 16, 128, strides=[65536, 2048, 128, 1], requires_grad=0, device=cpu) = aten::cat(%247, %45), scope: __module.model/__module.model.layers.0/__module.model.layers.0.self_attn # /home/phil2/Super-Intel-NPU/current/Super-Intel-NPU/venv_offering/lib/python3.12/site-packages/transformers/models/qwen2/modeling_qwen2.py:54:0
  %249 : Float(2, 32, 16, 128, strides=[65536, 2048, 128, 1], requires_grad=0, device=cpu) = aten::mul(%248, %sin.5), scope: __module.model/__module.model.layers.0/__module.model.layers.0.self_attn # /home/phil2/Super-Intel-NPU/current/Super-Intel-NPU/venv_offering/lib/python3.12/site-packages/transformers/models/qwen2/modeling_qwen2.py:79:0
  %query.1 : Float(2, 32, 16, 128, strides=[65536, 128, 4096, 1], requires_grad=0, device=cpu) = aten::add(%235, %249, %44), scope: __module.model/__module.model.layers.0/__module.model.layers.0.self_attn # /home/phil2/Super-Intel-NPU/current/Super-Intel-NPU/venv_offering/lib/python3.12/site-packages/transformers/models/qwen2/modeling_qwen2.py:79:0
  %251 : Float(2, 8, 16, 128, strides=[16384, 128, 1024, 1], requires_grad=0, device=cpu) = aten::mul(%k.1, %cos.5), scope: __module.model/__module.model.layers.0/__module.model.layers.0.self_attn # /home/phil2/Super-Intel-NPU/current/Super-Intel-NPU/venv_offering/lib/python3.12/site-packages/transformers/models/qwen2/modeling_qwen2.py:80:0
  %252 : int = aten::size(%k.1, %36), scope: __module.model/__module.model.layers.0/__module.model.layers.0.self_attn # /home/phil2/Super-Intel-NPU/current/Super-Intel-NPU/venv_offering/lib/python3.12/site-packages/transformers/models/qwen2/modeling_qwen2.py:52:0
  %253 : Long(device=cpu) = prim::NumToTensor(%252), scope: __module.model/__module.model.layers.0/__module.model.layers.0.self_attn
  %254 : Long(requires_grad=0, device=cpu) = aten::floor_divide(%253, %29), scope: __module.model/__module.model.layers.0/__module.model.layers.0.self_attn # /home/phil2/Super-Intel-NPU/current/Super-Intel-NPU/venv_offering/lib/python3.12/site-packages/torch/_tensor.py:1119:0
  %255 : int = aten::Int(%254), scope: __module.model/__module.model.layers.0/__module.model.layers.0.self_attn
  %x1.3 : Float(2, 8, 16, 64, strides=[16384, 128, 1024, 1], requires_grad=0, device=cpu) = aten::slice(%k.1, %36, %42, %255, %44), scope: __module.model/__module.model.layers.0/__module.model.layers.0.self_attn # /home/phil2/Super-Intel-NPU/current/Super-Intel-NPU/venv_offering/lib/python3.12/site-packages/transformers/models/qwen2/modeling_qwen2.py:52:0
  %257 : int = aten::size(%k.1, %36), scope: __module.model/__module.model.layers.0/__module.model.layers.0.self_attn # /home/phil2/Super-Intel-NPU/current/Super-Intel-NPU/venv_offering/lib/python3.12/site-packages/transformers/models/qwen2/modeling_qwen2.py:53:0
  %258 : Long(device=cpu) = prim::NumToTensor(%257), scope: __module.model/__module.model.layers.0/__module.model.layers.0.self_attn
  %259 : Long(requires_grad=0, device=cpu) = aten::floor_divide(%258, %29), scope: __module.model/__module.model.layers.0/__module.model.layers.0.self_attn # /home/phil2/Super-Intel-NPU/current/Super-Intel-NPU/venv_offering/lib/python3.12/site-packages/torch/_tensor.py:1119:0
  %260 : int = aten::Int(%259), scope: __module.model/__module.model.layers.0/__module.model.layers.0.self_attn
  %x2.3 : Float(2, 8, 16, 64, strides=[16384, 128, 1024, 1], requires_grad=0, device=cpu) = aten::slice(%k.1, %36, %260, %37, %44), scope: __module.model/__module.model.layers.0/__module.model.layers.0.self_attn # /home/phil2/Super-Intel-NPU/current/Super-Intel-NPU/venv_offering/lib/python3.12/site-packages/transformers/models/qwen2/modeling_qwen2.py:53:0
  %262 : Float(2, 8, 16, 64, strides=[8192, 64, 512, 1], requires_grad=0, device=cpu) = aten::neg(%x2.3), scope: __module.model/__module.model.layers.0/__module.model.layers.0.self_attn # /home/phil2/Super-Intel-NPU/current/Super-Intel-NPU/venv_offering/lib/python3.12/site-packages/transformers/models/qwen2/modeling_qwen2.py:54:0
  %263 : Tensor[] = prim::ListConstruct(%262, %x1.3), scope: __module.model/__module.model.layers.0/__module.model.layers.0.self_attn
  %264 : Float(2, 8, 16, 128, strides=[16384, 2048, 128, 1], requires_grad=0, device=cpu) = aten::cat(%263, %45), scope: __module.model/__module.model.layers.0/__module.model.layers.0.self_attn # /home/phil2/Super-Intel-NPU/current/Super-Intel-NPU/venv_offering/lib/python3.12/site-packages/transformers/models/qwen2/modeling_qwen2.py:54:0
  %265 : Float(2, 8, 16, 128, strides=[16384, 2048, 128, 1], requires_grad=0, device=cpu) = aten::mul(%264, %sin.5), scope: __module.model/__module.model.layers.0/__module.model.layers.0.self_attn # /home/phil2/Super-Intel-NPU/current/Super-Intel-NPU/venv_offering/lib/python3.12/site-packages/transformers/models/qwen2/modeling_qwen2.py:80:0
  %hidden_states.9 : Float(2, 8, 16, 128, strides=[16384, 128, 1024, 1], requires_grad=0, device=cpu) = aten::add(%251, %265, %44), scope: __module.model/__module.model.layers.0/__module.model.layers.0.self_attn # /home/phil2/Super-Intel-NPU/current/Super-Intel-NPU/venv_offering/lib/python3.12/site-packages/transformers/models/qwen2/modeling_qwen2.py:80:0
  %267 : int = aten::size(%hidden_states.9, %42), scope: __module.model/__module.model.layers.0/__module.model.layers.0.self_attn # /home/phil2/Super-Intel-NPU/current/Super-Intel-NPU/venv_offering/lib/python3.12/site-packages/transformers/integrations/sdpa_attention.py:23:0
  %268 : int = aten::size(%hidden_states.9, %44), scope: __module.model/__module.model.layers.0/__module.model.layers.0.self_attn # /home/phil2/Super-Intel-NPU/current/Super-Intel-NPU/venv_offering/lib/python3.12/site-packages/transformers/integrations/sdpa_attention.py:23:0
  %num_key_value_heads.1 : Long(device=cpu) = prim::NumToTensor(%268), scope: __module.model/__module.model.layers.0/__module.model.layers.0.self_attn
  %270 : int = aten::size(%hidden_states.9, %38), scope: __module.model/__module.model.layers.0/__module.model.layers.0.self_attn # /home/phil2/Super-Intel-NPU/current/Super-Intel-NPU/venv_offering/lib/python3.12/site-packages/transformers/integrations/sdpa_attention.py:23:0
  %271 : int = aten::size(%hidden_states.9, %36), scope: __module.model/__module.model.layers.0/__module.model.layers.0.self_attn # /home/phil2/Super-Intel-NPU/current/Super-Intel-NPU/venv_offering/lib/python3.12/site-packages/transformers/integrations/sdpa_attention.py:23:0
  %272 : Float(2, 8, 16, 128, strides=[16384, 128, 1024, 1], requires_grad=0, device=cpu) = aten::slice(%hidden_states.9, %42, %42, %37, %44), scope: __module.model/__module.model.layers.0/__module.model.layers.0.self_attn # /home/phil2/Super-Intel-NPU/current/Super-Intel-NPU/venv_offering/lib/python3.12/site-packages/transformers/integrations/sdpa_attention.py:26:0
  %273 : Float(2, 8, 16, 128, strides=[16384, 128, 1024, 1], requires_grad=0, device=cpu) = aten::slice(%272, %44, %42, %37, %44), scope: __module.model/__module.model.layers.0/__module.model.layers.0.self_attn # /home/phil2/Super-Intel-NPU/current/Super-Intel-NPU/venv_offering/lib/python3.12/site-packages/transformers/integrations/sdpa_attention.py:26:0
  %274 : Float(2, 8, 1, 16, 128, strides=[16384, 128, 16384, 1024, 1], requires_grad=0, device=cpu) = aten::unsqueeze(%273, %38), scope: __module.model/__module.model.layers.0/__module.model.layers.0.self_attn # /home/phil2/Super-Intel-NPU/current/Super-Intel-NPU/venv_offering/lib/python3.12/site-packages/transformers/integrations/sdpa_attention.py:26:0
  %275 : Float(2, 8, 1, 16, 128, strides=[16384, 128, 16384, 1024, 1], requires_grad=0, device=cpu) = aten::slice(%274, %36, %42, %37, %44), scope: __module.model/__module.model.layers.0/__module.model.layers.0.self_attn # /home/phil2/Super-Intel-NPU/current/Super-Intel-NPU/venv_offering/lib/python3.12/site-packages/transformers/integrations/sdpa_attention.py:26:0
  %276 : Float(2, 8, 1, 16, 128, strides=[16384, 128, 16384, 1024, 1], requires_grad=0, device=cpu) = aten::slice(%275, %35, %42, %37, %44), scope: __module.model/__module.model.layers.0/__module.model.layers.0.self_attn # /home/phil2/Super-Intel-NPU/current/Super-Intel-NPU/venv_offering/lib/python3.12/site-packages/transformers/integrations/sdpa_attention.py:26:0
  %277 : int[] = prim::ListConstruct(%267, %268, %35, %270, %271), scope: __module.model/__module.model.layers.0/__module.model.layers.0.self_attn
  %hidden_states.11 : Float(2, 8, 4, 16, 128, strides=[16384, 128, 0, 1024, 1], requires_grad=0, device=cpu) = aten::expand(%276, %277, %46), scope: __module.model/__module.model.layers.0/__module.model.layers.0.self_attn # /home/phil2/Super-Intel-NPU/current/Super-Intel-NPU/venv_offering/lib/python3.12/site-packages/transformers/integrations/sdpa_attention.py:26:0
  %279 : Long(requires_grad=0, device=cpu) = aten::mul(%num_key_value_heads.1, %28), scope: __module.model/__module.model.layers.0/__module.model.layers.0.self_attn # /home/phil2/Super-Intel-NPU/current/Super-Intel-NPU/venv_offering/lib/python3.12/site-packages/transformers/integrations/sdpa_attention.py:27:0
  %280 : int = aten::Int(%279), scope: __module.model/__module.model.layers.0/__module.model.layers.0.self_attn
  %281 : int[] = prim::ListConstruct(%267, %280, %270, %271), scope: __module.model/__module.model.layers.0/__module.model.layers.0.self_attn
  %key.1 : Float(2, 32, 16, 128, strides=[65536, 2048, 128, 1], requires_grad=0, device=cpu) = aten::reshape(%hidden_states.11, %281), scope: __module.model/__module.model.layers.0/__module.model.layers.0.self_attn # /home/phil2/Super-Intel-NPU/current/Super-Intel-NPU/venv_offering/lib/python3.12/site-packages/transformers/integrations/sdpa_attention.py:27:0
  %283 : int = aten::size(%hidden_states.13, %42), scope: __module.model/__module.model.layers.0/__module.model.layers.0.self_attn # /home/phil2/Super-Intel-NPU/current/Super-Intel-NPU/venv_offering/lib/python3.12/site-packages/transformers/integrations/sdpa_attention.py:23:0
  %284 : int = aten::size(%hidden_states.13, %44), scope: __module.model/__module.model.layers.0/__module.model.layers.0.self_attn # /home/phil2/Super-Intel-NPU/current/Super-Intel-NPU/venv_offering/lib/python3.12/site-packages/transformers/integrations/sdpa_attention.py:23:0
  %num_key_value_heads.3 : Long(device=cpu) = prim::NumToTensor(%284), scope: __module.model/__module.model.layers.0/__module.model.layers.0.self_attn
  %286 : int = aten::size(%hidden_states.13, %38), scope: __module.model/__module.model.layers.0/__module.model.layers.0.self_attn # /home/phil2/Super-Intel-NPU/current/Super-Intel-NPU/venv_offering/lib/python3.12/site-packages/transformers/integrations/sdpa_attention.py:23:0
  %287 : int = aten::size(%hidden_states.13, %36), scope: __module.model/__module.model.layers.0/__module.model.layers.0.self_attn # /home/phil2/Super-Intel-NPU/current/Super-Intel-NPU/venv_offering/lib/python3.12/site-packages/transformers/integrations/sdpa_attention.py:23:0
  %288 : Float(2, 8, 16, 128, strides=[16384, 128, 1024, 1], requires_grad=0, device=cpu) = aten::slice(%hidden_states.13, %42, %42, %37, %44), scope: __module.model/__module.model.layers.0/__module.model.layers.0.self_attn # /home/phil2/Super-Intel-NPU/current/Super-Intel-NPU/venv_offering/lib/python3.12/site-packages/transformers/integrations/sdpa_attention.py:26:0
  %289 : Float(2, 8, 16, 128, strides=[16384, 128, 1024, 1], requires_grad=0, device=cpu) = aten::slice(%288, %44, %42, %37, %44), scope: __module.model/__module.model.layers.0/__module.model.layers.0.self_attn # /home/phil2/Super-Intel-NPU/current/Super-Intel-NPU/venv_offering/lib/python3.12/site-packages/transformers/integrations/sdpa_attention.py:26:0
  %290 : Float(2, 8, 1, 16, 128, strides=[16384, 128, 16384, 1024, 1], requires_grad=0, device=cpu) = aten::unsqueeze(%289, %38), scope: __module.model/__module.model.layers.0/__module.model.layers.0.self_attn # /home/phil2/Super-Intel-NPU/current/Super-Intel-NPU/venv_offering/lib/python3.12/site-packages/transformers/integrations/sdpa_attention.py:26:0
  %291 : Float(2, 8, 1, 16, 128, strides=[16384, 128, 16384, 1024, 1], requires_grad=0, device=cpu) = aten::slice(%290, %36, %42, %37, %44), scope: __module.model/__module.model.layers.0/__module.model.layers.0.self_attn # /home/phil2/Super-Intel-NPU/current/Super-Intel-NPU/venv_offering/lib/python3.12/site-packages/transformers/integrations/sdpa_attention.py:26:0
  %292 : Float(2, 8, 1, 16, 128, strides=[16384, 128, 16384, 1024, 1], requires_grad=0, device=cpu) = aten::slice(%291, %35, %42, %37, %44), scope: __module.model/__module.model.layers.0/__module.model.layers.0.self_attn # /home/phil2/Super-Intel-NPU/current/Super-Intel-NPU/venv_offering/lib/python3.12/site-packages/transformers/integrations/sdpa_attention.py:26:0
  %293 : int[] = prim::ListConstruct(%283, %284, %35, %286, %287), scope: __module.model/__module.model.layers.0/__module.model.layers.0.self_attn
  %hidden_states.15 : Float(2, 8, 4, 16, 128, strides=[16384, 128, 0, 1024, 1], requires_grad=0, device=cpu) = aten::expand(%292, %293, %46), scope: __module.model/__module.model.layers.0/__module.model.layers.0.self_attn # /home/phil2/Super-Intel-NPU/current/Super-Intel-NPU/venv_offering/lib/python3.12/site-packages/transformers/integrations/sdpa_attention.py:26:0
  %295 : Long(requires_grad=0, device=cpu) = aten::mul(%num_key_value_heads.3, %28), scope: __module.model/__module.model.layers.0/__module.model.layers.0.self_attn # /home/phil2/Super-Intel-NPU/current/Super-Intel-NPU/venv_offering/lib/python3.12/site-packages/transformers/integrations/sdpa_attention.py:27:0
  %296 : int = aten::Int(%295), scope: __module.model/__module.model.layers.0/__module.model.layers.0.self_attn
  %297 : int[] = prim::ListConstruct(%283, %296, %286, %287), scope: __module.model/__module.model.layers.0/__module.model.layers.0.self_attn
  %value.1 : Float(2, 32, 16, 128, strides=[65536, 2048, 128, 1], requires_grad=0, device=cpu) = aten::reshape(%hidden_states.15, %297), scope: __module.model/__module.model.layers.0/__module.model.layers.0.self_attn # /home/phil2/Super-Intel-NPU/current/Super-Intel-NPU/venv_offering/lib/python3.12/site-packages/transformers/integrations/sdpa_attention.py:27:0
  %299 : int = aten::size(%key.1, %38), scope: __module.model/__module.model.layers.0/__module.model.layers.0.self_attn # /home/phil2/Super-Intel-NPU/current/Super-Intel-NPU/venv_offering/lib/python3.12/site-packages/transformers/integrations/sdpa_attention.py:73:0
  %300 : Float(2, 1, 16, 16, strides=[256, 256, 16, 1], requires_grad=0, device=cpu) = aten::slice(%attention_mask.5, %42, %42, %37, %44), scope: __module.model/__module.model.layers.0/__module.model.layers.0.self_attn # /home/phil2/Super-Intel-NPU/current/Super-Intel-NPU/venv_offering/lib/python3.12/site-packages/transformers/integrations/sdpa_attention.py:73:0
  %301 : Float(2, 1, 16, 16, strides=[256, 256, 16, 1], requires_grad=0, device=cpu) = aten::slice(%300, %44, %42, %37, %44), scope: __module.model/__module.model.layers.0/__module.model.layers.0.self_attn # /home/phil2/Super-Intel-NPU/current/Super-Intel-NPU/venv_offering/lib/python3.12/site-packages/transformers/integrations/sdpa_attention.py:73:0
  %302 : Float(2, 1, 16, 16, strides=[256, 256, 16, 1], requires_grad=0, device=cpu) = aten::slice(%301, %38, %42, %37, %44), scope: __module.model/__module.model.layers.0/__module.model.layers.0.self_attn # /home/phil2/Super-Intel-NPU/current/Super-Intel-NPU/venv_offering/lib/python3.12/site-packages/transformers/integrations/sdpa_attention.py:73:0
  %attention_mask.7 : Float(2, 1, 16, 16, strides=[256, 256, 16, 1], requires_grad=0, device=cpu) = aten::slice(%302, %36, %42, %299, %44), scope: __module.model/__module.model.layers.0/__module.model.layers.0.self_attn # /home/phil2/Super-Intel-NPU/current/Super-Intel-NPU/venv_offering/lib/python3.12/site-packages/transformers/integrations/sdpa_attention.py:73:0
  %attn_output.1 : Float(2, 32, 16, 128, strides=[65536, 128, 4096, 1], requires_grad=0, device=cpu) = aten::scaled_dot_product_attention(%query.1, %key.1, %value.1, %attention_mask.7, %27, %46, %26, %46), scope: __module.model/__module.model.layers.0/__module.model.layers.0.self_attn # /home/phil2/Super-Intel-NPU/current/Super-Intel-NPU/venv_offering/lib/python3.12/site-packages/transformers/integrations/sdpa_attention.py:96:0
  %305 : Float(2, 16, 32, 128, strides=[65536, 4096, 128, 1], requires_grad=0, device=cpu) = aten::transpose(%attn_output.1, %44, %38), scope: __module.model/__module.model.layers.0/__module.model.layers.0.self_attn # /home/phil2/Super-Intel-NPU/current/Super-Intel-NPU/venv_offering/lib/python3.12/site-packages/transformers/integrations/sdpa_attention.py:106:0
  %attn_output.3 : Float(2, 16, 32, 128, strides=[65536, 4096, 128, 1], requires_grad=0, device=cpu) = aten::contiguous(%305, %42), scope: __module.model/__module.model.layers.0/__module.model.layers.0.self_attn # /home/phil2/Super-Intel-NPU/current/Super-Intel-NPU/venv_offering/lib/python3.12/site-packages/transformers/integrations/sdpa_attention.py:106:0
  %307 : int[] = prim::ListConstruct(%213, %214, %45), scope: __module.model/__module.model.layers.0/__module.model.layers.0.self_attn
  %308 : Float(2, 16, 4096, strides=[65536, 4096, 1], requires_grad=0, device=cpu) = aten::reshape(%attn_output.3, %307), scope: __module.model/__module.model.layers.0/__module.model.layers.0.self_attn # /home/phil2/Super-Intel-NPU/current/Super-Intel-NPU/venv_offering/lib/python3.12/site-packages/transformers/models/qwen2/modeling_qwen2.py:181:0
  %input.1 : Float(2, 16, 4096, strides=[65536, 4096, 1], requires_grad=0, device=cpu) = aten::contiguous(%308, %42), scope: __module.model/__module.model.layers.0/__module.model.layers.0.self_attn # /home/phil2/Super-Intel-NPU/current/Super-Intel-NPU/venv_offering/lib/python3.12/site-packages/transformers/models/qwen2/modeling_qwen2.py:181:0
  %weight.13 : Tensor = prim::GetAttr[name="weight"](%o_proj.1)
  %hidden_states.17 : Float(2, 16, 4096, strides=[65536, 4096, 1], requires_grad=0, device=cpu) = aten::linear(%input.1, %weight.13, %41), scope: __module.model/__module.model.layers.0/__module.model.layers.0.self_attn/__module.model.layers.0.self_attn.o_proj # /home/phil2/Super-Intel-NPU/current/Super-Intel-NPU/venv_offering/lib/python3.12/site-packages/torch/nn/modules/linear.py:134:0
  %hidden_states.19 : Float(2, 16, 4096, strides=[65536, 4096, 1], requires_grad=0, device=cpu) = aten::add(%208, %hidden_states.17, %44), scope: __module.model/__module.model.layers.0 # /home/phil2/Super-Intel-NPU/current/Super-Intel-NPU/venv_offering/lib/python3.12/site-packages/transformers/models/qwen2/modeling_qwen2.py:244:0
  %weight.15 : Tensor = prim::GetAttr[name="weight"](%post_attention_layernorm.1)
  %hidden_states.21 : Float(2, 16, 4096, strides=[65536, 4096, 1], requires_grad=0, device=cpu) = aten::to(%hidden_states.19, %33, %46, %46, %41), scope: __module.model/__module.model.layers.0/__module.model.layers.0.post_attention_layernorm # /home/phil2/Super-Intel-NPU/current/Super-Intel-NPU/venv_offering/lib/python3.12/site-packages/transformers/models/qwen2/modeling_qwen2.py:198:0
  %315 : Float(2, 16, 4096, strides=[65536, 4096, 1], requires_grad=0, device=cpu) = aten::pow(%hidden_states.21, %38), scope: __module.model/__module.model.layers.0/__module.model.layers.0.post_attention_layernorm # /home/phil2/Super-Intel-NPU/current/Super-Intel-NPU/venv_offering/lib/python3.12/site-packages/transformers/models/qwen2/modeling_qwen2.py:199:0
  %316 : int[] = prim::ListConstruct(%45), scope: __module.model/__module.model.layers.0/__module.model.layers.0.post_attention_layernorm
  %variance.3 : Float(2, 16, 1, strides=[16, 1, 1], requires_grad=0, device=cpu) = aten::mean(%315, %316, %25, %41), scope: __module.model/__module.model.layers.0/__module.model.layers.0.post_attention_layernorm # /home/phil2/Super-Intel-NPU/current/Super-Intel-NPU/venv_offering/lib/python3.12/site-packages/transformers/models/qwen2/modeling_qwen2.py:199:0
  %318 : Float(2, 16, 1, strides=[16, 1, 1], requires_grad=0, device=cpu) = aten::add(%variance.3, %24, %44), scope: __module.model/__module.model.layers.0/__module.model.layers.0.post_attention_layernorm # /home/phil2/Super-Intel-NPU/current/Super-Intel-NPU/venv_offering/lib/python3.12/site-packages/transformers/models/qwen2/modeling_qwen2.py:200:0
  %319 : Float(2, 16, 1, strides=[16, 1, 1], requires_grad=0, device=cpu) = aten::rsqrt(%318), scope: __module.model/__module.model.layers.0/__module.model.layers.0.post_attention_layernorm # /home/phil2/Super-Intel-NPU/current/Super-Intel-NPU/venv_offering/lib/python3.12/site-packages/transformers/models/qwen2/modeling_qwen2.py:200:0
  %hidden_states.23 : Float(2, 16, 4096, strides=[65536, 4096, 1], requires_grad=0, device=cpu) = aten::mul(%hidden_states.21, %319), scope: __module.model/__module.model.layers.0/__module.model.layers.0.post_attention_layernorm # /home/phil2/Super-Intel-NPU/current/Super-Intel-NPU/venv_offering/lib/python3.12/site-packages/transformers/models/qwen2/modeling_qwen2.py:200:0
  %hidden_states.25 : Float(2, 16, 4096, strides=[65536, 4096, 1], requires_grad=0, device=cpu) = aten::to(%hidden_states.23, %33, %46, %46, %41), scope: __module.model/__module.model.layers.0/__module.model.layers.0.post_attention_layernorm # /home/phil2/Super-Intel-NPU/current/Super-Intel-NPU/venv_offering/lib/python3.12/site-packages/transformers/models/qwen2/modeling_qwen2.py:201:0
  %input.3 : Float(2, 16, 4096, strides=[65536, 4096, 1], requires_grad=0, device=cpu) = aten::mul(%weight.15, %hidden_states.25), scope: __module.model/__module.model.layers.0/__module.model.layers.0.post_attention_layernorm # /home/phil2/Super-Intel-NPU/current/Super-Intel-NPU/venv_offering/lib/python3.12/site-packages/transformers/models/qwen2/modeling_qwen2.py:201:0
  %323 : (Float(2, 16, 4096, strides=[65536, 4096, 1], requires_grad=0, device=cpu), Float(2, 16, 4096, strides=[65536, 4096, 1], requires_grad=0, device=cpu)) = prim::TupleConstruct(%input.3, %hidden_states.21)
  %324 : Float(2, 16, 4096, strides=[65536, 4096, 1], requires_grad=0, device=cpu), %325 : Float(2, 16, 4096, strides=[65536, 4096, 1], requires_grad=0, device=cpu) = prim::TupleUnpack(%323)
  %down_proj.1 : __torch__.torch.nn.modules.linear.___torch_mangle_5.Linear = prim::GetAttr[name="down_proj"](%mlp.1)
  %up_proj.1 : __torch__.torch.nn.modules.linear.___torch_mangle_4.Linear = prim::GetAttr[name="up_proj"](%mlp.1)
  %gate_proj.1 : __torch__.torch.nn.modules.linear.___torch_mangle_3.Linear = prim::GetAttr[name="gate_proj"](%mlp.1)
  %weight.17 : Tensor = prim::GetAttr[name="weight"](%gate_proj.1)
  %input.5 : Float(2, 16, 12288, strides=[196608, 12288, 1], requires_grad=0, device=cpu) = aten::linear(%324, %weight.17, %41), scope: __module.model/__module.model.layers.0/__module.model.layers.0.mlp/__module.model.layers.0.mlp.gate_proj # /home/phil2/Super-Intel-NPU/current/Super-Intel-NPU/venv_offering/lib/python3.12/site-packages/torch/nn/modules/linear.py:134:0
  %331 : Float(2, 16, 12288, strides=[196608, 12288, 1], requires_grad=0, device=cpu) = aten::silu(%input.5), scope: __module.model/__module.model.layers.0/__module.model.layers.0.mlp/__module.model.layers.0.mlp.act_fn # /home/phil2/Super-Intel-NPU/current/Super-Intel-NPU/venv_offering/lib/python3.12/site-packages/torch/nn/functional.py:2371:0
  %weight.19 : Tensor = prim::GetAttr[name="weight"](%up_proj.1)
  %333 : Float(2, 16, 12288, strides=[196608, 12288, 1], requires_grad=0, device=cpu) = aten::linear(%324, %weight.19, %41), scope: __module.model/__module.model.layers.0/__module.model.layers.0.mlp/__module.model.layers.0.mlp.up_proj # /home/phil2/Super-Intel-NPU/current/Super-Intel-NPU/venv_offering/lib/python3.12/site-packages/torch/nn/modules/linear.py:134:0
  %input.7 : Float(2, 16, 12288, strides=[196608, 12288, 1], requires_grad=0, device=cpu) = aten::mul(%331, %333), scope: __module.model/__module.model.layers.0/__module.model.layers.0.mlp # /home/phil2/Super-Intel-NPU/current/Super-Intel-NPU/venv_offering/lib/python3.12/site-packages/transformers/models/qwen2/modeling_qwen2.py:46:0
  %weight.21 : Tensor = prim::GetAttr[name="weight"](%down_proj.1)
  %hidden_states.27 : Float(2, 16, 4096, strides=[65536, 4096, 1], requires_grad=0, device=cpu) = aten::linear(%input.7, %weight.21, %41), scope: __module.model/__module.model.layers.0/__module.model.layers.0.mlp/__module.model.layers.0.mlp.down_proj # /home/phil2/Super-Intel-NPU/current/Super-Intel-NPU/venv_offering/lib/python3.12/site-packages/torch/nn/modules/linear.py:134:0
  %hidden_states.29 : Float(2, 16, 4096, strides=[65536, 4096, 1], requires_grad=0, device=cpu) = aten::add(%325, %hidden_states.27, %44), scope: __module.model/__module.model.layers.0 # /home/phil2/Super-Intel-NPU/current/Super-Intel-NPU/venv_offering/lib/python3.12/site-packages/transformers/models/qwen2/modeling_qwen2.py:250:0
  %mlp.3 : __torch__.transformers.models.qwen2.modeling_qwen2.___torch_mangle_16.Qwen2MLP = prim::GetAttr[name="mlp"](%_1)
  %post_attention_layernorm.3 : __torch__.transformers.models.qwen2.modeling_qwen2.___torch_mangle_18.Qwen2RMSNorm = prim::GetAttr[name="post_attention_layernorm"](%_1)
  %self_attn.3 : __torch__.transformers.models.qwen2.modeling_qwen2.___torch_mangle_11.Qwen2Attention = prim::GetAttr[name="self_attn"](%_1)
  %input_layernorm.3 : __torch__.transformers.models.qwen2.modeling_qwen2.___torch_mangle_17.Qwen2RMSNorm = prim::GetAttr[name="input_layernorm"](%_1)
  %weight.23 : Tensor = prim::GetAttr[name="weight"](%input_layernorm.3)
  %hidden_states.31 : Float(2, 16, 4096, strides=[65536, 4096, 1], requires_grad=0, device=cpu) = aten::to(%hidden_states.29, %33, %46, %46, %41), scope: __module.model/__module.model.layers.1/__module.model.layers.1.input_layernorm # /home/phil2/Super-Intel-NPU/current/Super-Intel-NPU/venv_offering/lib/python3.12/site-packages/transformers/models/qwen2/modeling_qwen2.py:198:0
  %344 : Float(2, 16, 4096, strides=[65536, 4096, 1], requires_grad=0, device=cpu) = aten::pow(%hidden_states.31, %38), scope: __module.model/__module.model.layers.1/__module.model.layers.1.input_layernorm # /home/phil2/Super-Intel-NPU/current/Super-Intel-NPU/venv_offering/lib/python3.12/site-packages/transformers/models/qwen2/modeling_qwen2.py:199:0
  %345 : int[] = prim::ListConstruct(%45), scope: __module.model/__module.model.layers.1/__module.model.layers.1.input_layernorm
  %variance.5 : Float(2, 16, 1, strides=[16, 1, 1], requires_grad=0, device=cpu) = aten::mean(%344, %345, %25, %41), scope: __module.model/__module.model.layers.1/__module.model.layers.1.input_layernorm # /home/phil2/Super-Intel-NPU/current/Super-Intel-NPU/venv_offering/lib/python3.12/site-packages/transformers/models/qwen2/modeling_qwen2.py:199:0
  %347 : Float(2, 16, 1, strides=[16, 1, 1], requires_grad=0, device=cpu) = aten::add(%variance.5, %24, %44), scope: __module.model/__module.model.layers.1/__module.model.layers.1.input_layernorm # /home/phil2/Super-Intel-NPU/current/Super-Intel-NPU/venv_offering/lib/python3.12/site-packages/transformers/models/qwen2/modeling_qwen2.py:200:0
  %348 : Float(2, 16, 1, strides=[16, 1, 1], requires_grad=0, device=cpu) = aten::rsqrt(%347), scope: __module.model/__module.model.layers.1/__module.model.layers.1.input_layernorm # /home/phil2/Super-Intel-NPU/current/Super-Intel-NPU/venv_offering/lib/python3.12/site-packages/transformers/models/qwen2/modeling_qwen2.py:200:0
  %hidden_states.33 : Float(2, 16, 4096, strides=[65536, 4096, 1], requires_grad=0, device=cpu) = aten::mul(%hidden_states.31, %348), scope: __module.model/__module.model.layers.1/__module.model.layers.1.input_layernorm # /home/phil2/Super-Intel-NPU/current/Super-Intel-NPU/venv_offering/lib/python3.12/site-packages/transformers/models/qwen2/modeling_qwen2.py:200:0
  %hidden_states.35 : Float(2, 16, 4096, strides=[65536, 4096, 1], requires_grad=0, device=cpu) = aten::to(%hidden_states.33, %33, %46, %46, %41), scope: __module.model/__module.model.layers.1/__module.model.layers.1.input_layernorm # /home/phil2/Super-Intel-NPU/current/Super-Intel-NPU/venv_offering/lib/python3.12/site-packages/transformers/models/qwen2/modeling_qwen2.py:201:0
  %hidden_states.37 : Float(2, 16, 4096, strides=[65536, 4096, 1], requires_grad=0, device=cpu) = aten::mul(%weight.23, %hidden_states.35), scope: __module.model/__module.model.layers.1/__module.model.layers.1.input_layernorm # /home/phil2/Super-Intel-NPU/current/Super-Intel-NPU/venv_offering/lib/python3.12/site-packages/transformers/models/qwen2/modeling_qwen2.py:201:0
  %352 : (Float(2, 16, 4096, strides=[65536, 4096, 1], requires_grad=0, device=cpu), Float(2, 16, 4096, strides=[65536, 4096, 1], requires_grad=0, device=cpu)) = prim::TupleConstruct(%hidden_states.37, %hidden_states.31)
  %353 : Float(2, 16, 4096, strides=[65536, 4096, 1], requires_grad=0, device=cpu), %354 : Float(2, 16, 4096, strides=[65536, 4096, 1], requires_grad=0, device=cpu) = prim::TupleUnpack(%352)
  %o_proj.3 : __torch__.torch.nn.modules.linear.___torch_mangle_10.Linear = prim::GetAttr[name="o_proj"](%self_attn.3)
  %v_proj.3 : __torch__.torch.nn.modules.linear.___torch_mangle_9.Linear = prim::GetAttr[name="v_proj"](%self_attn.3)
  %k_proj.3 : __torch__.torch.nn.modules.linear.___torch_mangle_8.Linear = prim::GetAttr[name="k_proj"](%self_attn.3)
  %q_proj.3 : __torch__.torch.nn.modules.linear.___torch_mangle_7.Linear = prim::GetAttr[name="q_proj"](%self_attn.3)
  %359 : int = aten::size(%353, %42), scope: __module.model/__module.model.layers.1/__module.model.layers.1.self_attn # /home/phil2/Super-Intel-NPU/current/Super-Intel-NPU/venv_offering/lib/python3.12/site-packages/transformers/models/qwen2/modeling_qwen2.py:150:0
  %360 : int = aten::size(%353, %44), scope: __module.model/__module.model.layers.1/__module.model.layers.1.self_attn # /home/phil2/Super-Intel-NPU/current/Super-Intel-NPU/venv_offering/lib/python3.12/site-packages/transformers/models/qwen2/modeling_qwen2.py:150:0
  %bias.7 : Tensor = prim::GetAttr[name="bias"](%q_proj.3)
  %weight.25 : Tensor = prim::GetAttr[name="weight"](%q_proj.3)
  %363 : Float(2, 16, 4096, strides=[65536, 4096, 1], requires_grad=0, device=cpu) = aten::linear(%353, %weight.25, %bias.7), scope: __module.model/__module.model.layers.1/__module.model.layers.1.self_attn/__module.model.layers.1.self_attn.q_proj # /home/phil2/Super-Intel-NPU/current/Super-Intel-NPU/venv_offering/lib/python3.12/site-packages/torch/nn/modules/linear.py:134:0
  %364 : int[] = prim::ListConstruct(%359, %360, %45, %30), scope: __module.model/__module.model.layers.1/__module.model.layers.1.self_attn
  %365 : Float(2, 16, 32, 128, strides=[65536, 4096, 128, 1], requires_grad=0, device=cpu) = aten::view(%363, %364), scope: __module.model/__module.model.layers.1/__module.model.layers.1.self_attn # /home/phil2/Super-Intel-NPU/current/Super-Intel-NPU/venv_offering/lib/python3.12/site-packages/transformers/models/qwen2/modeling_qwen2.py:153:0
  %q.3 : Float(2, 32, 16, 128, strides=[65536, 128, 4096, 1], requires_grad=0, device=cpu) = aten::transpose(%365, %44, %38), scope: __module.model/__module.model.layers.1/__module.model.layers.1.self_attn # /home/phil2/Super-Intel-NPU/current/Super-Intel-NPU/venv_offering/lib/python3.12/site-packages/transformers/models/qwen2/modeling_qwen2.py:153:0
  %bias.9 : Tensor = prim::GetAttr[name="bias"](%k_proj.3)
  %weight.27 : Tensor = prim::GetAttr[name="weight"](%k_proj.3)
  %369 : Float(2, 16, 1024, strides=[16384, 1024, 1], requires_grad=0, device=cpu) = aten::linear(%353, %weight.27, %bias.9), scope: __module.model/__module.model.layers.1/__module.model.layers.1.self_attn/__module.model.layers.1.self_attn.k_proj # /home/phil2/Super-Intel-NPU/current/Super-Intel-NPU/venv_offering/lib/python3.12/site-packages/torch/nn/modules/linear.py:134:0
  %370 : int[] = prim::ListConstruct(%359, %360, %45, %30), scope: __module.model/__module.model.layers.1/__module.model.layers.1.self_attn
  %371 : Float(2, 16, 8, 128, strides=[16384, 1024, 128, 1], requires_grad=0, device=cpu) = aten::view(%369, %370), scope: __module.model/__module.model.layers.1/__module.model.layers.1.self_attn # /home/phil2/Super-Intel-NPU/current/Super-Intel-NPU/venv_offering/lib/python3.12/site-packages/transformers/models/qwen2/modeling_qwen2.py:154:0
  %k.3 : Float(2, 8, 16, 128, strides=[16384, 128, 1024, 1], requires_grad=0, device=cpu) = aten::transpose(%371, %44, %38), scope: __module.model/__module.model.layers.1/__module.model.layers.1.self_attn # /home/phil2/Super-Intel-NPU/current/Super-Intel-NPU/venv_offering/lib/python3.12/site-packages/transformers/models/qwen2/modeling_qwen2.py:154:0
  %bias.11 : Tensor = prim::GetAttr[name="bias"](%v_proj.3)
  %weight.29 : Tensor = prim::GetAttr[name="weight"](%v_proj.3)
  %375 : Float(2, 16, 1024, strides=[16384, 1024, 1], requires_grad=0, device=cpu) = aten::linear(%353, %weight.29, %bias.11), scope: __module.model/__module.model.layers.1/__module.model.layers.1.self_attn/__module.model.layers.1.self_attn.v_proj # /home/phil2/Super-Intel-NPU/current/Super-Intel-NPU/venv_offering/lib/python3.12/site-packages/torch/nn/modules/linear.py:134:0
  %376 : int[] = prim::ListConstruct(%359, %360, %45, %30), scope: __module.model/__module.model.layers.1/__module.model.layers.1.self_attn
  %377 : Float(2, 16, 8, 128, strides=[16384, 1024, 128, 1], requires_grad=0, device=cpu) = aten::view(%375, %376), scope: __module.model/__module.model.layers.1/__module.model.layers.1.self_attn # /home/phil2/Super-Intel-NPU/current/Super-Intel-NPU/venv_offering/lib/python3.12/site-packages/transformers/models/qwen2/modeling_qwen2.py:155:0
  %hidden_states.43 : Float(2, 8, 16, 128, strides=[16384, 128, 1024, 1], requires_grad=0, device=cpu) = aten::transpose(%377, %44, %38), scope: __module.model/__module.model.layers.1/__module.model.layers.1.self_attn # /home/phil2/Super-Intel-NPU/current/Super-Intel-NPU/venv_offering/lib/python3.12/site-packages/transformers/models/qwen2/modeling_qwen2.py:155:0
  %cos.7 : Float(2, 1, 16, 128, strides=[2048, 2048, 128, 1], requires_grad=0, device=cpu) = aten::unsqueeze(%190, %44), scope: __module.model/__module.model.layers.1/__module.model.layers.1.self_attn # /home/phil2/Super-Intel-NPU/current/Super-Intel-NPU/venv_offering/lib/python3.12/site-packages/transformers/models/qwen2/modeling_qwen2.py:77:0
  %sin.7 : Float(2, 1, 16, 128, strides=[2048, 2048, 128, 1], requires_grad=0, device=cpu) = aten::unsqueeze(%191, %44), scope: __module.model/__module.model.layers.1/__module.model.layers.1.self_attn # /home/phil2/Super-Intel-NPU/current/Super-Intel-NPU/venv_offering/lib/python3.12/site-packages/transformers/models/qwen2/modeling_qwen2.py:78:0
  %381 : Float(2, 32, 16, 128, strides=[65536, 128, 4096, 1], requires_grad=0, device=cpu) = aten::mul(%q.3, %cos.7), scope: __module.model/__module.model.layers.1/__module.model.layers.1.self_attn # /home/phil2/Super-Intel-NPU/current/Super-Intel-NPU/venv_offering/lib/python3.12/site-packages/transformers/models/qwen2/modeling_qwen2.py:79:0
  %382 : int = aten::size(%q.3, %36), scope: __module.model/__module.model.layers.1/__module.model.layers.1.self_attn # /home/phil2/Super-Intel-NPU/current/Super-Intel-NPU/venv_offering/lib/python3.12/site-packages/transformers/models/qwen2/modeling_qwen2.py:52:0
  %383 : Long(device=cpu) = prim::NumToTensor(%382), scope: __module.model/__module.model.layers.1/__module.model.layers.1.self_attn
  %384 : Long(requires_grad=0, device=cpu) = aten::floor_divide(%383, %29), scope: __module.model/__module.model.layers.1/__module.model.layers.1.self_attn # /home/phil2/Super-Intel-NPU/current/Super-Intel-NPU/venv_offering/lib/python3.12/site-packages/torch/_tensor.py:1119:0
  %385 : int = aten::Int(%384), scope: __module.model/__module.model.layers.1/__module.model.layers.1.self_attn
  %x1.5 : Float(2, 32, 16, 64, strides=[65536, 128, 4096, 1], requires_grad=0, device=cpu) = aten::slice(%q.3, %36, %42, %385, %44), scope: __module.model/__module.model.layers.1/__module.model.layers.1.self_attn # /home/phil2/Super-Intel-NPU/current/Super-Intel-NPU/venv_offering/lib/python3.12/site-packages/transformers/models/qwen2/modeling_qwen2.py:52:0
  %387 : int = aten::size(%q.3, %36), scope: __module.model/__module.model.layers.1/__module.model.layers.1.self_attn # /home/phil2/Super-Intel-NPU/current/Super-Intel-NPU/venv_offering/lib/python3.12/site-packages/transformers/models/qwen2/modeling_qwen2.py:53:0
  %388 : Long(device=cpu) = prim::NumToTensor(%387), scope: __module.model/__module.model.layers.1/__module.model.layers.1.self_attn
  %389 : Long(requires_grad=0, device=cpu) = aten::floor_divide(%388, %29), scope: __module.model/__module.model.layers.1/__module.model.layers.1.self_attn # /home/phil2/Super-Intel-NPU/current/Super-Intel-NPU/venv_offering/lib/python3.12/site-packages/torch/_tensor.py:1119:0
  %390 : int = aten::Int(%389), scope: __module.model/__module.model.layers.1/__module.model.layers.1.self_attn
  %x2.5 : Float(2, 32, 16, 64, strides=[65536, 128, 4096, 1], requires_grad=0, device=cpu) = aten::slice(%q.3, %36, %390, %37, %44), scope: __module.model/__module.model.layers.1/__module.model.layers.1.self_attn # /home/phil2/Super-Intel-NPU/current/Super-Intel-NPU/venv_offering/lib/python3.12/site-packages/transformers/models/qwen2/modeling_qwen2.py:53:0
  %392 : Float(2, 32, 16, 64, strides=[32768, 64, 2048, 1], requires_grad=0, device=cpu) = aten::neg(%x2.5), scope: __module.model/__module.model.layers.1/__module.model.layers.1.self_attn # /home/phil2/Super-Intel-NPU/current/Super-Intel-NPU/venv_offering/lib/python3.12/site-packages/transformers/models/qwen2/modeling_qwen2.py:54:0
  %393 : Tensor[] = prim::ListConstruct(%392, %x1.5), scope: __module.model/__module.model.layers.1/__module.model.layers.1.self_attn
  %394 : Float(2, 32, 16, 128, strides=[65536, 2048, 128, 1], requires_grad=0, device=cpu) = aten::cat(%393, %45), scope: __module.model/__module.model.layers.1/__module.model.layers.1.self_attn # /home/phil2/Super-Intel-NPU/current/Super-Intel-NPU/venv_offering/lib/python3.12/site-packages/transformers/models/qwen2/modeling_qwen2.py:54:0
  %395 : Float(2, 32, 16, 128, strides=[65536, 2048, 128, 1], requires_grad=0, device=cpu) = aten::mul(%394, %sin.7), scope: __module.model/__module.model.layers.1/__module.model.layers.1.self_attn # /home/phil2/Super-Intel-NPU/current/Super-Intel-NPU/venv_offering/lib/python3.12/site-packages/transformers/models/qwen2/modeling_qwen2.py:79:0
  %query.3 : Float(2, 32, 16, 128, strides=[65536, 128, 4096, 1], requires_grad=0, device=cpu) = aten::add(%381, %395, %44), scope: __module.model/__module.model.layers.1/__module.model.layers.1.self_attn # /home/phil2/Super-Intel-NPU/current/Super-Intel-NPU/venv_offering/lib/python3.12/site-packages/transformers/models/qwen2/modeling_qwen2.py:79:0
  %397 : Float(2, 8, 16, 128, strides=[16384, 128, 1024, 1], requires_grad=0, device=cpu) = aten::mul(%k.3, %cos.7), scope: __module.model/__module.model.layers.1/__module.model.layers.1.self_attn # /home/phil2/Super-Intel-NPU/current/Super-Intel-NPU/venv_offering/lib/python3.12/site-packages/transformers/models/qwen2/modeling_qwen2.py:80:0
  %398 : int = aten::size(%k.3, %36), scope: __module.model/__module.model.layers.1/__module.model.layers.1.self_attn # /home/phil2/Super-Intel-NPU/current/Super-Intel-NPU/venv_offering/lib/python3.12/site-packages/transformers/models/qwen2/modeling_qwen2.py:52:0
  %399 : Long(device=cpu) = prim::NumToTensor(%398), scope: __module.model/__module.model.layers.1/__module.model.layers.1.self_attn
  %400 : Long(requires_grad=0, device=cpu) = aten::floor_divide(%399, %29), scope: __module.model/__module.model.layers.1/__module.model.layers.1.self_attn # /home/phil2/Super-Intel-NPU/current/Super-Intel-NPU/venv_offering/lib/python3.12/site-packages/torch/_tensor.py:1119:0
  %401 : int = aten::Int(%400), scope: __module.model/__module.model.layers.1/__module.model.layers.1.self_attn
  %x1.7 : Float(2, 8, 16, 64, strides=[16384, 128, 1024, 1], requires_grad=0, device=cpu) = aten::slice(%k.3, %36, %42, %401, %44), scope: __module.model/__module.model.layers.1/__module.model.layers.1.self_attn # /home/phil2/Super-Intel-NPU/current/Super-Intel-NPU/venv_offering/lib/python3.12/site-packages/transformers/models/qwen2/modeling_qwen2.py:52:0
  %403 : int = aten::size(%k.3, %36), scope: __module.model/__module.model.layers.1/__module.model.layers.1.self_attn # /home/phil2/Super-Intel-NPU/current/Super-Intel-NPU/venv_offering/lib/python3.12/site-packages/transformers/models/qwen2/modeling_qwen2.py:53:0
  %404 : Long(device=cpu) = prim::NumToTensor(%403), scope: __module.model/__module.model.layers.1/__module.model.layers.1.self_attn
  %405 : Long(requires_grad=0, device=cpu) = aten::floor_divide(%404, %29), scope: __module.model/__module.model.layers.1/__module.model.layers.1.self_attn # /home/phil2/Super-Intel-NPU/current/Super-Intel-NPU/venv_offering/lib/python3.12/site-packages/torch/_tensor.py:1119:0
  %406 : int = aten::Int(%405), scope: __module.model/__module.model.layers.1/__module.model.layers.1.self_attn
  %x2.7 : Float(2, 8, 16, 64, strides=[16384, 128, 1024, 1], requires_grad=0, device=cpu) = aten::slice(%k.3, %36, %406, %37, %44), scope: __module.model/__module.model.layers.1/__module.model.layers.1.self_attn # /home/phil2/Super-Intel-NPU/current/Super-Intel-NPU/venv_offering/lib/python3.12/site-packages/transformers/models/qwen2/modeling_qwen2.py:53:0
  %408 : Float(2, 8, 16, 64, strides=[8192, 64, 512, 1], requires_grad=0, device=cpu) = aten::neg(%x2.7), scope: __module.model/__module.model.layers.1/__module.model.layers.1.self_attn # /home/phil2/Super-Intel-NPU/current/Super-Intel-NPU/venv_offering/lib/python3.12/site-packages/transformers/models/qwen2/modeling_qwen2.py:54:0
  %409 : Tensor[] = prim::ListConstruct(%408, %x1.7), scope: __module.model/__module.model.layers.1/__module.model.layers.1.self_attn
  %410 : Float(2, 8, 16, 128, strides=[16384, 2048, 128, 1], requires_grad=0, device=cpu) = aten::cat(%409, %45), scope: __module.model/__module.model.layers.1/__module.model.layers.1.self_attn # /home/phil2/Super-Intel-NPU/current/Super-Intel-NPU/venv_offering/lib/python3.12/site-packages/transformers/models/qwen2/modeling_qwen2.py:54:0
  %411 : Float(2, 8, 16, 128, strides=[16384, 2048, 128, 1], requires_grad=0, device=cpu) = aten::mul(%410, %sin.7), scope: __module.model/__module.model.layers.1/__module.model.layers.1.self_attn # /home/phil2/Super-Intel-NPU/current/Super-Intel-NPU/venv_offering/lib/python3.12/site-packages/transformers/models/qwen2/modeling_qwen2.py:80:0
  %hidden_states.39 : Float(2, 8, 16, 128, strides=[16384, 128, 1024, 1], requires_grad=0, device=cpu) = aten::add(%397, %411, %44), scope: __module.model/__module.model.layers.1/__module.model.layers.1.self_attn # /home/phil2/Super-Intel-NPU/current/Super-Intel-NPU/venv_offering/lib/python3.12/site-packages/transformers/models/qwen2/modeling_qwen2.py:80:0
  %413 : int = aten::size(%hidden_states.39, %42), scope: __module.model/__module.model.layers.1/__module.model.layers.1.self_attn # /home/phil2/Super-Intel-NPU/current/Super-Intel-NPU/venv_offering/lib/python3.12/site-packages/transformers/integrations/sdpa_attention.py:23:0
  %414 : int = aten::size(%hidden_states.39, %44), scope: __module.model/__module.model.layers.1/__module.model.layers.1.self_attn # /home/phil2/Super-Intel-NPU/current/Super-Intel-NPU/venv_offering/lib/python3.12/site-packages/transformers/integrations/sdpa_attention.py:23:0
  %num_key_value_heads.5 : Long(device=cpu) = prim::NumToTensor(%414), scope: __module.model/__module.model.layers.1/__module.model.layers.1.self_attn
  %416 : int = aten::size(%hidden_states.39, %38), scope: __module.model/__module.model.layers.1/__module.model.layers.1.self_attn # /home/phil2/Super-Intel-NPU/current/Super-Intel-NPU/venv_offering/lib/python3.12/site-packages/transformers/integrations/sdpa_attention.py:23:0
  %417 : int = aten::size(%hidden_states.39, %36), scope: __module.model/__module.model.layers.1/__module.model.layers.1.self_attn # /home/phil2/Super-Intel-NPU/current/Super-Intel-NPU/venv_offering/lib/python3.12/site-packages/transformers/integrations/sdpa_attention.py:23:0
  %418 : Float(2, 8, 16, 128, strides=[16384, 128, 1024, 1], requires_grad=0, device=cpu) = aten::slice(%hidden_states.39, %42, %42, %37, %44), scope: __module.model/__module.model.layers.1/__module.model.layers.1.self_attn # /home/phil2/Super-Intel-NPU/current/Super-Intel-NPU/venv_offering/lib/python3.12/site-packages/transformers/integrations/sdpa_attention.py:26:0
  %419 : Float(2, 8, 16, 128, strides=[16384, 128, 1024, 1], requires_grad=0, device=cpu) = aten::slice(%418, %44, %42, %37, %44), scope: __module.model/__module.model.layers.1/__module.model.layers.1.self_attn # /home/phil2/Super-Intel-NPU/current/Super-Intel-NPU/venv_offering/lib/python3.12/site-packages/transformers/integrations/sdpa_attention.py:26:0
  %420 : Float(2, 8, 1, 16, 128, strides=[16384, 128, 16384, 1024, 1], requires_grad=0, device=cpu) = aten::unsqueeze(%419, %38), scope: __module.model/__module.model.layers.1/__module.model.layers.1.self_attn # /home/phil2/Super-Intel-NPU/current/Super-Intel-NPU/venv_offering/lib/python3.12/site-packages/transformers/integrations/sdpa_attention.py:26:0
  %421 : Float(2, 8, 1, 16, 128, strides=[16384, 128, 16384, 1024, 1], requires_grad=0, device=cpu) = aten::slice(%420, %36, %42, %37, %44), scope: __module.model/__module.model.layers.1/__module.model.layers.1.self_attn # /home/phil2/Super-Intel-NPU/current/Super-Intel-NPU/venv_offering/lib/python3.12/site-packages/transformers/integrations/sdpa_attention.py:26:0
  %422 : Float(2, 8, 1, 16, 128, strides=[16384, 128, 16384, 1024, 1], requires_grad=0, device=cpu) = aten::slice(%421, %35, %42, %37, %44), scope: __module.model/__module.model.layers.1/__module.model.layers.1.self_attn # /home/phil2/Super-Intel-NPU/current/Super-Intel-NPU/venv_offering/lib/python3.12/site-packages/transformers/integrations/sdpa_attention.py:26:0
  %423 : int[] = prim::ListConstruct(%413, %414, %35, %416, %417), scope: __module.model/__module.model.layers.1/__module.model.layers.1.self_attn
  %hidden_states.41 : Float(2, 8, 4, 16, 128, strides=[16384, 128, 0, 1024, 1], requires_grad=0, device=cpu) = aten::expand(%422, %423, %46), scope: __module.model/__module.model.layers.1/__module.model.layers.1.self_attn # /home/phil2/Super-Intel-NPU/current/Super-Intel-NPU/venv_offering/lib/python3.12/site-packages/transformers/integrations/sdpa_attention.py:26:0
  %425 : Long(requires_grad=0, device=cpu) = aten::mul(%num_key_value_heads.5, %28), scope: __module.model/__module.model.layers.1/__module.model.layers.1.self_attn # /home/phil2/Super-Intel-NPU/current/Super-Intel-NPU/venv_offering/lib/python3.12/site-packages/transformers/integrations/sdpa_attention.py:27:0
  %426 : int = aten::Int(%425), scope: __module.model/__module.model.layers.1/__module.model.layers.1.self_attn
  %427 : int[] = prim::ListConstruct(%413, %426, %416, %417), scope: __module.model/__module.model.layers.1/__module.model.layers.1.self_attn
  %key.3 : Float(2, 32, 16, 128, strides=[65536, 2048, 128, 1], requires_grad=0, device=cpu) = aten::reshape(%hidden_states.41, %427), scope: __module.model/__module.model.layers.1/__module.model.layers.1.self_attn # /home/phil2/Super-Intel-NPU/current/Super-Intel-NPU/venv_offering/lib/python3.12/site-packages/transformers/integrations/sdpa_attention.py:27:0
  %429 : int = aten::size(%hidden_states.43, %42), scope: __module.model/__module.model.layers.1/__module.model.layers.1.self_attn # /home/phil2/Super-Intel-NPU/current/Super-Intel-NPU/venv_offering/lib/python3.12/site-packages/transformers/integrations/sdpa_attention.py:23:0
  %430 : int = aten::size(%hidden_states.43, %44), scope: __module.model/__module.model.layers.1/__module.model.layers.1.self_attn # /home/phil2/Super-Intel-NPU/current/Super-Intel-NPU/venv_offering/lib/python3.12/site-packages/transformers/integrations/sdpa_attention.py:23:0
  %num_key_value_heads.7 : Long(device=cpu) = prim::NumToTensor(%430), scope: __module.model/__module.model.layers.1/__module.model.layers.1.self_attn
  %432 : int = aten::size(%hidden_states.43, %38), scope: __module.model/__module.model.layers.1/__module.model.layers.1.self_attn # /home/phil2/Super-Intel-NPU/current/Super-Intel-NPU/venv_offering/lib/python3.12/site-packages/transformers/integrations/sdpa_attention.py:23:0
  %433 : int = aten::size(%hidden_states.43, %36), scope: __module.model/__module.model.layers.1/__module.model.layers.1.self_attn # /home/phil2/Super-Intel-NPU/current/Super-Intel-NPU/venv_offering/lib/python3.12/site-packages/transformers/integrations/sdpa_attention.py:23:0
  %434 : Float(2, 8, 16, 128, strides=[16384, 128, 1024, 1], requires_grad=0, device=cpu) = aten::slice(%hidden_states.43, %42, %42, %37, %44), scope: __module.model/__module.model.layers.1/__module.model.layers.1.self_attn # /home/phil2/Super-Intel-NPU/current/Super-Intel-NPU/venv_offering/lib/python3.12/site-packages/transformers/integrations/sdpa_attention.py:26:0
  %435 : Float(2, 8, 16, 128, strides=[16384, 128, 1024, 1], requires_grad=0, device=cpu) = aten::slice(%434, %44, %42, %37, %44), scope: __module.model/__module.model.layers.1/__module.model.layers.1.self_attn # /home/phil2/Super-Intel-NPU/current/Super-Intel-NPU/venv_offering/lib/python3.12/site-packages/transformers/integrations/sdpa_attention.py:26:0
  %436 : Float(2, 8, 1, 16, 128, strides=[16384, 128, 16384, 1024, 1], requires_grad=0, device=cpu) = aten::unsqueeze(%435, %38), scope: __module.model/__module.model.layers.1/__module.model.layers.1.self_attn # /home/phil2/Super-Intel-NPU/current/Super-Intel-NPU/venv_offering/lib/python3.12/site-packages/transformers/integrations/sdpa_attention.py:26:0
  %437 : Float(2, 8, 1, 16, 128, strides=[16384, 128, 16384, 1024, 1], requires_grad=0, device=cpu) = aten::slice(%436, %36, %42, %37, %44), scope: __module.model/__module.model.layers.1/__module.model.layers.1.self_attn # /home/phil2/Super-Intel-NPU/current/Super-Intel-NPU/venv_offering/lib/python3.12/site-packages/transformers/integrations/sdpa_attention.py:26:0
  %438 : Float(2, 8, 1, 16, 128, strides=[16384, 128, 16384, 1024, 1], requires_grad=0, device=cpu) = aten::slice(%437, %35, %42, %37, %44), scope: __module.model/__module.model.layers.1/__module.model.layers.1.self_attn # /home/phil2/Super-Intel-NPU/current/Super-Intel-NPU/venv_offering/lib/python3.12/site-packages/transformers/integrations/sdpa_attention.py:26:0
  %439 : int[] = prim::ListConstruct(%429, %430, %35, %432, %433), scope: __module.model/__module.model.layers.1/__module.model.layers.1.self_attn
  %hidden_states.45 : Float(2, 8, 4, 16, 128, strides=[16384, 128, 0, 1024, 1], requires_grad=0, device=cpu) = aten::expand(%438, %439, %46), scope: __module.model/__module.model.layers.1/__module.model.layers.1.self_attn # /home/phil2/Super-Intel-NPU/current/Super-Intel-NPU/venv_offering/lib/python3.12/site-packages/transformers/integrations/sdpa_attention.py:26:0
  %441 : Long(requires_grad=0, device=cpu) = aten::mul(%num_key_value_heads.7, %28), scope: __module.model/__module.model.layers.1/__module.model.layers.1.self_attn # /home/phil2/Super-Intel-NPU/current/Super-Intel-NPU/venv_offering/lib/python3.12/site-packages/transformers/integrations/sdpa_attention.py:27:0
  %442 : int = aten::Int(%441), scope: __module.model/__module.model.layers.1/__module.model.layers.1.self_attn
  %443 : int[] = prim::ListConstruct(%429, %442, %432, %433), scope: __module.model/__module.model.layers.1/__module.model.layers.1.self_attn
  %value.3 : Float(2, 32, 16, 128, strides=[65536, 2048, 128, 1], requires_grad=0, device=cpu) = aten::reshape(%hidden_states.45, %443), scope: __module.model/__module.model.layers.1/__module.model.layers.1.self_attn # /home/phil2/Super-Intel-NPU/current/Super-Intel-NPU/venv_offering/lib/python3.12/site-packages/transformers/integrations/sdpa_attention.py:27:0
  %445 : int = aten::size(%key.3, %38), scope: __module.model/__module.model.layers.1/__module.model.layers.1.self_attn # /home/phil2/Super-Intel-NPU/current/Super-Intel-NPU/venv_offering/lib/python3.12/site-packages/transformers/integrations/sdpa_attention.py:73:0
  %446 : Float(2, 1, 16, 16, strides=[256, 256, 16, 1], requires_grad=0, device=cpu) = aten::slice(%attention_mask.5, %42, %42, %37, %44), scope: __module.model/__module.model.layers.1/__module.model.layers.1.self_attn # /home/phil2/Super-Intel-NPU/current/Super-Intel-NPU/venv_offering/lib/python3.12/site-packages/transformers/integrations/sdpa_attention.py:73:0
  %447 : Float(2, 1, 16, 16, strides=[256, 256, 16, 1], requires_grad=0, device=cpu) = aten::slice(%446, %44, %42, %37, %44), scope: __module.model/__module.model.layers.1/__module.model.layers.1.self_attn # /home/phil2/Super-Intel-NPU/current/Super-Intel-NPU/venv_offering/lib/python3.12/site-packages/transformers/integrations/sdpa_attention.py:73:0
  %448 : Float(2, 1, 16, 16, strides=[256, 256, 16, 1], requires_grad=0, device=cpu) = aten::slice(%447, %38, %42, %37, %44), scope: __module.model/__module.model.layers.1/__module.model.layers.1.self_attn # /home/phil2/Super-Intel-NPU/current/Super-Intel-NPU/venv_offering/lib/python3.12/site-packages/transformers/integrations/sdpa_attention.py:73:0
  %attention_mask.9 : Float(2, 1, 16, 16, strides=[256, 256, 16, 1], requires_grad=0, device=cpu) = aten::slice(%448, %36, %42, %445, %44), scope: __module.model/__module.model.layers.1/__module.model.layers.1.self_attn # /home/phil2/Super-Intel-NPU/current/Super-Intel-NPU/venv_offering/lib/python3.12/site-packages/transformers/integrations/sdpa_attention.py:73:0
  %attn_output.5 : Float(2, 32, 16, 128, strides=[65536, 128, 4096, 1], requires_grad=0, device=cpu) = aten::scaled_dot_product_attention(%query.3, %key.3, %value.3, %attention_mask.9, %27, %46, %26, %46), scope: __module.model/__module.model.layers.1/__module.model.layers.1.self_attn # /home/phil2/Super-Intel-NPU/current/Super-Intel-NPU/venv_offering/lib/python3.12/site-packages/transformers/integrations/sdpa_attention.py:96:0
  %451 : Float(2, 16, 32, 128, strides=[65536, 4096, 128, 1], requires_grad=0, device=cpu) = aten::transpose(%attn_output.5, %44, %38), scope: __module.model/__module.model.layers.1/__module.model.layers.1.self_attn # /home/phil2/Super-Intel-NPU/current/Super-Intel-NPU/venv_offering/lib/python3.12/site-packages/transformers/integrations/sdpa_attention.py:106:0
  %attn_output.7 : Float(2, 16, 32, 128, strides=[65536, 4096, 128, 1], requires_grad=0, device=cpu) = aten::contiguous(%451, %42), scope: __module.model/__module.model.layers.1/__module.model.layers.1.self_attn # /home/phil2/Super-Intel-NPU/current/Super-Intel-NPU/venv_offering/lib/python3.12/site-packages/transformers/integrations/sdpa_attention.py:106:0
  %453 : int[] = prim::ListConstruct(%359, %360, %45), scope: __module.model/__module.model.layers.1/__module.model.layers.1.self_attn
  %454 : Float(2, 16, 4096, strides=[65536, 4096, 1], requires_grad=0, device=cpu) = aten::reshape(%attn_output.7, %453), scope: __module.model/__module.model.layers.1/__module.model.layers.1.self_attn # /home/phil2/Super-Intel-NPU/current/Super-Intel-NPU/venv_offering/lib/python3.12/site-packages/transformers/models/qwen2/modeling_qwen2.py:181:0
  %input.9 : Float(2, 16, 4096, strides=[65536, 4096, 1], requires_grad=0, device=cpu) = aten::contiguous(%454, %42), scope: __module.model/__module.model.layers.1/__module.model.layers.1.self_attn # /home/phil2/Super-Intel-NPU/current/Super-Intel-NPU/venv_offering/lib/python3.12/site-packages/transformers/models/qwen2/modeling_qwen2.py:181:0
  %weight.31 : Tensor = prim::GetAttr[name="weight"](%o_proj.3)
  %hidden_states.47 : Float(2, 16, 4096, strides=[65536, 4096, 1], requires_grad=0, device=cpu) = aten::linear(%input.9, %weight.31, %41), scope: __module.model/__module.model.layers.1/__module.model.layers.1.self_attn/__module.model.layers.1.self_attn.o_proj # /home/phil2/Super-Intel-NPU/current/Super-Intel-NPU/venv_offering/lib/python3.12/site-packages/torch/nn/modules/linear.py:134:0
  %hidden_states.49 : Float(2, 16, 4096, strides=[65536, 4096, 1], requires_grad=0, device=cpu) = aten::add(%354, %hidden_states.47, %44), scope: __module.model/__module.model.layers.1 # /home/phil2/Super-Intel-NPU/current/Super-Intel-NPU/venv_offering/lib/python3.12/site-packages/transformers/models/qwen2/modeling_qwen2.py:244:0
  %weight.33 : Tensor = prim::GetAttr[name="weight"](%post_attention_layernorm.3)
  %hidden_states.51 : Float(2, 16, 4096, strides=[65536, 4096, 1], requires_grad=0, device=cpu) = aten::to(%hidden_states.49, %33, %46, %46, %41), scope: __module.model/__module.model.layers.1/__module.model.layers.1.post_attention_layernorm # /home/phil2/Super-Intel-NPU/current/Super-Intel-NPU/venv_offering/lib/python3.12/site-packages/transformers/models/qwen2/modeling_qwen2.py:198:0
  %461 : Float(2, 16, 4096, strides=[65536, 4096, 1], requires_grad=0, device=cpu) = aten::pow(%hidden_states.51, %38), scope: __module.model/__module.model.layers.1/__module.model.layers.1.post_attention_layernorm # /home/phil2/Super-Intel-NPU/current/Super-Intel-NPU/venv_offering/lib/python3.12/site-packages/transformers/models/qwen2/modeling_qwen2.py:199:0
  %462 : int[] = prim::ListConstruct(%45), scope: __module.model/__module.model.layers.1/__module.model.layers.1.post_attention_layernorm
  %variance.7 : Float(2, 16, 1, strides=[16, 1, 1], requires_grad=0, device=cpu) = aten::mean(%461, %462, %25, %41), scope: __module.model/__module.model.layers.1/__module.model.layers.1.post_attention_layernorm # /home/phil2/Super-Intel-NPU/current/Super-Intel-NPU/venv_offering/lib/python3.12/site-packages/transformers/models/qwen2/modeling_qwen2.py:199:0
  %464 : Float(2, 16, 1, strides=[16, 1, 1], requires_grad=0, device=cpu) = aten::add(%variance.7, %24, %44), scope: __module.model/__module.model.layers.1/__module.model.layers.1.post_attention_layernorm # /home/phil2/Super-Intel-NPU/current/Super-Intel-NPU/venv_offering/lib/python3.12/site-packages/transformers/models/qwen2/modeling_qwen2.py:200:0
  %465 : Float(2, 16, 1, strides=[16, 1, 1], requires_grad=0, device=cpu) = aten::rsqrt(%464), scope: __module.model/__module.model.layers.1/__module.model.layers.1.post_attention_layernorm # /home/phil2/Super-Intel-NPU/current/Super-Intel-NPU/venv_offering/lib/python3.12/site-packages/transformers/models/qwen2/modeling_qwen2.py:200:0
  %hidden_states.53 : Float(2, 16, 4096, strides=[65536, 4096, 1], requires_grad=0, device=cpu) = aten::mul(%hidden_states.51, %465), scope: __module.model/__module.model.layers.1/__module.model.layers.1.post_attention_layernorm # /home/phil2/Super-Intel-NPU/current/Super-Intel-NPU/venv_offering/lib/python3.12/site-packages/transformers/models/qwen2/modeling_qwen2.py:200:0
  %hidden_states.55 : Float(2, 16, 4096, strides=[65536, 4096, 1], requires_grad=0, device=cpu) = aten::to(%hidden_states.53, %33, %46, %46, %41), scope: __module.model/__module.model.layers.1/__module.model.layers.1.post_attention_layernorm # /home/phil2/Super-Intel-NPU/current/Super-Intel-NPU/venv_offering/lib/python3.12/site-packages/transformers/models/qwen2/modeling_qwen2.py:201:0
  %input.11 : Float(2, 16, 4096, strides=[65536, 4096, 1], requires_grad=0, device=cpu) = aten::mul(%weight.33, %hidden_states.55), scope: __module.model/__module.model.layers.1/__module.model.layers.1.post_attention_layernorm # /home/phil2/Super-Intel-NPU/current/Super-Intel-NPU/venv_offering/lib/python3.12/site-packages/transformers/models/qwen2/modeling_qwen2.py:201:0
  %469 : (Float(2, 16, 4096, strides=[65536, 4096, 1], requires_grad=0, device=cpu), Float(2, 16, 4096, strides=[65536, 4096, 1], requires_grad=0, device=cpu)) = prim::TupleConstruct(%input.11, %hidden_states.51)
  %470 : Float(2, 16, 4096, strides=[65536, 4096, 1], requires_grad=0, device=cpu), %471 : Float(2, 16, 4096, strides=[65536, 4096, 1], requires_grad=0, device=cpu) = prim::TupleUnpack(%469)
  %down_proj.3 : __torch__.torch.nn.modules.linear.___torch_mangle_14.Linear = prim::GetAttr[name="down_proj"](%mlp.3)
  %up_proj.3 : __torch__.torch.nn.modules.linear.___torch_mangle_13.Linear = prim::GetAttr[name="up_proj"](%mlp.3)
  %gate_proj.3 : __torch__.torch.nn.modules.linear.___torch_mangle_12.Linear = prim::GetAttr[name="gate_proj"](%mlp.3)
  %weight.35 : Tensor = prim::GetAttr[name="weight"](%gate_proj.3)
  %input.13 : Float(2, 16, 12288, strides=[196608, 12288, 1], requires_grad=0, device=cpu) = aten::linear(%470, %weight.35, %41), scope: __module.model/__module.model.layers.1/__module.model.layers.1.mlp/__module.model.layers.1.mlp.gate_proj # /home/phil2/Super-Intel-NPU/current/Super-Intel-NPU/venv_offering/lib/python3.12/site-packages/torch/nn/modules/linear.py:134:0
  %477 : Float(2, 16, 12288, strides=[196608, 12288, 1], requires_grad=0, device=cpu) = aten::silu(%input.13), scope: __module.model/__module.model.layers.1/__module.model.layers.1.mlp/__module.model.layers.1.mlp.act_fn # /home/phil2/Super-Intel-NPU/current/Super-Intel-NPU/venv_offering/lib/python3.12/site-packages/torch/nn/functional.py:2371:0
  %weight.37 : Tensor = prim::GetAttr[name="weight"](%up_proj.3)
  %479 : Float(2, 16, 12288, strides=[196608, 12288, 1], requires_grad=0, device=cpu) = aten::linear(%470, %weight.37, %41), scope: __module.model/__module.model.layers.1/__module.model.layers.1.mlp/__module.model.layers.1.mlp.up_proj # /home/phil2/Super-Intel-NPU/current/Super-Intel-NPU/venv_offering/lib/python3.12/site-packages/torch/nn/modules/linear.py:134:0
  %input.15 : Float(2, 16, 12288, strides=[196608, 12288, 1], requires_grad=0, device=cpu) = aten::mul(%477, %479), scope: __module.model/__module.model.layers.1/__module.model.layers.1.mlp # /home/phil2/Super-Intel-NPU/current/Super-Intel-NPU/venv_offering/lib/python3.12/site-packages/transformers/models/qwen2/modeling_qwen2.py:46:0
  %weight.39 : Tensor = prim::GetAttr[name="weight"](%down_proj.3)
  %hidden_states.57 : Float(2, 16, 4096, strides=[65536, 4096, 1], requires_grad=0, device=cpu) = aten::linear(%input.15, %weight.39, %41), scope: __module.model/__module.model.layers.1/__module.model.layers.1.mlp/__module.model.layers.1.mlp.down_proj # /home/phil2/Super-Intel-NPU/current/Super-Intel-NPU/venv_offering/lib/python3.12/site-packages/torch/nn/modules/linear.py:134:0
  %hidden_states.59 : Float(2, 16, 4096, strides=[65536, 4096, 1], requires_grad=0, device=cpu) = aten::add(%471, %hidden_states.57, %44), scope: __module.model/__module.model.layers.1 # /home/phil2/Super-Intel-NPU/current/Super-Intel-NPU/venv_offering/lib/python3.12/site-packages/transformers/models/qwen2/modeling_qwen2.py:250:0
  %mlp.5 : __torch__.transformers.models.qwen2.modeling_qwen2.___torch_mangle_29.Qwen2MLP = prim::GetAttr[name="mlp"](%_2)
  %post_attention_layernorm.5 : __torch__.transformers.models.qwen2.modeling_qwen2.___torch_mangle_31.Qwen2RMSNorm = prim::GetAttr[name="post_attention_layernorm"](%_2)
  %self_attn.5 : __torch__.transformers.models.qwen2.modeling_qwen2.___torch_mangle_24.Qwen2Attention = prim::GetAttr[name="self_attn"](%_2)
  %input_layernorm.5 : __torch__.transformers.models.qwen2.modeling_qwen2.___torch_mangle_30.Qwen2RMSNorm = prim::GetAttr[name="input_layernorm"](%_2)
  %weight.41 : Tensor = prim::GetAttr[name="weight"](%input_layernorm.5)
  %hidden_states.61 : Float(2, 16, 4096, strides=[65536, 4096, 1], requires_grad=0, device=cpu) = aten::to(%hidden_states.59, %33, %46, %46, %41), scope: __module.model/__module.model.layers.2/__module.model.layers.2.input_layernorm # /home/phil2/Super-Intel-NPU/current/Super-Intel-NPU/venv_offering/lib/python3.12/site-packages/transformers/models/qwen2/modeling_qwen2.py:198:0
  %490 : Float(2, 16, 4096, strides=[65536, 4096, 1], requires_grad=0, device=cpu) = aten::pow(%hidden_states.61, %38), scope: __module.model/__module.model.layers.2/__module.model.layers.2.input_layernorm # /home/phil2/Super-Intel-NPU/current/Super-Intel-NPU/venv_offering/lib/python3.12/site-packages/transformers/models/qwen2/modeling_qwen2.py:199:0
  %491 : int[] = prim::ListConstruct(%45), scope: __module.model/__module.model.layers.2/__module.model.layers.2.input_layernorm
  %variance.9 : Float(2, 16, 1, strides=[16, 1, 1], requires_grad=0, device=cpu) = aten::mean(%490, %491, %25, %41), scope: __module.model/__module.model.layers.2/__module.model.layers.2.input_layernorm # /home/phil2/Super-Intel-NPU/current/Super-Intel-NPU/venv_offering/lib/python3.12/site-packages/transformers/models/qwen2/modeling_qwen2.py:199:0
  %493 : Float(2, 16, 1, strides=[16, 1, 1], requires_grad=0, device=cpu) = aten::add(%variance.9, %24, %44), scope: __module.model/__module.model.layers.2/__module.model.layers.2.input_layernorm # /home/phil2/Super-Intel-NPU/current/Super-Intel-NPU/venv_offering/lib/python3.12/site-packages/transformers/models/qwen2/modeling_qwen2.py:200:0
  %494 : Float(2, 16, 1, strides=[16, 1, 1], requires_grad=0, device=cpu) = aten::rsqrt(%493), scope: __module.model/__module.model.layers.2/__module.model.layers.2.input_layernorm # /home/phil2/Super-Intel-NPU/current/Super-Intel-NPU/venv_offering/lib/python3.12/site-packages/transformers/models/qwen2/modeling_qwen2.py:200:0
  %hidden_states.63 : Float(2, 16, 4096, strides=[65536, 4096, 1], requires_grad=0, device=cpu) = aten::mul(%hidden_states.61, %494), scope: __module.model/__module.model.layers.2/__module.model.layers.2.input_layernorm # /home/phil2/Super-Intel-NPU/current/Super-Intel-NPU/venv_offering/lib/python3.12/site-packages/transformers/models/qwen2/modeling_qwen2.py:200:0
  %hidden_states.65 : Float(2, 16, 4096, strides=[65536, 4096, 1], requires_grad=0, device=cpu) = aten::to(%hidden_states.63, %33, %46, %46, %41), scope: __module.model/__module.model.layers.2/__module.model.layers.2.input_layernorm # /home/phil2/Super-Intel-NPU/current/Super-Intel-NPU/venv_offering/lib/python3.12/site-packages/transformers/models/qwen2/modeling_qwen2.py:201:0
  %hidden_states.67 : Float(2, 16, 4096, strides=[65536, 4096, 1], requires_grad=0, device=cpu) = aten::mul(%weight.41, %hidden_states.65), scope: __module.model/__module.model.layers.2/__module.model.layers.2.input_layernorm # /home/phil2/Super-Intel-NPU/current/Super-Intel-NPU/venv_offering/lib/python3.12/site-packages/transformers/models/qwen2/modeling_qwen2.py:201:0
  %498 : (Float(2, 16, 4096, strides=[65536, 4096, 1], requires_grad=0, device=cpu), Float(2, 16, 4096, strides=[65536, 4096, 1], requires_grad=0, device=cpu)) = prim::TupleConstruct(%hidden_states.67, %hidden_states.61)
  %499 : Float(2, 16, 4096, strides=[65536, 4096, 1], requires_grad=0, device=cpu), %500 : Float(2, 16, 4096, strides=[65536, 4096, 1], requires_grad=0, device=cpu) = prim::TupleUnpack(%498)
  %o_proj.5 : __torch__.torch.nn.modules.linear.___torch_mangle_23.Linear = prim::GetAttr[name="o_proj"](%self_attn.5)
  %v_proj.5 : __torch__.torch.nn.modules.linear.___torch_mangle_22.Linear = prim::GetAttr[name="v_proj"](%self_attn.5)
  %k_proj.5 : __torch__.torch.nn.modules.linear.___torch_mangle_21.Linear = prim::GetAttr[name="k_proj"](%self_attn.5)
  %q_proj.5 : __torch__.torch.nn.modules.linear.___torch_mangle_20.Linear = prim::GetAttr[name="q_proj"](%self_attn.5)
  %505 : int = aten::size(%499, %42), scope: __module.model/__module.model.layers.2/__module.model.layers.2.self_attn # /home/phil2/Super-Intel-NPU/current/Super-Intel-NPU/venv_offering/lib/python3.12/site-packages/transformers/models/qwen2/modeling_qwen2.py:150:0
  %506 : int = aten::size(%499, %44), scope: __module.model/__module.model.layers.2/__module.model.layers.2.self_attn # /home/phil2/Super-Intel-NPU/current/Super-Intel-NPU/venv_offering/lib/python3.12/site-packages/transformers/models/qwen2/modeling_qwen2.py:150:0
  %bias.13 : Tensor = prim::GetAttr[name="bias"](%q_proj.5)
  %weight.43 : Tensor = prim::GetAttr[name="weight"](%q_proj.5)
  %509 : Float(2, 16, 4096, strides=[65536, 4096, 1], requires_grad=0, device=cpu) = aten::linear(%499, %weight.43, %bias.13), scope: __module.model/__module.model.layers.2/__module.model.layers.2.self_attn/__module.model.layers.2.self_attn.q_proj # /home/phil2/Super-Intel-NPU/current/Super-Intel-NPU/venv_offering/lib/python3.12/site-packages/torch/nn/modules/linear.py:134:0
  %510 : int[] = prim::ListConstruct(%505, %506, %45, %30), scope: __module.model/__module.model.layers.2/__module.model.layers.2.self_attn
  %511 : Float(2, 16, 32, 128, strides=[65536, 4096, 128, 1], requires_grad=0, device=cpu) = aten::view(%509, %510), scope: __module.model/__module.model.layers.2/__module.model.layers.2.self_attn # /home/phil2/Super-Intel-NPU/current/Super-Intel-NPU/venv_offering/lib/python3.12/site-packages/transformers/models/qwen2/modeling_qwen2.py:153:0
  %q.5 : Float(2, 32, 16, 128, strides=[65536, 128, 4096, 1], requires_grad=0, device=cpu) = aten::transpose(%511, %44, %38), scope: __module.model/__module.model.layers.2/__module.model.layers.2.self_attn # /home/phil2/Super-Intel-NPU/current/Super-Intel-NPU/venv_offering/lib/python3.12/site-packages/transformers/models/qwen2/modeling_qwen2.py:153:0
  %bias.15 : Tensor = prim::GetAttr[name="bias"](%k_proj.5)
  %weight.45 : Tensor = prim::GetAttr[name="weight"](%k_proj.5)
  %515 : Float(2, 16, 1024, strides=[16384, 1024, 1], requires_grad=0, device=cpu) = aten::linear(%499, %weight.45, %bias.15), scope: __module.model/__module.model.layers.2/__module.model.layers.2.self_attn/__module.model.layers.2.self_attn.k_proj # /home/phil2/Super-Intel-NPU/current/Super-Intel-NPU/venv_offering/lib/python3.12/site-packages/torch/nn/modules/linear.py:134:0
  %516 : int[] = prim::ListConstruct(%505, %506, %45, %30), scope: __module.model/__module.model.layers.2/__module.model.layers.2.self_attn
  %517 : Float(2, 16, 8, 128, strides=[16384, 1024, 128, 1], requires_grad=0, device=cpu) = aten::view(%515, %516), scope: __module.model/__module.model.layers.2/__module.model.layers.2.self_attn # /home/phil2/Super-Intel-NPU/current/Super-Intel-NPU/venv_offering/lib/python3.12/site-packages/transformers/models/qwen2/modeling_qwen2.py:154:0
  %k.5 : Float(2, 8, 16, 128, strides=[16384, 128, 1024, 1], requires_grad=0, device=cpu) = aten::transpose(%517, %44, %38), scope: __module.model/__module.model.layers.2/__module.model.layers.2.self_attn # /home/phil2/Super-Intel-NPU/current/Super-Intel-NPU/venv_offering/lib/python3.12/site-packages/transformers/models/qwen2/modeling_qwen2.py:154:0
  %bias.17 : Tensor = prim::GetAttr[name="bias"](%v_proj.5)
  %weight.47 : Tensor = prim::GetAttr[name="weight"](%v_proj.5)
  %521 : Float(2, 16, 1024, strides=[16384, 1024, 1], requires_grad=0, device=cpu) = aten::linear(%499, %weight.47, %bias.17), scope: __module.model/__module.model.layers.2/__module.model.layers.2.self_attn/__module.model.layers.2.self_attn.v_proj # /home/phil2/Super-Intel-NPU/current/Super-Intel-NPU/venv_offering/lib/python3.12/site-packages/torch/nn/modules/linear.py:134:0
  %522 : int[] = prim::ListConstruct(%505, %506, %45, %30), scope: __module.model/__module.model.layers.2/__module.model.layers.2.self_attn
  %523 : Float(2, 16, 8, 128, strides=[16384, 1024, 128, 1], requires_grad=0, device=cpu) = aten::view(%521, %522), scope: __module.model/__module.model.layers.2/__module.model.layers.2.self_attn # /home/phil2/Super-Intel-NPU/current/Super-Intel-NPU/venv_offering/lib/python3.12/site-packages/transformers/models/qwen2/modeling_qwen2.py:155:0
  %hidden_states.73 : Float(2, 8, 16, 128, strides=[16384, 128, 1024, 1], requires_grad=0, device=cpu) = aten::transpose(%523, %44, %38), scope: __module.model/__module.model.layers.2/__module.model.layers.2.self_attn # /home/phil2/Super-Intel-NPU/current/Super-Intel-NPU/venv_offering/lib/python3.12/site-packages/transformers/models/qwen2/modeling_qwen2.py:155:0
  %cos.9 : Float(2, 1, 16, 128, strides=[2048, 2048, 128, 1], requires_grad=0, device=cpu) = aten::unsqueeze(%190, %44), scope: __module.model/__module.model.layers.2/__module.model.layers.2.self_attn # /home/phil2/Super-Intel-NPU/current/Super-Intel-NPU/venv_offering/lib/python3.12/site-packages/transformers/models/qwen2/modeling_qwen2.py:77:0
  %sin.9 : Float(2, 1, 16, 128, strides=[2048, 2048, 128, 1], requires_grad=0, device=cpu) = aten::unsqueeze(%191, %44), scope: __module.model/__module.model.layers.2/__module.model.layers.2.self_attn # /home/phil2/Super-Intel-NPU/current/Super-Intel-NPU/venv_offering/lib/python3.12/site-packages/transformers/models/qwen2/modeling_qwen2.py:78:0
  %527 : Float(2, 32, 16, 128, strides=[65536, 128, 4096, 1], requires_grad=0, device=cpu) = aten::mul(%q.5, %cos.9), scope: __module.model/__module.model.layers.2/__module.model.layers.2.self_attn # /home/phil2/Super-Intel-NPU/current/Super-Intel-NPU/venv_offering/lib/python3.12/site-packages/transformers/models/qwen2/modeling_qwen2.py:79:0
  %528 : int = aten::size(%q.5, %36), scope: __module.model/__module.model.layers.2/__module.model.layers.2.self_attn # /home/phil2/Super-Intel-NPU/current/Super-Intel-NPU/venv_offering/lib/python3.12/site-packages/transformers/models/qwen2/modeling_qwen2.py:52:0
  %529 : Long(device=cpu) = prim::NumToTensor(%528), scope: __module.model/__module.model.layers.2/__module.model.layers.2.self_attn
  %530 : Long(requires_grad=0, device=cpu) = aten::floor_divide(%529, %29), scope: __module.model/__module.model.layers.2/__module.model.layers.2.self_attn # /home/phil2/Super-Intel-NPU/current/Super-Intel-NPU/venv_offering/lib/python3.12/site-packages/torch/_tensor.py:1119:0
  %531 : int = aten::Int(%530), scope: __module.model/__module.model.layers.2/__module.model.layers.2.self_attn
  %x1.9 : Float(2, 32, 16, 64, strides=[65536, 128, 4096, 1], requires_grad=0, device=cpu) = aten::slice(%q.5, %36, %42, %531, %44), scope: __module.model/__module.model.layers.2/__module.model.layers.2.self_attn # /home/phil2/Super-Intel-NPU/current/Super-Intel-NPU/venv_offering/lib/python3.12/site-packages/transformers/models/qwen2/modeling_qwen2.py:52:0
  %533 : int = aten::size(%q.5, %36), scope: __module.model/__module.model.layers.2/__module.model.layers.2.self_attn # /home/phil2/Super-Intel-NPU/current/Super-Intel-NPU/venv_offering/lib/python3.12/site-packages/transformers/models/qwen2/modeling_qwen2.py:53:0
  %534 : Long(device=cpu) = prim::NumToTensor(%533), scope: __module.model/__module.model.layers.2/__module.model.layers.2.self_attn
  %535 : Long(requires_grad=0, device=cpu) = aten::floor_divide(%534, %29), scope: __module.model/__module.model.layers.2/__module.model.layers.2.self_attn # /home/phil2/Super-Intel-NPU/current/Super-Intel-NPU/venv_offering/lib/python3.12/site-packages/torch/_tensor.py:1119:0
  %536 : int = aten::Int(%535), scope: __module.model/__module.model.layers.2/__module.model.layers.2.self_attn
  %x2.9 : Float(2, 32, 16, 64, strides=[65536, 128, 4096, 1], requires_grad=0, device=cpu) = aten::slice(%q.5, %36, %536, %37, %44), scope: __module.model/__module.model.layers.2/__module.model.layers.2.self_attn # /home/phil2/Super-Intel-NPU/current/Super-Intel-NPU/venv_offering/lib/python3.12/site-packages/transformers/models/qwen2/modeling_qwen2.py:53:0
  %538 : Float(2, 32, 16, 64, strides=[32768, 64, 2048, 1], requires_grad=0, device=cpu) = aten::neg(%x2.9), scope: __module.model/__module.model.layers.2/__module.model.layers.2.self_attn # /home/phil2/Super-Intel-NPU/current/Super-Intel-NPU/venv_offering/lib/python3.12/site-packages/transformers/models/qwen2/modeling_qwen2.py:54:0
  %539 : Tensor[] = prim::ListConstruct(%538, %x1.9), scope: __module.model/__module.model.layers.2/__module.model.layers.2.self_attn
  %540 : Float(2, 32, 16, 128, strides=[65536, 2048, 128, 1], requires_grad=0, device=cpu) = aten::cat(%539, %45), scope: __module.model/__module.model.layers.2/__module.model.layers.2.self_attn # /home/phil2/Super-Intel-NPU/current/Super-Intel-NPU/venv_offering/lib/python3.12/site-packages/transformers/models/qwen2/modeling_qwen2.py:54:0
  %541 : Float(2, 32, 16, 128, strides=[65536, 2048, 128, 1], requires_grad=0, device=cpu) = aten::mul(%540, %sin.9), scope: __module.model/__module.model.layers.2/__module.model.layers.2.self_attn # /home/phil2/Super-Intel-NPU/current/Super-Intel-NPU/venv_offering/lib/python3.12/site-packages/transformers/models/qwen2/modeling_qwen2.py:79:0
  %query.5 : Float(2, 32, 16, 128, strides=[65536, 128, 4096, 1], requires_grad=0, device=cpu) = aten::add(%527, %541, %44), scope: __module.model/__module.model.layers.2/__module.model.layers.2.self_attn # /home/phil2/Super-Intel-NPU/current/Super-Intel-NPU/venv_offering/lib/python3.12/site-packages/transformers/models/qwen2/modeling_qwen2.py:79:0
  %543 : Float(2, 8, 16, 128, strides=[16384, 128, 1024, 1], requires_grad=0, device=cpu) = aten::mul(%k.5, %cos.9), scope: __module.model/__module.model.layers.2/__module.model.layers.2.self_attn # /home/phil2/Super-Intel-NPU/current/Super-Intel-NPU/venv_offering/lib/python3.12/site-packages/transformers/models/qwen2/modeling_qwen2.py:80:0
  %544 : int = aten::size(%k.5, %36), scope: __module.model/__module.model.layers.2/__module.model.layers.2.self_attn # /home/phil2/Super-Intel-NPU/current/Super-Intel-NPU/venv_offering/lib/python3.12/site-packages/transformers/models/qwen2/modeling_qwen2.py:52:0
  %545 : Long(device=cpu) = prim::NumToTensor(%544), scope: __module.model/__module.model.layers.2/__module.model.layers.2.self_attn
  %546 : Long(requires_grad=0, device=cpu) = aten::floor_divide(%545, %29), scope: __module.model/__module.model.layers.2/__module.model.layers.2.self_attn # /home/phil2/Super-Intel-NPU/current/Super-Intel-NPU/venv_offering/lib/python3.12/site-packages/torch/_tensor.py:1119:0
  %547 : int = aten::Int(%546), scope: __module.model/__module.model.layers.2/__module.model.layers.2.self_attn
  %x1.11 : Float(2, 8, 16, 64, strides=[16384, 128, 1024, 1], requires_grad=0, device=cpu) = aten::slice(%k.5, %36, %42, %547, %44), scope: __module.model/__module.model.layers.2/__module.model.layers.2.self_attn # /home/phil2/Super-Intel-NPU/current/Super-Intel-NPU/venv_offering/lib/python3.12/site-packages/transformers/models/qwen2/modeling_qwen2.py:52:0
  %549 : int = aten::size(%k.5, %36), scope: __module.model/__module.model.layers.2/__module.model.layers.2.self_attn # /home/phil2/Super-Intel-NPU/current/Super-Intel-NPU/venv_offering/lib/python3.12/site-packages/transformers/models/qwen2/modeling_qwen2.py:53:0
  %550 : Long(device=cpu) = prim::NumToTensor(%549), scope: __module.model/__module.model.layers.2/__module.model.layers.2.self_attn
  %551 : Long(requires_grad=0, device=cpu) = aten::floor_divide(%550, %29), scope: __module.model/__module.model.layers.2/__module.model.layers.2.self_attn # /home/phil2/Super-Intel-NPU/current/Super-Intel-NPU/venv_offering/lib/python3.12/site-packages/torch/_tensor.py:1119:0
  %552 : int = aten::Int(%551), scope: __module.model/__module.model.layers.2/__module.model.layers.2.self_attn
  %x2.11 : Float(2, 8, 16, 64, strides=[16384, 128, 1024, 1], requires_grad=0, device=cpu) = aten::slice(%k.5, %36, %552, %37, %44), scope: __module.model/__module.model.layers.2/__module.model.layers.2.self_attn # /home/phil2/Super-Intel-NPU/current/Super-Intel-NPU/venv_offering/lib/python3.12/site-packages/transformers/models/qwen2/modeling_qwen2.py:53:0
  %554 : Float(2, 8, 16, 64, strides=[8192, 64, 512, 1], requires_grad=0, device=cpu) = aten::neg(%x2.11), scope: __module.model/__module.model.layers.2/__module.model.layers.2.self_attn # /home/phil2/Super-Intel-NPU/current/Super-Intel-NPU/venv_offering/lib/python3.12/site-packages/transformers/models/qwen2/modeling_qwen2.py:54:0
  %555 : Tensor[] = prim::ListConstruct(%554, %x1.11), scope: __module.model/__module.model.layers.2/__module.model.layers.2.self_attn
  %556 : Float(2, 8, 16, 128, strides=[16384, 2048, 128, 1], requires_grad=0, device=cpu) = aten::cat(%555, %45), scope: __module.model/__module.model.layers.2/__module.model.layers.2.self_attn # /home/phil2/Super-Intel-NPU/current/Super-Intel-NPU/venv_offering/lib/python3.12/site-packages/transformers/models/qwen2/modeling_qwen2.py:54:0
  %557 : Float(2, 8, 16, 128, strides=[16384, 2048, 128, 1], requires_grad=0, device=cpu) = aten::mul(%556, %sin.9), scope: __module.model/__module.model.layers.2/__module.model.layers.2.self_attn # /home/phil2/Super-Intel-NPU/current/Super-Intel-NPU/venv_offering/lib/python3.12/site-packages/transformers/models/qwen2/modeling_qwen2.py:80:0
  %hidden_states.69 : Float(2, 8, 16, 128, strides=[16384, 128, 1024, 1], requires_grad=0, device=cpu) = aten::add(%543, %557, %44), scope: __module.model/__module.model.layers.2/__module.model.layers.2.self_attn # /home/phil2/Super-Intel-NPU/current/Super-Intel-NPU/venv_offering/lib/python3.12/site-packages/transformers/models/qwen2/modeling_qwen2.py:80:0
  %559 : int = aten::size(%hidden_states.69, %42), scope: __module.model/__module.model.layers.2/__module.model.layers.2.self_attn # /home/phil2/Super-Intel-NPU/current/Super-Intel-NPU/venv_offering/lib/python3.12/site-packages/transformers/integrations/sdpa_attention.py:23:0
  %560 : int = aten::size(%hidden_states.69, %44), scope: __module.model/__module.model.layers.2/__module.model.layers.2.self_attn # /home/phil2/Super-Intel-NPU/current/Super-Intel-NPU/venv_offering/lib/python3.12/site-packages/transformers/integrations/sdpa_attention.py:23:0
  %num_key_value_heads.9 : Long(device=cpu) = prim::NumToTensor(%560), scope: __module.model/__module.model.layers.2/__module.model.layers.2.self_attn
  %562 : int = aten::size(%hidden_states.69, %38), scope: __module.model/__module.model.layers.2/__module.model.layers.2.self_attn # /home/phil2/Super-Intel-NPU/current/Super-Intel-NPU/venv_offering/lib/python3.12/site-packages/transformers/integrations/sdpa_attention.py:23:0
  %563 : int = aten::size(%hidden_states.69, %36), scope: __module.model/__module.model.layers.2/__module.model.layers.2.self_attn # /home/phil2/Super-Intel-NPU/current/Super-Intel-NPU/venv_offering/lib/python3.12/site-packages/transformers/integrations/sdpa_attention.py:23:0
  %564 : Float(2, 8, 16, 128, strides=[16384, 128, 1024, 1], requires_grad=0, device=cpu) = aten::slice(%hidden_states.69, %42, %42, %37, %44), scope: __module.model/__module.model.layers.2/__module.model.layers.2.self_attn # /home/phil2/Super-Intel-NPU/current/Super-Intel-NPU/venv_offering/lib/python3.12/site-packages/transformers/integrations/sdpa_attention.py:26:0
  %565 : Float(2, 8, 16, 128, strides=[16384, 128, 1024, 1], requires_grad=0, device=cpu) = aten::slice(%564, %44, %42, %37, %44), scope: __module.model/__module.model.layers.2/__module.model.layers.2.self_attn # /home/phil2/Super-Intel-NPU/current/Super-Intel-NPU/venv_offering/lib/python3.12/site-packages/transformers/integrations/sdpa_attention.py:26:0
  %566 : Float(2, 8, 1, 16, 128, strides=[16384, 128, 16384, 1024, 1], requires_grad=0, device=cpu) = aten::unsqueeze(%565, %38), scope: __module.model/__module.model.layers.2/__module.model.layers.2.self_attn # /home/phil2/Super-Intel-NPU/current/Super-Intel-NPU/venv_offering/lib/python3.12/site-packages/transformers/integrations/sdpa_attention.py:26:0
  %567 : Float(2, 8, 1, 16, 128, strides=[16384, 128, 16384, 1024, 1], requires_grad=0, device=cpu) = aten::slice(%566, %36, %42, %37, %44), scope: __module.model/__module.model.layers.2/__module.model.layers.2.self_attn # /home/phil2/Super-Intel-NPU/current/Super-Intel-NPU/venv_offering/lib/python3.12/site-packages/transformers/integrations/sdpa_attention.py:26:0
  %568 : Float(2, 8, 1, 16, 128, strides=[16384, 128, 16384, 1024, 1], requires_grad=0, device=cpu) = aten::slice(%567, %35, %42, %37, %44), scope: __module.model/__module.model.layers.2/__module.model.layers.2.self_attn # /home/phil2/Super-Intel-NPU/current/Super-Intel-NPU/venv_offering/lib/python3.12/site-packages/transformers/integrations/sdpa_attention.py:26:0
  %569 : int[] = prim::ListConstruct(%559, %560, %35, %562, %563), scope: __module.model/__module.model.layers.2/__module.model.layers.2.self_attn
  %hidden_states.71 : Float(2, 8, 4, 16, 128, strides=[16384, 128, 0, 1024, 1], requires_grad=0, device=cpu) = aten::expand(%568, %569, %46), scope: __module.model/__module.model.layers.2/__module.model.layers.2.self_attn # /home/phil2/Super-Intel-NPU/current/Super-Intel-NPU/venv_offering/lib/python3.12/site-packages/transformers/integrations/sdpa_attention.py:26:0
  %571 : Long(requires_grad=0, device=cpu) = aten::mul(%num_key_value_heads.9, %28), scope: __module.model/__module.model.layers.2/__module.model.layers.2.self_attn # /home/phil2/Super-Intel-NPU/current/Super-Intel-NPU/venv_offering/lib/python3.12/site-packages/transformers/integrations/sdpa_attention.py:27:0
  %572 : int = aten::Int(%571), scope: __module.model/__module.model.layers.2/__module.model.layers.2.self_attn
  %573 : int[] = prim::ListConstruct(%559, %572, %562, %563), scope: __module.model/__module.model.layers.2/__module.model.layers.2.self_attn
  %key.5 : Float(2, 32, 16, 128, strides=[65536, 2048, 128, 1], requires_grad=0, device=cpu) = aten::reshape(%hidden_states.71, %573), scope: __module.model/__module.model.layers.2/__module.model.layers.2.self_attn # /home/phil2/Super-Intel-NPU/current/Super-Intel-NPU/venv_offering/lib/python3.12/site-packages/transformers/integrations/sdpa_attention.py:27:0
  %575 : int = aten::size(%hidden_states.73, %42), scope: __module.model/__module.model.layers.2/__module.model.layers.2.self_attn # /home/phil2/Super-Intel-NPU/current/Super-Intel-NPU/venv_offering/lib/python3.12/site-packages/transformers/integrations/sdpa_attention.py:23:0
  %576 : int = aten::size(%hidden_states.73, %44), scope: __module.model/__module.model.layers.2/__module.model.layers.2.self_attn # /home/phil2/Super-Intel-NPU/current/Super-Intel-NPU/venv_offering/lib/python3.12/site-packages/transformers/integrations/sdpa_attention.py:23:0
  %num_key_value_heads.11 : Long(device=cpu) = prim::NumToTensor(%576), scope: __module.model/__module.model.layers.2/__module.model.layers.2.self_attn
  %578 : int = aten::size(%hidden_states.73, %38), scope: __module.model/__module.model.layers.2/__module.model.layers.2.self_attn # /home/phil2/Super-Intel-NPU/current/Super-Intel-NPU/venv_offering/lib/python3.12/site-packages/transformers/integrations/sdpa_attention.py:23:0
  %579 : int = aten::size(%hidden_states.73, %36), scope: __module.model/__module.model.layers.2/__module.model.layers.2.self_attn # /home/phil2/Super-Intel-NPU/current/Super-Intel-NPU/venv_offering/lib/python3.12/site-packages/transformers/integrations/sdpa_attention.py:23:0
  %580 : Float(2, 8, 16, 128, strides=[16384, 128, 1024, 1], requires_grad=0, device=cpu) = aten::slice(%hidden_states.73, %42, %42, %37, %44), scope: __module.model/__module.model.layers.2/__module.model.layers.2.self_attn # /home/phil2/Super-Intel-NPU/current/Super-Intel-NPU/venv_offering/lib/python3.12/site-packages/transformers/integrations/sdpa_attention.py:26:0
  %581 : Float(2, 8, 16, 128, strides=[16384, 128, 1024, 1], requires_grad=0, device=cpu) = aten::slice(%580, %44, %42, %37, %44), scope: __module.model/__module.model.layers.2/__module.model.layers.2.self_attn # /home/phil2/Super-Intel-NPU/current/Super-Intel-NPU/venv_offering/lib/python3.12/site-packages/transformers/integrations/sdpa_attention.py:26:0
  %582 : Float(2, 8, 1, 16, 128, strides=[16384, 128, 16384, 1024, 1], requires_grad=0, device=cpu) = aten::unsqueeze(%581, %38), scope: __module.model/__module.model.layers.2/__module.model.layers.2.self_attn # /home/phil2/Super-Intel-NPU/current/Super-Intel-NPU/venv_offering/lib/python3.12/site-packages/transformers/integrations/sdpa_attention.py:26:0
  %583 : Float(2, 8, 1, 16, 128, strides=[16384, 128, 16384, 1024, 1], requires_grad=0, device=cpu) = aten::slice(%582, %36, %42, %37, %44), scope: __module.model/__module.model.layers.2/__module.model.layers.2.self_attn # /home/phil2/Super-Intel-NPU/current/Super-Intel-NPU/venv_offering/lib/python3.12/site-packages/transformers/integrations/sdpa_attention.py:26:0
  %584 : Float(2, 8, 1, 16, 128, strides=[16384, 128, 16384, 1024, 1], requires_grad=0, device=cpu) = aten::slice(%583, %35, %42, %37, %44), scope: __module.model/__module.model.layers.2/__module.model.layers.2.self_attn # /home/phil2/Super-Intel-NPU/current/Super-Intel-NPU/venv_offering/lib/python3.12/site-packages/transformers/integrations/sdpa_attention.py:26:0
  %585 : int[] = prim::ListConstruct(%575, %576, %35, %578, %579), scope: __module.model/__module.model.layers.2/__module.model.layers.2.self_attn
  %hidden_states.75 : Float(2, 8, 4, 16, 128, strides=[16384, 128, 0, 1024, 1], requires_grad=0, device=cpu) = aten::expand(%584, %585, %46), scope: __module.model/__module.model.layers.2/__module.model.layers.2.self_attn # /home/phil2/Super-Intel-NPU/current/Super-Intel-NPU/venv_offering/lib/python3.12/site-packages/transformers/integrations/sdpa_attention.py:26:0
  %587 : Long(requires_grad=0, device=cpu) = aten::mul(%num_key_value_heads.11, %28), scope: __module.model/__module.model.layers.2/__module.model.layers.2.self_attn # /home/phil2/Super-Intel-NPU/current/Super-Intel-NPU/venv_offering/lib/python3.12/site-packages/transformers/integrations/sdpa_attention.py:27:0
  %588 : int = aten::Int(%587), scope: __module.model/__module.model.layers.2/__module.model.layers.2.self_attn
  %589 : int[] = prim::ListConstruct(%575, %588, %578, %579), scope: __module.model/__module.model.layers.2/__module.model.layers.2.self_attn
  %value.5 : Float(2, 32, 16, 128, strides=[65536, 2048, 128, 1], requires_grad=0, device=cpu) = aten::reshape(%hidden_states.75, %589), scope: __module.model/__module.model.layers.2/__module.model.layers.2.self_attn # /home/phil2/Super-Intel-NPU/current/Super-Intel-NPU/venv_offering/lib/python3.12/site-packages/transformers/integrations/sdpa_attention.py:27:0
  %591 : int = aten::size(%key.5, %38), scope: __module.model/__module.model.layers.2/__module.model.layers.2.self_attn # /home/phil2/Super-Intel-NPU/current/Super-Intel-NPU/venv_offering/lib/python3.12/site-packages/transformers/integrations/sdpa_attention.py:73:0
  %592 : Float(2, 1, 16, 16, strides=[256, 256, 16, 1], requires_grad=0, device=cpu) = aten::slice(%attention_mask.5, %42, %42, %37, %44), scope: __module.model/__module.model.layers.2/__module.model.layers.2.self_attn # /home/phil2/Super-Intel-NPU/current/Super-Intel-NPU/venv_offering/lib/python3.12/site-packages/transformers/integrations/sdpa_attention.py:73:0
  %593 : Float(2, 1, 16, 16, strides=[256, 256, 16, 1], requires_grad=0, device=cpu) = aten::slice(%592, %44, %42, %37, %44), scope: __module.model/__module.model.layers.2/__module.model.layers.2.self_attn # /home/phil2/Super-Intel-NPU/current/Super-Intel-NPU/venv_offering/lib/python3.12/site-packages/transformers/integrations/sdpa_attention.py:73:0
  %594 : Float(2, 1, 16, 16, strides=[256, 256, 16, 1], requires_grad=0, device=cpu) = aten::slice(%593, %38, %42, %37, %44), scope: __module.model/__module.model.layers.2/__module.model.layers.2.self_attn # /home/phil2/Super-Intel-NPU/current/Super-Intel-NPU/venv_offering/lib/python3.12/site-packages/transformers/integrations/sdpa_attention.py:73:0
  %attention_mask.11 : Float(2, 1, 16, 16, strides=[256, 256, 16, 1], requires_grad=0, device=cpu) = aten::slice(%594, %36, %42, %591, %44), scope: __module.model/__module.model.layers.2/__module.model.layers.2.self_attn # /home/phil2/Super-Intel-NPU/current/Super-Intel-NPU/venv_offering/lib/python3.12/site-packages/transformers/integrations/sdpa_attention.py:73:0
  %attn_output.9 : Float(2, 32, 16, 128, strides=[65536, 128, 4096, 1], requires_grad=0, device=cpu) = aten::scaled_dot_product_attention(%query.5, %key.5, %value.5, %attention_mask.11, %27, %46, %26, %46), scope: __module.model/__module.model.layers.2/__module.model.layers.2.self_attn # /home/phil2/Super-Intel-NPU/current/Super-Intel-NPU/venv_offering/lib/python3.12/site-packages/transformers/integrations/sdpa_attention.py:96:0
  %597 : Float(2, 16, 32, 128, strides=[65536, 4096, 128, 1], requires_grad=0, device=cpu) = aten::transpose(%attn_output.9, %44, %38), scope: __module.model/__module.model.layers.2/__module.model.layers.2.self_attn # /home/phil2/Super-Intel-NPU/current/Super-Intel-NPU/venv_offering/lib/python3.12/site-packages/transformers/integrations/sdpa_attention.py:106:0
  %attn_output.11 : Float(2, 16, 32, 128, strides=[65536, 4096, 128, 1], requires_grad=0, device=cpu) = aten::contiguous(%597, %42), scope: __module.model/__module.model.layers.2/__module.model.layers.2.self_attn # /home/phil2/Super-Intel-NPU/current/Super-Intel-NPU/venv_offering/lib/python3.12/site-packages/transformers/integrations/sdpa_attention.py:106:0
  %599 : int[] = prim::ListConstruct(%505, %506, %45), scope: __module.model/__module.model.layers.2/__module.model.layers.2.self_attn
  %600 : Float(2, 16, 4096, strides=[65536, 4096, 1], requires_grad=0, device=cpu) = aten::reshape(%attn_output.11, %599), scope: __module.model/__module.model.layers.2/__module.model.layers.2.self_attn # /home/phil2/Super-Intel-NPU/current/Super-Intel-NPU/venv_offering/lib/python3.12/site-packages/transformers/models/qwen2/modeling_qwen2.py:181:0
  %input.17 : Float(2, 16, 4096, strides=[65536, 4096, 1], requires_grad=0, device=cpu) = aten::contiguous(%600, %42), scope: __module.model/__module.model.layers.2/__module.model.layers.2.self_attn # /home/phil2/Super-Intel-NPU/current/Super-Intel-NPU/venv_offering/lib/python3.12/site-packages/transformers/models/qwen2/modeling_qwen2.py:181:0
  %weight.49 : Tensor = prim::GetAttr[name="weight"](%o_proj.5)
  %hidden_states.77 : Float(2, 16, 4096, strides=[65536, 4096, 1], requires_grad=0, device=cpu) = aten::linear(%input.17, %weight.49, %41), scope: __module.model/__module.model.layers.2/__module.model.layers.2.self_attn/__module.model.layers.2.self_attn.o_proj # /home/phil2/Super-Intel-NPU/current/Super-Intel-NPU/venv_offering/lib/python3.12/site-packages/torch/nn/modules/linear.py:134:0
  %hidden_states.79 : Float(2, 16, 4096, strides=[65536, 4096, 1], requires_grad=0, device=cpu) = aten::add(%500, %hidden_states.77, %44), scope: __module.model/__module.model.layers.2 # /home/phil2/Super-Intel-NPU/current/Super-Intel-NPU/venv_offering/lib/python3.12/site-packages/transformers/models/qwen2/modeling_qwen2.py:244:0
  %weight.51 : Tensor = prim::GetAttr[name="weight"](%post_attention_layernorm.5)
  %hidden_states.81 : Float(2, 16, 4096, strides=[65536, 4096, 1], requires_grad=0, device=cpu) = aten::to(%hidden_states.79, %33, %46, %46, %41), scope: __module.model/__module.model.layers.2/__module.model.layers.2.post_attention_layernorm # /home/phil2/Super-Intel-NPU/current/Super-Intel-NPU/venv_offering/lib/python3.12/site-packages/transformers/models/qwen2/modeling_qwen2.py:198:0
  %607 : Float(2, 16, 4096, strides=[65536, 4096, 1], requires_grad=0, device=cpu) = aten::pow(%hidden_states.81, %38), scope: __module.model/__module.model.layers.2/__module.model.layers.2.post_attention_layernorm # /home/phil2/Super-Intel-NPU/current/Super-Intel-NPU/venv_offering/lib/python3.12/site-packages/transformers/models/qwen2/modeling_qwen2.py:199:0
  %608 : int[] = prim::ListConstruct(%45), scope: __module.model/__module.model.layers.2/__module.model.layers.2.post_attention_layernorm
  %variance.11 : Float(2, 16, 1, strides=[16, 1, 1], requires_grad=0, device=cpu) = aten::mean(%607, %608, %25, %41), scope: __module.model/__module.model.layers.2/__module.model.layers.2.post_attention_layernorm # /home/phil2/Super-Intel-NPU/current/Super-Intel-NPU/venv_offering/lib/python3.12/site-packages/transformers/models/qwen2/modeling_qwen2.py:199:0
  %610 : Float(2, 16, 1, strides=[16, 1, 1], requires_grad=0, device=cpu) = aten::add(%variance.11, %24, %44), scope: __module.model/__module.model.layers.2/__module.model.layers.2.post_attention_layernorm # /home/phil2/Super-Intel-NPU/current/Super-Intel-NPU/venv_offering/lib/python3.12/site-packages/transformers/models/qwen2/modeling_qwen2.py:200:0
  %611 : Float(2, 16, 1, strides=[16, 1, 1], requires_grad=0, device=cpu) = aten::rsqrt(%610), scope: __module.model/__module.model.layers.2/__module.model.layers.2.post_attention_layernorm # /home/phil2/Super-Intel-NPU/current/Super-Intel-NPU/venv_offering/lib/python3.12/site-packages/transformers/models/qwen2/modeling_qwen2.py:200:0
  %hidden_states.83 : Float(2, 16, 4096, strides=[65536, 4096, 1], requires_grad=0, device=cpu) = aten::mul(%hidden_states.81, %611), scope: __module.model/__module.model.layers.2/__module.model.layers.2.post_attention_layernorm # /home/phil2/Super-Intel-NPU/current/Super-Intel-NPU/venv_offering/lib/python3.12/site-packages/transformers/models/qwen2/modeling_qwen2.py:200:0
  %hidden_states.85 : Float(2, 16, 4096, strides=[65536, 4096, 1], requires_grad=0, device=cpu) = aten::to(%hidden_states.83, %33, %46, %46, %41), scope: __module.model/__module.model.layers.2/__module.model.layers.2.post_attention_layernorm # /home/phil2/Super-Intel-NPU/current/Super-Intel-NPU/venv_offering/lib/python3.12/site-packages/transformers/models/qwen2/modeling_qwen2.py:201:0
  %input.19 : Float(2, 16, 4096, strides=[65536, 4096, 1], requires_grad=0, device=cpu) = aten::mul(%weight.51, %hidden_states.85), scope: __module.model/__module.model.layers.2/__module.model.layers.2.post_attention_layernorm # /home/phil2/Super-Intel-NPU/current/Super-Intel-NPU/venv_offering/lib/python3.12/site-packages/transformers/models/qwen2/modeling_qwen2.py:201:0
  %615 : (Float(2, 16, 4096, strides=[65536, 4096, 1], requires_grad=0, device=cpu), Float(2, 16, 4096, strides=[65536, 4096, 1], requires_grad=0, device=cpu)) = prim::TupleConstruct(%input.19, %hidden_states.81)
  %616 : Float(2, 16, 4096, strides=[65536, 4096, 1], requires_grad=0, device=cpu), %617 : Float(2, 16, 4096, strides=[65536, 4096, 1], requires_grad=0, device=cpu) = prim::TupleUnpack(%615)
  %down_proj.5 : __torch__.torch.nn.modules.linear.___torch_mangle_27.Linear = prim::GetAttr[name="down_proj"](%mlp.5)
  %up_proj.5 : __torch__.torch.nn.modules.linear.___torch_mangle_26.Linear = prim::GetAttr[name="up_proj"](%mlp.5)
  %gate_proj.5 : __torch__.torch.nn.modules.linear.___torch_mangle_25.Linear = prim::GetAttr[name="gate_proj"](%mlp.5)
  %weight.53 : Tensor = prim::GetAttr[name="weight"](%gate_proj.5)
  %input.21 : Float(2, 16, 12288, strides=[196608, 12288, 1], requires_grad=0, device=cpu) = aten::linear(%616, %weight.53, %41), scope: __module.model/__module.model.layers.2/__module.model.layers.2.mlp/__module.model.layers.2.mlp.gate_proj # /home/phil2/Super-Intel-NPU/current/Super-Intel-NPU/venv_offering/lib/python3.12/site-packages/torch/nn/modules/linear.py:134:0
  %623 : Float(2, 16, 12288, strides=[196608, 12288, 1], requires_grad=0, device=cpu) = aten::silu(%input.21), scope: __module.model/__module.model.layers.2/__module.model.layers.2.mlp/__module.model.layers.2.mlp.act_fn # /home/phil2/Super-Intel-NPU/current/Super-Intel-NPU/venv_offering/lib/python3.12/site-packages/torch/nn/functional.py:2371:0
  %weight.55 : Tensor = prim::GetAttr[name="weight"](%up_proj.5)
  %625 : Float(2, 16, 12288, strides=[196608, 12288, 1], requires_grad=0, device=cpu) = aten::linear(%616, %weight.55, %41), scope: __module.model/__module.model.layers.2/__module.model.layers.2.mlp/__module.model.layers.2.mlp.up_proj # /home/phil2/Super-Intel-NPU/current/Super-Intel-NPU/venv_offering/lib/python3.12/site-packages/torch/nn/modules/linear.py:134:0
  %input.23 : Float(2, 16, 12288, strides=[196608, 12288, 1], requires_grad=0, device=cpu) = aten::mul(%623, %625), scope: __module.model/__module.model.layers.2/__module.model.layers.2.mlp # /home/phil2/Super-Intel-NPU/current/Super-Intel-NPU/venv_offering/lib/python3.12/site-packages/transformers/models/qwen2/modeling_qwen2.py:46:0
  %weight.57 : Tensor = prim::GetAttr[name="weight"](%down_proj.5)
  %hidden_states.87 : Float(2, 16, 4096, strides=[65536, 4096, 1], requires_grad=0, device=cpu) = aten::linear(%input.23, %weight.57, %41), scope: __module.model/__module.model.layers.2/__module.model.layers.2.mlp/__module.model.layers.2.mlp.down_proj # /home/phil2/Super-Intel-NPU/current/Super-Intel-NPU/venv_offering/lib/python3.12/site-packages/torch/nn/modules/linear.py:134:0
  %hidden_states.89 : Float(2, 16, 4096, strides=[65536, 4096, 1], requires_grad=0, device=cpu) = aten::add(%617, %hidden_states.87, %44), scope: __module.model/__module.model.layers.2 # /home/phil2/Super-Intel-NPU/current/Super-Intel-NPU/venv_offering/lib/python3.12/site-packages/transformers/models/qwen2/modeling_qwen2.py:250:0
  %mlp.7 : __torch__.transformers.models.qwen2.modeling_qwen2.___torch_mangle_42.Qwen2MLP = prim::GetAttr[name="mlp"](%_3)
  %post_attention_layernorm.7 : __torch__.transformers.models.qwen2.modeling_qwen2.___torch_mangle_44.Qwen2RMSNorm = prim::GetAttr[name="post_attention_layernorm"](%_3)
  %self_attn.7 : __torch__.transformers.models.qwen2.modeling_qwen2.___torch_mangle_37.Qwen2Attention = prim::GetAttr[name="self_attn"](%_3)
  %input_layernorm.7 : __torch__.transformers.models.qwen2.modeling_qwen2.___torch_mangle_43.Qwen2RMSNorm = prim::GetAttr[name="input_layernorm"](%_3)
  %weight.59 : Tensor = prim::GetAttr[name="weight"](%input_layernorm.7)
  %hidden_states.91 : Float(2, 16, 4096, strides=[65536, 4096, 1], requires_grad=0, device=cpu) = aten::to(%hidden_states.89, %33, %46, %46, %41), scope: __module.model/__module.model.layers.3/__module.model.layers.3.input_layernorm # /home/phil2/Super-Intel-NPU/current/Super-Intel-NPU/venv_offering/lib/python3.12/site-packages/transformers/models/qwen2/modeling_qwen2.py:198:0
  %636 : Float(2, 16, 4096, strides=[65536, 4096, 1], requires_grad=0, device=cpu) = aten::pow(%hidden_states.91, %38), scope: __module.model/__module.model.layers.3/__module.model.layers.3.input_layernorm # /home/phil2/Super-Intel-NPU/current/Super-Intel-NPU/venv_offering/lib/python3.12/site-packages/transformers/models/qwen2/modeling_qwen2.py:199:0
  %637 : int[] = prim::ListConstruct(%45), scope: __module.model/__module.model.layers.3/__module.model.layers.3.input_layernorm
  %variance.13 : Float(2, 16, 1, strides=[16, 1, 1], requires_grad=0, device=cpu) = aten::mean(%636, %637, %25, %41), scope: __module.model/__module.model.layers.3/__module.model.layers.3.input_layernorm # /home/phil2/Super-Intel-NPU/current/Super-Intel-NPU/venv_offering/lib/python3.12/site-packages/transformers/models/qwen2/modeling_qwen2.py:199:0
  %639 : Float(2, 16, 1, strides=[16, 1, 1], requires_grad=0, device=cpu) = aten::add(%variance.13, %24, %44), scope: __module.model/__module.model.layers.3/__module.model.layers.3.input_layernorm # /home/phil2/Super-Intel-NPU/current/Super-Intel-NPU/venv_offering/lib/python3.12/site-packages/transformers/models/qwen2/modeling_qwen2.py:200:0
  %640 : Float(2, 16, 1, strides=[16, 1, 1], requires_grad=0, device=cpu) = aten::rsqrt(%639), scope: __module.model/__module.model.layers.3/__module.model.layers.3.input_layernorm # /home/phil2/Super-Intel-NPU/current/Super-Intel-NPU/venv_offering/lib/python3.12/site-packages/transformers/models/qwen2/modeling_qwen2.py:200:0
  %hidden_states.93 : Float(2, 16, 4096, strides=[65536, 4096, 1], requires_grad=0, device=cpu) = aten::mul(%hidden_states.91, %640), scope: __module.model/__module.model.layers.3/__module.model.layers.3.input_layernorm # /home/phil2/Super-Intel-NPU/current/Super-Intel-NPU/venv_offering/lib/python3.12/site-packages/transformers/models/qwen2/modeling_qwen2.py:200:0
  %hidden_states.95 : Float(2, 16, 4096, strides=[65536, 4096, 1], requires_grad=0, device=cpu) = aten::to(%hidden_states.93, %33, %46, %46, %41), scope: __module.model/__module.model.layers.3/__module.model.layers.3.input_layernorm # /home/phil2/Super-Intel-NPU/current/Super-Intel-NPU/venv_offering/lib/python3.12/site-packages/transformers/models/qwen2/modeling_qwen2.py:201:0
  %hidden_states.97 : Float(2, 16, 4096, strides=[65536, 4096, 1], requires_grad=0, device=cpu) = aten::mul(%weight.59, %hidden_states.95), scope: __module.model/__module.model.layers.3/__module.model.layers.3.input_layernorm # /home/phil2/Super-Intel-NPU/current/Super-Intel-NPU/venv_offering/lib/python3.12/site-packages/transformers/models/qwen2/modeling_qwen2.py:201:0
  %644 : (Float(2, 16, 4096, strides=[65536, 4096, 1], requires_grad=0, device=cpu), Float(2, 16, 4096, strides=[65536, 4096, 1], requires_grad=0, device=cpu)) = prim::TupleConstruct(%hidden_states.97, %hidden_states.91)
…
ages/transformers/models/qwen2/modeling_qwen2.py:200:0
  %5283 : Float(2, 16, 1, strides=[16, 1, 1], requires_grad=0, device=cpu) = aten::rsqrt(%5282), scope: __module.model/__module.model.layers.34/__module.model.layers.34.post_attention_layernorm # /home/phil2/Super-Intel-NPU/current/Super-Intel-NPU/venv_offering/lib/python3.12/site-packages/transformers/models/qwen2/modeling_qwen2.py:200:0
  %hidden_states.1043 : Float(2, 16, 4096, strides=[65536, 4096, 1], requires_grad=0, device=cpu) = aten::mul(%hidden_states.1041, %5283), scope: __module.model/__module.model.layers.34/__module.model.layers.34.post_attention_layernorm # /home/phil2/Super-Intel-NPU/current/Super-Intel-NPU/venv_offering/lib/python3.12/site-packages/transformers/models/qwen2/modeling_qwen2.py:200:0
  %hidden_states.1045 : Float(2, 16, 4096, strides=[65536, 4096, 1], requires_grad=0, device=cpu) = aten::to(%hidden_states.1043, %33, %46, %46, %41), scope: __module.model/__module.model.layers.34/__module.model.layers.34.post_attention_layernorm # /home/phil2/Super-Intel-NPU/current/Super-Intel-NPU/venv_offering/lib/python3.12/site-packages/transformers/models/qwen2/modeling_qwen2.py:201:0
  %input.275 : Float(2, 16, 4096, strides=[65536, 4096, 1], requires_grad=0, device=cpu) = aten::mul(%weight.627, %hidden_states.1045), scope: __module.model/__module.model.layers.34/__module.model.layers.34.post_attention_layernorm # /home/phil2/Super-Intel-NPU/current/Super-Intel-NPU/venv_offering/lib/python3.12/site-packages/transformers/models/qwen2/modeling_qwen2.py:201:0
  %5287 : (Float(2, 16, 4096, strides=[65536, 4096, 1], requires_grad=0, device=cpu), Float(2, 16, 4096, strides=[65536, 4096, 1], requires_grad=0, device=cpu)) = prim::TupleConstruct(%input.275, %hidden_states.1041)
  %5288 : Float(2, 16, 4096, strides=[65536, 4096, 1], requires_grad=0, device=cpu), %5289 : Float(2, 16, 4096, strides=[65536, 4096, 1], requires_grad=0, device=cpu) = prim::TupleUnpack(%5287)
  %down_proj.69 : __torch__.torch.nn.modules.linear.___torch_mangle_443.Linear = prim::GetAttr[name="down_proj"](%mlp.69)
  %up_proj.69 : __torch__.torch.nn.modules.linear.___torch_mangle_442.Linear = prim::GetAttr[name="up_proj"](%mlp.69)
  %gate_proj.69 : __torch__.torch.nn.modules.linear.___torch_mangle_441.Linear = prim::GetAttr[name="gate_proj"](%mlp.69)
  %weight.629 : Tensor = prim::GetAttr[name="weight"](%gate_proj.69)
  %input.277 : Float(2, 16, 12288, strides=[196608, 12288, 1], requires_grad=0, device=cpu) = aten::linear(%5288, %weight.629, %41), scope: __module.model/__module.model.layers.34/__module.model.layers.34.mlp/__module.model.layers.34.mlp.gate_proj # /home/phil2/Super-Intel-NPU/current/Super-Intel-NPU/venv_offering/lib/python3.12/site-packages/torch/nn/modules/linear.py:134:0
  %5295 : Float(2, 16, 12288, strides=[196608, 12288, 1], requires_grad=0, device=cpu) = aten::silu(%input.277), scope: __module.model/__module.model.layers.34/__module.model.layers.34.mlp/__module.model.layers.34.mlp.act_fn # /home/phil2/Super-Intel-NPU/current/Super-Intel-NPU/venv_offering/lib/python3.12/site-packages/torch/nn/functional.py:2371:0
  %weight.631 : Tensor = prim::GetAttr[name="weight"](%up_proj.69)
  %5297 : Float(2, 16, 12288, strides=[196608, 12288, 1], requires_grad=0, device=cpu) = aten::linear(%5288, %weight.631, %41), scope: __module.model/__module.model.layers.34/__module.model.layers.34.mlp/__module.model.layers.34.mlp.up_proj # /home/phil2/Super-Intel-NPU/current/Super-Intel-NPU/venv_offering/lib/python3.12/site-packages/torch/nn/modules/linear.py:134:0
  %input.279 : Float(2, 16, 12288, strides=[196608, 12288, 1], requires_grad=0, device=cpu) = aten::mul(%5295, %5297), scope: __module.model/__module.model.layers.34/__module.model.layers.34.mlp # /home/phil2/Super-Intel-NPU/current/Super-Intel-NPU/venv_offering/lib/python3.12/site-packages/transformers/models/qwen2/modeling_qwen2.py:46:0
  %weight.633 : Tensor = prim::GetAttr[name="weight"](%down_proj.69)
  %hidden_states.1047 : Float(2, 16, 4096, strides=[65536, 4096, 1], requires_grad=0, device=cpu) = aten::linear(%input.279, %weight.633, %41), scope: __module.model/__module.model.layers.34/__module.model.layers.34.mlp/__module.model.layers.34.mlp.down_proj # /home/phil2/Super-Intel-NPU/current/Super-Intel-NPU/venv_offering/lib/python3.12/site-packages/torch/nn/modules/linear.py:134:0
  %hidden_states.1049 : Float(2, 16, 4096, strides=[65536, 4096, 1], requires_grad=0, device=cpu) = aten::add(%5289, %hidden_states.1047, %44), scope: __module.model/__module.model.layers.34 # /home/phil2/Super-Intel-NPU/current/Super-Intel-NPU/venv_offering/lib/python3.12/site-packages/transformers/models/qwen2/modeling_qwen2.py:250:0
  %mlp : __torch__.transformers.models.qwen2.modeling_qwen2.___torch_mangle_458.Qwen2MLP = prim::GetAttr[name="mlp"](%_35)
  %post_attention_layernorm : __torch__.transformers.models.qwen2.modeling_qwen2.___torch_mangle_460.Qwen2RMSNorm = prim::GetAttr[name="post_attention_layernorm"](%_35)
  %self_attn : __torch__.transformers.models.qwen2.modeling_qwen2.___torch_mangle_453.Qwen2Attention = prim::GetAttr[name="self_attn"](%_35)
  %input_layernorm : __torch__.transformers.models.qwen2.modeling_qwen2.___torch_mangle_459.Qwen2RMSNorm = prim::GetAttr[name="input_layernorm"](%_35)
  %weight.635 : Tensor = prim::GetAttr[name="weight"](%input_layernorm)
  %hidden_states.1051 : Float(2, 16, 4096, strides=[65536, 4096, 1], requires_grad=0, device=cpu) = aten::to(%hidden_states.1049, %33, %46, %46, %41), scope: __module.model/__module.model.layers.35/__module.model.layers.35.input_layernorm # /home/phil2/Super-Intel-NPU/current/Super-Intel-NPU/venv_offering/lib/python3.12/site-packages/transformers/models/qwen2/modeling_qwen2.py:198:0
  %5308 : Float(2, 16, 4096, strides=[65536, 4096, 1], requires_grad=0, device=cpu) = aten::pow(%hidden_states.1051, %38), scope: __module.model/__module.model.layers.35/__module.model.layers.35.input_layernorm # /home/phil2/Super-Intel-NPU/current/Super-Intel-NPU/venv_offering/lib/python3.12/site-packages/transformers/models/qwen2/modeling_qwen2.py:199:0
  %5309 : int[] = prim::ListConstruct(%45), scope: __module.model/__module.model.layers.35/__module.model.layers.35.input_layernorm
  %variance.141 : Float(2, 16, 1, strides=[16, 1, 1], requires_grad=0, device=cpu) = aten::mean(%5308, %5309, %25, %41), scope: __module.model/__module.model.layers.35/__module.model.layers.35.input_layernorm # /home/phil2/Super-Intel-NPU/current/Super-Intel-NPU/venv_offering/lib/python3.12/site-packages/transformers/models/qwen2/modeling_qwen2.py:199:0
  %5311 : Float(2, 16, 1, strides=[16, 1, 1], requires_grad=0, device=cpu) = aten::add(%variance.141, %24, %44), scope: __module.model/__module.model.layers.35/__module.model.layers.35.input_layernorm # /home/phil2/Super-Intel-NPU/current/Super-Intel-NPU/venv_offering/lib/python3.12/site-packages/transformers/models/qwen2/modeling_qwen2.py:200:0
  %5312 : Float(2, 16, 1, strides=[16, 1, 1], requires_grad=0, device=cpu) = aten::rsqrt(%5311), scope: __module.model/__module.model.layers.35/__module.model.layers.35.input_layernorm # /home/phil2/Super-Intel-NPU/current/Super-Intel-NPU/venv_offering/lib/python3.12/site-packages/transformers/models/qwen2/modeling_qwen2.py:200:0
  %hidden_states.1053 : Float(2, 16, 4096, strides=[65536, 4096, 1], requires_grad=0, device=cpu) = aten::mul(%hidden_states.1051, %5312), scope: __module.model/__module.model.layers.35/__module.model.layers.35.input_layernorm # /home/phil2/Super-Intel-NPU/current/Super-Intel-NPU/venv_offering/lib/python3.12/site-packages/transformers/models/qwen2/modeling_qwen2.py:200:0
  %hidden_states.1055 : Float(2, 16, 4096, strides=[65536, 4096, 1], requires_grad=0, device=cpu) = aten::to(%hidden_states.1053, %33, %46, %46, %41), scope: __module.model/__module.model.layers.35/__module.model.layers.35.input_layernorm # /home/phil2/Super-Intel-NPU/current/Super-Intel-NPU/venv_offering/lib/python3.12/site-packages/transformers/models/qwen2/modeling_qwen2.py:201:0
  %hidden_states.1057 : Float(2, 16, 4096, strides=[65536, 4096, 1], requires_grad=0, device=cpu) = aten::mul(%weight.635, %hidden_states.1055), scope: __module.model/__module.model.layers.35/__module.model.layers.35.input_layernorm # /home/phil2/Super-Intel-NPU/current/Super-Intel-NPU/venv_offering/lib/python3.12/site-packages/transformers/models/qwen2/modeling_qwen2.py:201:0
  %5316 : (Float(2, 16, 4096, strides=[65536, 4096, 1], requires_grad=0, device=cpu), Float(2, 16, 4096, strides=[65536, 4096, 1], requires_grad=0, device=cpu)) = prim::TupleConstruct(%hidden_states.1057, %hidden_states.1051)
  %5317 : Float(2, 16, 4096, strides=[65536, 4096, 1], requires_grad=0, device=cpu), %5318 : Float(2, 16, 4096, strides=[65536, 4096, 1], requires_grad=0, device=cpu) = prim::TupleUnpack(%5316)
  %o_proj : __torch__.torch.nn.modules.linear.___torch_mangle_452.Linear = prim::GetAttr[name="o_proj"](%self_attn)
  %v_proj : __torch__.torch.nn.modules.linear.___torch_mangle_451.Linear = prim::GetAttr[name="v_proj"](%self_attn)
  %k_proj : __torch__.torch.nn.modules.linear.___torch_mangle_450.Linear = prim::GetAttr[name="k_proj"](%self_attn)
  %q_proj : __torch__.torch.nn.modules.linear.___torch_mangle_449.Linear = prim::GetAttr[name="q_proj"](%self_attn)
  %5323 : int = aten::size(%5317, %42), scope: __module.model/__module.model.layers.35/__module.model.layers.35.self_attn # /home/phil2/Super-Intel-NPU/current/Super-Intel-NPU/venv_offering/lib/python3.12/site-packages/transformers/models/qwen2/modeling_qwen2.py:150:0
  %5324 : int = aten::size(%5317, %44), scope: __module.model/__module.model.layers.35/__module.model.layers.35.self_attn # /home/phil2/Super-Intel-NPU/current/Super-Intel-NPU/venv_offering/lib/python3.12/site-packages/transformers/models/qwen2/modeling_qwen2.py:150:0
  %bias.211 : Tensor = prim::GetAttr[name="bias"](%q_proj)
  %weight.637 : Tensor = prim::GetAttr[name="weight"](%q_proj)
  %5327 : Float(2, 16, 4096, strides=[65536, 4096, 1], requires_grad=0, device=cpu) = aten::linear(%5317, %weight.637, %bias.211), scope: __module.model/__module.model.layers.35/__module.model.layers.35.self_attn/__module.model.layers.35.self_attn.q_proj # /home/phil2/Super-Intel-NPU/current/Super-Intel-NPU/venv_offering/lib/python3.12/site-packages/torch/nn/modules/linear.py:134:0
  %5328 : int[] = prim::ListConstruct(%5323, %5324, %45, %30), scope: __module.model/__module.model.layers.35/__module.model.layers.35.self_attn
  %5329 : Float(2, 16, 32, 128, strides=[65536, 4096, 128, 1], requires_grad=0, device=cpu) = aten::view(%5327, %5328), scope: __module.model/__module.model.layers.35/__module.model.layers.35.self_attn # /home/phil2/Super-Intel-NPU/current/Super-Intel-NPU/venv_offering/lib/python3.12/site-packages/transformers/models/qwen2/modeling_qwen2.py:153:0
  %q : Float(2, 32, 16, 128, strides=[65536, 128, 4096, 1], requires_grad=0, device=cpu) = aten::transpose(%5329, %44, %38), scope: __module.model/__module.model.layers.35/__module.model.layers.35.self_attn # /home/phil2/Super-Intel-NPU/current/Super-Intel-NPU/venv_offering/lib/python3.12/site-packages/transformers/models/qwen2/modeling_qwen2.py:153:0
  %bias.213 : Tensor = prim::GetAttr[name="bias"](%k_proj)
  %weight.639 : Tensor = prim::GetAttr[name="weight"](%k_proj)
  %5333 : Float(2, 16, 1024, strides=[16384, 1024, 1], requires_grad=0, device=cpu) = aten::linear(%5317, %weight.639, %bias.213), scope: __module.model/__module.model.layers.35/__module.model.layers.35.self_attn/__module.model.layers.35.self_attn.k_proj # /home/phil2/Super-Intel-NPU/current/Super-Intel-NPU/venv_offering/lib/python3.12/site-packages/torch/nn/modules/linear.py:134:0
  %5334 : int[] = prim::ListConstruct(%5323, %5324, %45, %30), scope: __module.model/__module.model.layers.35/__module.model.layers.35.self_attn
  %5335 : Float(2, 16, 8, 128, strides=[16384, 1024, 128, 1], requires_grad=0, device=cpu) = aten::view(%5333, %5334), scope: __module.model/__module.model.layers.35/__module.model.layers.35.self_attn # /home/phil2/Super-Intel-NPU/current/Super-Intel-NPU/venv_offering/lib/python3.12/site-packages/transformers/models/qwen2/modeling_qwen2.py:154:0
  %k : Float(2, 8, 16, 128, strides=[16384, 128, 1024, 1], requires_grad=0, device=cpu) = aten::transpose(%5335, %44, %38), scope: __module.model/__module.model.layers.35/__module.model.layers.35.self_attn # /home/phil2/Super-Intel-NPU/current/Super-Intel-NPU/venv_offering/lib/python3.12/site-packages/transformers/models/qwen2/modeling_qwen2.py:154:0
  %bias : Tensor = prim::GetAttr[name="bias"](%v_proj)
  %weight.641 : Tensor = prim::GetAttr[name="weight"](%v_proj)
  %5339 : Float(2, 16, 1024, strides=[16384, 1024, 1], requires_grad=0, device=cpu) = aten::linear(%5317, %weight.641, %bias), scope: __module.model/__module.model.layers.35/__module.model.layers.35.self_attn/__module.model.layers.35.self_attn.v_proj # /home/phil2/Super-Intel-NPU/current/Super-Intel-NPU/venv_offering/lib/python3.12/site-packages/torch/nn/modules/linear.py:134:0
  %5340 : int[] = prim::ListConstruct(%5323, %5324, %45, %30), scope: __module.model/__module.model.layers.35/__module.model.layers.35.self_attn
  %5341 : Float(2, 16, 8, 128, strides=[16384, 1024, 128, 1], requires_grad=0, device=cpu) = aten::view(%5339, %5340), scope: __module.model/__module.model.layers.35/__module.model.layers.35.self_attn # /home/phil2/Super-Intel-NPU/current/Super-Intel-NPU/venv_offering/lib/python3.12/site-packages/transformers/models/qwen2/modeling_qwen2.py:155:0
  %hidden_states.1063 : Float(2, 8, 16, 128, strides=[16384, 128, 1024, 1], requires_grad=0, device=cpu) = aten::transpose(%5341, %44, %38), scope: __module.model/__module.model.layers.35/__module.model.layers.35.self_attn # /home/phil2/Super-Intel-NPU/current/Super-Intel-NPU/venv_offering/lib/python3.12/site-packages/transformers/models/qwen2/modeling_qwen2.py:155:0
  %cos : Float(2, 1, 16, 128, strides=[2048, 2048, 128, 1], requires_grad=0, device=cpu) = aten::unsqueeze(%190, %44), scope: __module.model/__module.model.layers.35/__module.model.layers.35.self_attn # /home/phil2/Super-Intel-NPU/current/Super-Intel-NPU/venv_offering/lib/python3.12/site-packages/transformers/models/qwen2/modeling_qwen2.py:77:0
  %sin : Float(2, 1, 16, 128, strides=[2048, 2048, 128, 1], requires_grad=0, device=cpu) = aten::unsqueeze(%191, %44), scope: __module.model/__module.model.layers.35/__module.model.layers.35.self_attn # /home/phil2/Super-Intel-NPU/current/Super-Intel-NPU/venv_offering/lib/python3.12/site-packages/transformers/models/qwen2/modeling_qwen2.py:78:0
  %5345 : Float(2, 32, 16, 128, strides=[65536, 128, 4096, 1], requires_grad=0, device=cpu) = aten::mul(%q, %cos), scope: __module.model/__module.model.layers.35/__module.model.layers.35.self_attn # /home/phil2/Super-Intel-NPU/current/Super-Intel-NPU/venv_offering/lib/python3.12/site-packages/transformers/models/qwen2/modeling_qwen2.py:79:0
  %5346 : int = aten::size(%q, %36), scope: __module.model/__module.model.layers.35/__module.model.layers.35.self_attn # /home/phil2/Super-Intel-NPU/current/Super-Intel-NPU/venv_offering/lib/python3.12/site-packages/transformers/models/qwen2/modeling_qwen2.py:52:0
  %5347 : Long(device=cpu) = prim::NumToTensor(%5346), scope: __module.model/__module.model.layers.35/__module.model.layers.35.self_attn
  %5348 : Long(requires_grad=0, device=cpu) = aten::floor_divide(%5347, %29), scope: __module.model/__module.model.layers.35/__module.model.layers.35.self_attn # /home/phil2/Super-Intel-NPU/current/Super-Intel-NPU/venv_offering/lib/python3.12/site-packages/torch/_tensor.py:1119:0
  %5349 : int = aten::Int(%5348), scope: __module.model/__module.model.layers.35/__module.model.layers.35.self_attn
  %x1.141 : Float(2, 32, 16, 64, strides=[65536, 128, 4096, 1], requires_grad=0, device=cpu) = aten::slice(%q, %36, %42, %5349, %44), scope: __module.model/__module.model.layers.35/__module.model.layers.35.self_attn # /home/phil2/Super-Intel-NPU/current/Super-Intel-NPU/venv_offering/lib/python3.12/site-packages/transformers/models/qwen2/modeling_qwen2.py:52:0
  %5351 : int = aten::size(%q, %36), scope: __module.model/__module.model.layers.35/__module.model.layers.35.self_attn # /home/phil2/Super-Intel-NPU/current/Super-Intel-NPU/venv_offering/lib/python3.12/site-packages/transformers/models/qwen2/modeling_qwen2.py:53:0
  %5352 : Long(device=cpu) = prim::NumToTensor(%5351), scope: __module.model/__module.model.layers.35/__module.model.layers.35.self_attn
  %5353 : Long(requires_grad=0, device=cpu) = aten::floor_divide(%5352, %29), scope: __module.model/__module.model.layers.35/__module.model.layers.35.self_attn # /home/phil2/Super-Intel-NPU/current/Super-Intel-NPU/venv_offering/lib/python3.12/site-packages/torch/_tensor.py:1119:0
  %5354 : int = aten::Int(%5353), scope: __module.model/__module.model.layers.35/__module.model.layers.35.self_attn
  %x2.141 : Float(2, 32, 16, 64, strides=[65536, 128, 4096, 1], requires_grad=0, device=cpu) = aten::slice(%q, %36, %5354, %37, %44), scope: __module.model/__module.model.layers.35/__module.model.layers.35.self_attn # /home/phil2/Super-Intel-NPU/current/Super-Intel-NPU/venv_offering/lib/python3.12/site-packages/transformers/models/qwen2/modeling_qwen2.py:53:0
  %5356 : Float(2, 32, 16, 64, strides=[32768, 64, 2048, 1], requires_grad=0, device=cpu) = aten::neg(%x2.141), scope: __module.model/__module.model.layers.35/__module.model.layers.35.self_attn # /home/phil2/Super-Intel-NPU/current/Super-Intel-NPU/venv_offering/lib/python3.12/site-packages/transformers/models/qwen2/modeling_qwen2.py:54:0
  %5357 : Tensor[] = prim::ListConstruct(%5356, %x1.141), scope: __module.model/__module.model.layers.35/__module.model.layers.35.self_attn
  %5358 : Float(2, 32, 16, 128, strides=[65536, 2048, 128, 1], requires_grad=0, device=cpu) = aten::cat(%5357, %45), scope: __module.model/__module.model.layers.35/__module.model.layers.35.self_attn # /home/phil2/Super-Intel-NPU/current/Super-Intel-NPU/venv_offering/lib/python3.12/site-packages/transformers/models/qwen2/modeling_qwen2.py:54:0
  %5359 : Float(2, 32, 16, 128, strides=[65536, 2048, 128, 1], requires_grad=0, device=cpu) = aten::mul(%5358, %sin), scope: __module.model/__module.model.layers.35/__module.model.layers.35.self_attn # /home/phil2/Super-Intel-NPU/current/Super-Intel-NPU/venv_offering/lib/python3.12/site-packages/transformers/models/qwen2/modeling_qwen2.py:79:0
  %query : Float(2, 32, 16, 128, strides=[65536, 128, 4096, 1], requires_grad=0, device=cpu) = aten::add(%5345, %5359, %44), scope: __module.model/__module.model.layers.35/__module.model.layers.35.self_attn # /home/phil2/Super-Intel-NPU/current/Super-Intel-NPU/venv_offering/lib/python3.12/site-packages/transformers/models/qwen2/modeling_qwen2.py:79:0
  %5361 : Float(2, 8, 16, 128, strides=[16384, 128, 1024, 1], requires_grad=0, device=cpu) = aten::mul(%k, %cos), scope: __module.model/__module.model.layers.35/__module.model.layers.35.self_attn # /home/phil2/Super-Intel-NPU/current/Super-Intel-NPU/venv_offering/lib/python3.12/site-packages/transformers/models/qwen2/modeling_qwen2.py:80:0
  %5362 : int = aten::size(%k, %36), scope: __module.model/__module.model.layers.35/__module.model.layers.35.self_attn # /home/phil2/Super-Intel-NPU/current/Super-Intel-NPU/venv_offering/lib/python3.12/site-packages/transformers/models/qwen2/modeling_qwen2.py:52:0
  %5363 : Long(device=cpu) = prim::NumToTensor(%5362), scope: __module.model/__module.model.layers.35/__module.model.layers.35.self_attn
  %5364 : Long(requires_grad=0, device=cpu) = aten::floor_divide(%5363, %29), scope: __module.model/__module.model.layers.35/__module.model.layers.35.self_attn # /home/phil2/Super-Intel-NPU/current/Super-Intel-NPU/venv_offering/lib/python3.12/site-packages/torch/_tensor.py:1119:0
  %5365 : int = aten::Int(%5364), scope: __module.model/__module.model.layers.35/__module.model.layers.35.self_attn
  %x1 : Float(2, 8, 16, 64, strides=[16384, 128, 1024, 1], requires_grad=0, device=cpu) = aten::slice(%k, %36, %42, %5365, %44), scope: __module.model/__module.model.layers.35/__module.model.layers.35.self_attn # /home/phil2/Super-Intel-NPU/current/Super-Intel-NPU/venv_offering/lib/python3.12/site-packages/transformers/models/qwen2/modeling_qwen2.py:52:0
  %5367 : int = aten::size(%k, %36), scope: __module.model/__module.model.layers.35/__module.model.layers.35.self_attn # /home/phil2/Super-Intel-NPU/current/Super-Intel-NPU/venv_offering/lib/python3.12/site-packages/transformers/models/qwen2/modeling_qwen2.py:53:0
  %5368 : Long(device=cpu) = prim::NumToTensor(%5367), scope: __module.model/__module.model.layers.35/__module.model.layers.35.self_attn
  %5369 : Long(requires_grad=0, device=cpu) = aten::floor_divide(%5368, %29), scope: __module.model/__module.model.layers.35/__module.model.layers.35.self_attn # /home/phil2/Super-Intel-NPU/current/Super-Intel-NPU/venv_offering/lib/python3.12/site-packages/torch/_tensor.py:1119:0
  %5370 : int = aten::Int(%5369), scope: __module.model/__module.model.layers.35/__module.model.layers.35.self_attn
  %x2 : Float(2, 8, 16, 64, strides=[16384, 128, 1024, 1], requires_grad=0, device=cpu) = aten::slice(%k, %36, %5370, %37, %44), scope: __module.model/__module.model.layers.35/__module.model.layers.35.self_attn # /home/phil2/Super-Intel-NPU/current/Super-Intel-NPU/venv_offering/lib/python3.12/site-packages/transformers/models/qwen2/modeling_qwen2.py:53:0
  %5372 : Float(2, 8, 16, 64, strides=[8192, 64, 512, 1], requires_grad=0, device=cpu) = aten::neg(%x2), scope: __module.model/__module.model.layers.35/__module.model.layers.35.self_attn # /home/phil2/Super-Intel-NPU/current/Super-Intel-NPU/venv_offering/lib/python3.12/site-packages/transformers/models/qwen2/modeling_qwen2.py:54:0
  %5373 : Tensor[] = prim::ListConstruct(%5372, %x1), scope: __module.model/__module.model.layers.35/__module.model.layers.35.self_attn
  %5374 : Float(2, 8, 16, 128, strides=[16384, 2048, 128, 1], requires_grad=0, device=cpu) = aten::cat(%5373, %45), scope: __module.model/__module.model.layers.35/__module.model.layers.35.self_attn # /home/phil2/Super-Intel-NPU/current/Super-Intel-NPU/venv_offering/lib/python3.12/site-packages/transformers/models/qwen2/modeling_qwen2.py:54:0
  %5375 : Float(2, 8, 16, 128, strides=[16384, 2048, 128, 1], requires_grad=0, device=cpu) = aten::mul(%5374, %sin), scope: __module.model/__module.model.layers.35/__module.model.layers.35.self_attn # /home/phil2/Super-Intel-NPU/current/Super-Intel-NPU/venv_offering/lib/python3.12/site-packages/transformers/models/qwen2/modeling_qwen2.py:80:0
  %hidden_states.1059 : Float(2, 8, 16, 128, strides=[16384, 128, 1024, 1], requires_grad=0, device=cpu) = aten::add(%5361, %5375, %44), scope: __module.model/__module.model.layers.35/__module.model.layers.35.self_attn # /home/phil2/Super-Intel-NPU/current/Super-Intel-NPU/venv_offering/lib/python3.12/site-packages/transformers/models/qwen2/modeling_qwen2.py:80:0
  %5377 : int = aten::size(%hidden_states.1059, %42), scope: __module.model/__module.model.layers.35/__module.model.layers.35.self_attn # /home/phil2/Super-Intel-NPU/current/Super-Intel-NPU/venv_offering/lib/python3.12/site-packages/transformers/integrations/sdpa_attention.py:23:0
  %5378 : int = aten::size(%hidden_states.1059, %44), scope: __module.model/__module.model.layers.35/__module.model.layers.35.self_attn # /home/phil2/Super-Intel-NPU/current/Super-Intel-NPU/venv_offering/lib/python3.12/site-packages/transformers/integrations/sdpa_attention.py:23:0
  %num_key_value_heads.141 : Long(device=cpu) = prim::NumToTensor(%5378), scope: __module.model/__module.model.layers.35/__module.model.layers.35.self_attn
  %5380 : int = aten::size(%hidden_states.1059, %38), scope: __module.model/__module.model.layers.35/__module.model.layers.35.self_attn # /home/phil2/Super-Intel-NPU/current/Super-Intel-NPU/venv_offering/lib/python3.12/site-packages/transformers/integrations/sdpa_attention.py:23:0
  %5381 : int = aten::size(%hidden_states.1059, %36), scope: __module.model/__module.model.layers.35/__module.model.layers.35.self_attn # /home/phil2/Super-Intel-NPU/current/Super-Intel-NPU/venv_offering/lib/python3.12/site-packages/transformers/integrations/sdpa_attention.py:23:0
  %5382 : Float(2, 8, 16, 128, strides=[16384, 128, 1024, 1], requires_grad=0, device=cpu) = aten::slice(%hidden_states.1059, %42, %42, %37, %44), scope: __module.model/__module.model.layers.35/__module.model.layers.35.self_attn # /home/phil2/Super-Intel-NPU/current/Super-Intel-NPU/venv_offering/lib/python3.12/site-packages/transformers/integrations/sdpa_attention.py:26:0
  %5383 : Float(2, 8, 16, 128, strides=[16384, 128, 1024, 1], requires_grad=0, device=cpu) = aten::slice(%5382, %44, %42, %37, %44), scope: __module.model/__module.model.layers.35/__module.model.layers.35.self_attn # /home/phil2/Super-Intel-NPU/current/Super-Intel-NPU/venv_offering/lib/python3.12/site-packages/transformers/integrations/sdpa_attention.py:26:0
  %5384 : Float(2, 8, 1, 16, 128, strides=[16384, 128, 16384, 1024, 1], requires_grad=0, device=cpu) = aten::unsqueeze(%5383, %38), scope: __module.model/__module.model.layers.35/__module.model.layers.35.self_attn # /home/phil2/Super-Intel-NPU/current/Super-Intel-NPU/venv_offering/lib/python3.12/site-packages/transformers/integrations/sdpa_attention.py:26:0
  %5385 : Float(2, 8, 1, 16, 128, strides=[16384, 128, 16384, 1024, 1], requires_grad=0, device=cpu) = aten::slice(%5384, %36, %42, %37, %44), scope: __module.model/__module.model.layers.35/__module.model.layers.35.self_attn # /home/phil2/Super-Intel-NPU/current/Super-Intel-NPU/venv_offering/lib/python3.12/site-packages/transformers/integrations/sdpa_attention.py:26:0
  %5386 : Float(2, 8, 1, 16, 128, strides=[16384, 128, 16384, 1024, 1], requires_grad=0, device=cpu) = aten::slice(%5385, %35, %42, %37, %44), scope: __module.model/__module.model.layers.35/__module.model.layers.35.self_attn # /home/phil2/Super-Intel-NPU/current/Super-Intel-NPU/venv_offering/lib/python3.12/site-packages/transformers/integrations/sdpa_attention.py:26:0
  %5387 : int[] = prim::ListConstruct(%5377, %5378, %35, %5380, %5381), scope: __module.model/__module.model.layers.35/__module.model.layers.35.self_attn
  %hidden_states.1061 : Float(2, 8, 4, 16, 128, strides=[16384, 128, 0, 1024, 1], requires_grad=0, device=cpu) = aten::expand(%5386, %5387, %46), scope: __module.model/__module.model.layers.35/__module.model.layers.35.self_attn # /home/phil2/Super-Intel-NPU/current/Super-Intel-NPU/venv_offering/lib/python3.12/site-packages/transformers/integrations/sdpa_attention.py:26:0
  %5389 : Long(requires_grad=0, device=cpu) = aten::mul(%num_key_value_heads.141, %28), scope: __module.model/__module.model.layers.35/__module.model.layers.35.self_attn # /home/phil2/Super-Intel-NPU/current/Super-Intel-NPU/venv_offering/lib/python3.12/site-packages/transformers/integrations/sdpa_attention.py:27:0
  %5390 : int = aten::Int(%5389), scope: __module.model/__module.model.layers.35/__module.model.layers.35.self_attn
  %5391 : int[] = prim::ListConstruct(%5377, %5390, %5380, %5381), scope: __module.model/__module.model.layers.35/__module.model.layers.35.self_attn
  %key : Float(2, 32, 16, 128, strides=[65536, 2048, 128, 1], requires_grad=0, device=cpu) = aten::reshape(%hidden_states.1061, %5391), scope: __module.model/__module.model.layers.35/__module.model.layers.35.self_attn # /home/phil2/Super-Intel-NPU/current/Super-Intel-NPU/venv_offering/lib/python3.12/site-packages/transformers/integrations/sdpa_attention.py:27:0
  %5393 : int = aten::size(%hidden_states.1063, %42), scope: __module.model/__module.model.layers.35/__module.model.layers.35.self_attn # /home/phil2/Super-Intel-NPU/current/Super-Intel-NPU/venv_offering/lib/python3.12/site-packages/transformers/integrations/sdpa_attention.py:23:0
  %5394 : int = aten::size(%hidden_states.1063, %44), scope: __module.model/__module.model.layers.35/__module.model.layers.35.self_attn # /home/phil2/Super-Intel-NPU/current/Super-Intel-NPU/venv_offering/lib/python3.12/site-packages/transformers/integrations/sdpa_attention.py:23:0
  %num_key_value_heads : Long(device=cpu) = prim::NumToTensor(%5394), scope: __module.model/__module.model.layers.35/__module.model.layers.35.self_attn
  %5396 : int = aten::size(%hidden_states.1063, %38), scope: __module.model/__module.model.layers.35/__module.model.layers.35.self_attn # /home/phil2/Super-Intel-NPU/current/Super-Intel-NPU/venv_offering/lib/python3.12/site-packages/transformers/integrations/sdpa_attention.py:23:0
  %5397 : int = aten::size(%hidden_states.1063, %36), scope: __module.model/__module.model.layers.35/__module.model.layers.35.self_attn # /home/phil2/Super-Intel-NPU/current/Super-Intel-NPU/venv_offering/lib/python3.12/site-packages/transformers/integrations/sdpa_attention.py:23:0
  %5398 : Float(2, 8, 16, 128, strides=[16384, 128, 1024, 1], requires_grad=0, device=cpu) = aten::slice(%hidden_states.1063, %42, %42, %37, %44), scope: __module.model/__module.model.layers.35/__module.model.layers.35.self_attn # /home/phil2/Super-Intel-NPU/current/Super-Intel-NPU/venv_offering/lib/python3.12/site-packages/transformers/integrations/sdpa_attention.py:26:0
  %5399 : Float(2, 8, 16, 128, strides=[16384, 128, 1024, 1], requires_grad=0, device=cpu) = aten::slice(%5398, %44, %42, %37, %44), scope: __module.model/__module.model.layers.35/__module.model.layers.35.self_attn # /home/phil2/Super-Intel-NPU/current/Super-Intel-NPU/venv_offering/lib/python3.12/site-packages/transformers/integrations/sdpa_attention.py:26:0
  %5400 : Float(2, 8, 1, 16, 128, strides=[16384, 128, 16384, 1024, 1], requires_grad=0, device=cpu) = aten::unsqueeze(%5399, %38), scope: __module.model/__module.model.layers.35/__module.model.layers.35.self_attn # /home/phil2/Super-Intel-NPU/current/Super-Intel-NPU/venv_offering/lib/python3.12/site-packages/transformers/integrations/sdpa_attention.py:26:0
  %5401 : Float(2, 8, 1, 16, 128, strides=[16384, 128, 16384, 1024, 1], requires_grad=0, device=cpu) = aten::slice(%5400, %36, %42, %37, %44), scope: __module.model/__module.model.layers.35/__module.model.layers.35.self_attn # /home/phil2/Super-Intel-NPU/current/Super-Intel-NPU/venv_offering/lib/python3.12/site-packages/transformers/integrations/sdpa_attention.py:26:0
  %5402 : Float(2, 8, 1, 16, 128, strides=[16384, 128, 16384, 1024, 1], requires_grad=0, device=cpu) = aten::slice(%5401, %35, %42, %37, %44), scope: __module.model/__module.model.layers.35/__module.model.layers.35.self_attn # /home/phil2/Super-Intel-NPU/current/Super-Intel-NPU/venv_offering/lib/python3.12/site-packages/transformers/integrations/sdpa_attention.py:26:0
  %5403 : int[] = prim::ListConstruct(%5393, %5394, %35, %5396, %5397), scope: __module.model/__module.model.layers.35/__module.model.layers.35.self_attn
  %hidden_states.1065 : Float(2, 8, 4, 16, 128, strides=[16384, 128, 0, 1024, 1], requires_grad=0, device=cpu) = aten::expand(%5402, %5403, %46), scope: __module.model/__module.model.layers.35/__module.model.layers.35.self_attn # /home/phil2/Super-Intel-NPU/current/Super-Intel-NPU/venv_offering/lib/python3.12/site-packages/transformers/integrations/sdpa_attention.py:26:0
  %5405 : Long(requires_grad=0, device=cpu) = aten::mul(%num_key_value_heads, %28), scope: __module.model/__module.model.layers.35/__module.model.layers.35.self_attn # /home/phil2/Super-Intel-NPU/current/Super-Intel-NPU/venv_offering/lib/python3.12/site-packages/transformers/integrations/sdpa_attention.py:27:0
  %5406 : int = aten::Int(%5405), scope: __module.model/__module.model.layers.35/__module.model.layers.35.self_attn
  %5407 : int[] = prim::ListConstruct(%5393, %5406, %5396, %5397), scope: __module.model/__module.model.layers.35/__module.model.layers.35.self_attn
  %value : Float(2, 32, 16, 128, strides=[65536, 2048, 128, 1], requires_grad=0, device=cpu) = aten::reshape(%hidden_states.1065, %5407), scope: __module.model/__module.model.layers.35/__module.model.layers.35.self_attn # /home/phil2/Super-Intel-NPU/current/Super-Intel-NPU/venv_offering/lib/python3.12/site-packages/transformers/integrations/sdpa_attention.py:27:0
  %5409 : int = aten::size(%key, %38), scope: __module.model/__module.model.layers.35/__module.model.layers.35.self_attn # /home/phil2/Super-Intel-NPU/current/Super-Intel-NPU/venv_offering/lib/python3.12/site-packages/transformers/integrations/sdpa_attention.py:73:0
  %5410 : Float(2, 1, 16, 16, strides=[256, 256, 16, 1], requires_grad=0, device=cpu) = aten::slice(%attention_mask.5, %42, %42, %37, %44), scope: __module.model/__module.model.layers.35/__module.model.layers.35.self_attn # /home/phil2/Super-Intel-NPU/current/Super-Intel-NPU/venv_offering/lib/python3.12/site-packages/transformers/integrations/sdpa_attention.py:73:0
  %5411 : Float(2, 1, 16, 16, strides=[256, 256, 16, 1], requires_grad=0, device=cpu) = aten::slice(%5410, %44, %42, %37, %44), scope: __module.model/__module.model.layers.35/__module.model.layers.35.self_attn # /home/phil2/Super-Intel-NPU/current/Super-Intel-NPU/venv_offering/lib/python3.12/site-packages/transformers/integrations/sdpa_attention.py:73:0
  %5412 : Float(2, 1, 16, 16, strides=[256, 256, 16, 1], requires_grad=0, device=cpu) = aten::slice(%5411, %38, %42, %37, %44), scope: __module.model/__module.model.layers.35/__module.model.layers.35.self_attn # /home/phil2/Super-Intel-NPU/current/Super-Intel-NPU/venv_offering/lib/python3.12/site-packages/transformers/integrations/sdpa_attention.py:73:0
  %attention_mask : Float(2, 1, 16, 16, strides=[256, 256, 16, 1], requires_grad=0, device=cpu) = aten::slice(%5412, %36, %42, %5409, %44), scope: __module.model/__module.model.layers.35/__module.model.layers.35.self_attn # /home/phil2/Super-Intel-NPU/current/Super-Intel-NPU/venv_offering/lib/python3.12/site-packages/transformers/integrations/sdpa_attention.py:73:0
  %attn_output.141 : Float(2, 32, 16, 128, strides=[65536, 128, 4096, 1], requires_grad=0, device=cpu) = aten::scaled_dot_product_attention(%query, %key, %value, %attention_mask, %27, %46, %26, %46), scope: __module.model/__module.model.layers.35/__module.model.layers.35.self_attn # /home/phil2/Super-Intel-NPU/current/Super-Intel-NPU/venv_offering/lib/python3.12/site-packages/transformers/integrations/sdpa_attention.py:96:0
  %5415 : Float(2, 16, 32, 128, strides=[65536, 4096, 128, 1], requires_grad=0, device=cpu) = aten::transpose(%attn_output.141, %44, %38), scope: __module.model/__module.model.layers.35/__module.model.layers.35.self_attn # /home/phil2/Super-Intel-NPU/current/Super-Intel-NPU/venv_offering/lib/python3.12/site-packages/transformers/integrations/sdpa_attention.py:106:0
  %attn_output : Float(2, 16, 32, 128, strides=[65536, 4096, 128, 1], requires_grad=0, device=cpu) = aten::contiguous(%5415, %42), scope: __module.model/__module.model.layers.35/__module.model.layers.35.self_attn # /home/phil2/Super-Intel-NPU/current/Super-Intel-NPU/venv_offering/lib/python3.12/site-packages/transformers/integrations/sdpa_attention.py:106:0
  %5417 : int[] = prim::ListConstruct(%5323, %5324, %45), scope: __module.model/__module.model.layers.35/__module.model.layers.35.self_attn
  %5418 : Float(2, 16, 4096, strides=[65536, 4096, 1], requires_grad=0, device=cpu) = aten::reshape(%attn_output, %5417), scope: __module.model/__module.model.layers.35/__module.model.layers.35.self_attn # /home/phil2/Super-Intel-NPU/current/Super-Intel-NPU/venv_offering/lib/python3.12/site-packages/transformers/models/qwen2/modeling_qwen2.py:181:0
  %input.281 : Float(2, 16, 4096, strides=[65536, 4096, 1], requires_grad=0, device=cpu) = aten::contiguous(%5418, %42), scope: __module.model/__module.model.layers.35/__module.model.layers.35.self_attn # /home/phil2/Super-Intel-NPU/current/Super-Intel-NPU/venv_offering/lib/python3.12/site-packages/transformers/models/qwen2/modeling_qwen2.py:181:0
  %weight.643 : Tensor = prim::GetAttr[name="weight"](%o_proj)
  %hidden_states.1067 : Float(2, 16, 4096, strides=[65536, 4096, 1], requires_grad=0, device=cpu) = aten::linear(%input.281, %weight.643, %41), scope: __module.model/__module.model.layers.35/__module.model.layers.35.self_attn/__module.model.layers.35.self_attn.o_proj # /home/phil2/Super-Intel-NPU/current/Super-Intel-NPU/venv_offering/lib/python3.12/site-packages/torch/nn/modules/linear.py:134:0
  %hidden_states.1069 : Float(2, 16, 4096, strides=[65536, 4096, 1], requires_grad=0, device=cpu) = aten::add(%5318, %hidden_states.1067, %44), scope: __module.model/__module.model.layers.35 # /home/phil2/Super-Intel-NPU/current/Super-Intel-NPU/venv_offering/lib/python3.12/site-packages/transformers/models/qwen2/modeling_qwen2.py:244:0
  %weight.645 : Tensor = prim::GetAttr[name="weight"](%post_attention_layernorm)
  %hidden_states.1071 : Float(2, 16, 4096, strides=[65536, 4096, 1], requires_grad=0, device=cpu) = aten::to(%hidden_states.1069, %33, %46, %46, %41), scope: __module.model/__module.model.layers.35/__module.model.layers.35.post_attention_layernorm # /home/phil2/Super-Intel-NPU/current/Super-Intel-NPU/venv_offering/lib/python3.12/site-packages/transformers/models/qwen2/modeling_qwen2.py:198:0
  %5425 : Float(2, 16, 4096, strides=[65536, 4096, 1], requires_grad=0, device=cpu) = aten::pow(%hidden_states.1071, %38), scope: __module.model/__module.model.layers.35/__module.model.layers.35.post_attention_layernorm # /home/phil2/Super-Intel-NPU/current/Super-Intel-NPU/venv_offering/lib/python3.12/site-packages/transformers/models/qwen2/modeling_qwen2.py:199:0
  %5426 : int[] = prim::ListConstruct(%45), scope: __module.model/__module.model.layers.35/__module.model.layers.35.post_attention_layernorm
  %variance.143 : Float(2, 16, 1, strides=[16, 1, 1], requires_grad=0, device=cpu) = aten::mean(%5425, %5426, %25, %41), scope: __module.model/__module.model.layers.35/__module.model.layers.35.post_attention_layernorm # /home/phil2/Super-Intel-NPU/current/Super-Intel-NPU/venv_offering/lib/python3.12/site-packages/transformers/models/qwen2/modeling_qwen2.py:199:0
  %5428 : Float(2, 16, 1, strides=[16, 1, 1], requires_grad=0, device=cpu) = aten::add(%variance.143, %24, %44), scope: __module.model/__module.model.layers.35/__module.model.layers.35.post_attention_layernorm # /home/phil2/Super-Intel-NPU/current/Super-Intel-NPU/venv_offering/lib/python3.12/site-packages/transformers/models/qwen2/modeling_qwen2.py:200:0
  %5429 : Float(2, 16, 1, strides=[16, 1, 1], requires_grad=0, device=cpu) = aten::rsqrt(%5428), scope: __module.model/__module.model.layers.35/__module.model.layers.35.post_attention_layernorm # /home/phil2/Super-Intel-NPU/current/Super-Intel-NPU/venv_offering/lib/python3.12/site-packages/transformers/models/qwen2/modeling_qwen2.py:200:0
  %hidden_states.1073 : Float(2, 16, 4096, strides=[65536, 4096, 1], requires_grad=0, device=cpu) = aten::mul(%hidden_states.1071, %5429), scope: __module.model/__module.model.layers.35/__module.model.layers.35.post_attention_layernorm # /home/phil2/Super-Intel-NPU/current/Super-Intel-NPU/venv_offering/lib/python3.12/site-packages/transformers/models/qwen2/modeling_qwen2.py:200:0
  %hidden_states.1075 : Float(2, 16, 4096, strides=[65536, 4096, 1], requires_grad=0, device=cpu) = aten::to(%hidden_states.1073, %33, %46, %46, %41), scope: __module.model/__module.model.layers.35/__module.model.layers.35.post_attention_layernorm # /home/phil2/Super-Intel-NPU/current/Super-Intel-NPU/venv_offering/lib/python3.12/site-packages/transformers/models/qwen2/modeling_qwen2.py:201:0
  %input.283 : Float(2, 16, 4096, strides=[65536, 4096, 1], requires_grad=0, device=cpu) = aten::mul(%weight.645, %hidden_states.1075), scope: __module.model/__module.model.layers.35/__module.model.layers.35.post_attention_layernorm # /home/phil2/Super-Intel-NPU/current/Super-Intel-NPU/venv_offering/lib/python3.12/site-packages/transformers/models/qwen2/modeling_qwen2.py:201:0
  %5433 : (Float(2, 16, 4096, strides=[65536, 4096, 1], requires_grad=0, device=cpu), Float(2, 16, 4096, strides=[65536, 4096, 1], requires_grad=0, device=cpu)) = prim::TupleConstruct(%input.283, %hidden_states.1071)
  %5434 : Float(2, 16, 4096, strides=[65536, 4096, 1], requires_grad=0, device=cpu), %5435 : Float(2, 16, 4096, strides=[65536, 4096, 1], requires_grad=0, device=cpu) = prim::TupleUnpack(%5433)
  %down_proj : __torch__.torch.nn.modules.linear.___torch_mangle_456.Linear = prim::GetAttr[name="down_proj"](%mlp)
  %up_proj : __torch__.torch.nn.modules.linear.___torch_mangle_455.Linear = prim::GetAttr[name="up_proj"](%mlp)
  %gate_proj : __torch__.torch.nn.modules.linear.___torch_mangle_454.Linear = prim::GetAttr[name="gate_proj"](%mlp)
  %weight.647 : Tensor = prim::GetAttr[name="weight"](%gate_proj)
  %input.285 : Float(2, 16, 12288, strides=[196608, 12288, 1], requires_grad=0, device=cpu) = aten::linear(%5434, %weight.647, %41), scope: __module.model/__module.model.layers.35/__module.model.layers.35.mlp/__module.model.layers.35.mlp.gate_proj # /home/phil2/Super-Intel-NPU/current/Super-Intel-NPU/venv_offering/lib/python3.12/site-packages/torch/nn/modules/linear.py:134:0
  %5441 : Float(2, 16, 12288, strides=[196608, 12288, 1], requires_grad=0, device=cpu) = aten::silu(%input.285), scope: __module.model/__module.model.layers.35/__module.model.layers.35.mlp/__module.model.layers.35.mlp.act_fn # /home/phil2/Super-Intel-NPU/current/Super-Intel-NPU/venv_offering/lib/python3.12/site-packages/torch/nn/functional.py:2371:0
  %weight.649 : Tensor = prim::GetAttr[name="weight"](%up_proj)
  %5443 : Float(2, 16, 12288, strides=[196608, 12288, 1], requires_grad=0, device=cpu) = aten::linear(%5434, %weight.649, %41), scope: __module.model/__module.model.layers.35/__module.model.layers.35.mlp/__module.model.layers.35.mlp.up_proj # /home/phil2/Super-Intel-NPU/current/Super-Intel-NPU/venv_offering/lib/python3.12/site-packages/torch/nn/modules/linear.py:134:0
  %input.287 : Float(2, 16, 12288, strides=[196608, 12288, 1], requires_grad=0, device=cpu) = aten::mul(%5441, %5443), scope: __module.model/__module.model.layers.35/__module.model.layers.35.mlp # /home/phil2/Super-Intel-NPU/current/Super-Intel-NPU/venv_offering/lib/python3.12/site-packages/transformers/models/qwen2/modeling_qwen2.py:46:0
  %weight.651 : Tensor = prim::GetAttr[name="weight"](%down_proj)
  %hidden_states.1077 : Float(2, 16, 4096, strides=[65536, 4096, 1], requires_grad=0, device=cpu) = aten::linear(%input.287, %weight.651, %41), scope: __module.model/__module.model.layers.35/__module.model.layers.35.mlp/__module.model.layers.35.mlp.down_proj # /home/phil2/Super-Intel-NPU/current/Super-Intel-NPU/venv_offering/lib/python3.12/site-packages/torch/nn/modules/linear.py:134:0
  %hidden_states.1079 : Float(2, 16, 4096, strides=[65536, 4096, 1], requires_grad=0, device=cpu) = aten::add(%5435, %hidden_states.1077, %44), scope: __module.model/__module.model.layers.35 # /home/phil2/Super-Intel-NPU/current/Super-Intel-NPU/venv_offering/lib/python3.12/site-packages/transformers/models/qwen2/modeling_qwen2.py:250:0
  %weight.653 : Tensor = prim::GetAttr[name="weight"](%norm)
  %hidden_states.1081 : Float(2, 16, 4096, strides=[65536, 4096, 1], requires_grad=0, device=cpu) = aten::to(%hidden_states.1079, %33, %46, %46, %41), scope: __module.model/__module.model.norm # /home/phil2/Super-Intel-NPU/current/Super-Intel-NPU/venv_offering/lib/python3.12/site-packages/transformers/models/qwen2/modeling_qwen2.py:198:0
  %5450 : Float(2, 16, 4096, strides=[65536, 4096, 1], requires_grad=0, device=cpu) = aten::pow(%hidden_states.1081, %38), scope: __module.model/__module.model.norm # /home/phil2/Super-Intel-NPU/current/Super-Intel-NPU/venv_offering/lib/python3.12/site-packages/transformers/models/qwen2/modeling_qwen2.py:199:0
  %5451 : int[] = prim::ListConstruct(%45), scope: __module.model/__module.model.norm
  %variance : Float(2, 16, 1, strides=[16, 1, 1], requires_grad=0, device=cpu) = aten::mean(%5450, %5451, %25, %41), scope: __module.model/__module.model.norm # /home/phil2/Super-Intel-NPU/current/Super-Intel-NPU/venv_offering/lib/python3.12/site-packages/transformers/models/qwen2/modeling_qwen2.py:199:0
  %5453 : Float(2, 16, 1, strides=[16, 1, 1], requires_grad=0, device=cpu) = aten::add(%variance, %24, %44), scope: __module.model/__module.model.norm # /home/phil2/Super-Intel-NPU/current/Super-Intel-NPU/venv_offering/lib/python3.12/site-packages/transformers/models/qwen2/modeling_qwen2.py:200:0
  %5454 : Float(2, 16, 1, strides=[16, 1, 1], requires_grad=0, device=cpu) = aten::rsqrt(%5453), scope: __module.model/__module.model.norm # /home/phil2/Super-Intel-NPU/current/Super-Intel-NPU/venv_offering/lib/python3.12/site-packages/transformers/models/qwen2/modeling_qwen2.py:200:0
  %hidden_states.1083 : Float(2, 16, 4096, strides=[65536, 4096, 1], requires_grad=0, device=cpu) = aten::mul(%hidden_states.1081, %5454), scope: __module.model/__module.model.norm # /home/phil2/Super-Intel-NPU/current/Super-Intel-NPU/venv_offering/lib/python3.12/site-packages/transformers/models/qwen2/modeling_qwen2.py:200:0
  %hidden_states.1085 : Float(2, 16, 4096, strides=[65536, 4096, 1], requires_grad=0, device=cpu) = aten::to(%hidden_states.1083, %33, %46, %46, %41), scope: __module.model/__module.model.norm # /home/phil2/Super-Intel-NPU/current/Super-Intel-NPU/venv_offering/lib/python3.12/site-packages/transformers/models/qwen2/modeling_qwen2.py:201:0
  %hidden_states : Float(2, 16, 4096, strides=[65536, 4096, 1], requires_grad=0, device=cpu) = aten::mul(%weight.653, %hidden_states.1085), scope: __module.model/__module.model.norm # /home/phil2/Super-Intel-NPU/current/Super-Intel-NPU/venv_offering/lib/python3.12/site-packages/transformers/models/qwen2/modeling_qwen2.py:201:0
  %7 : int = prim::Constant[value=0]() # /home/phil2/Super-Intel-NPU/current/Super-Intel-NPU/venv_offering/lib/python3.12/site-packages/transformers/models/qwen2/modeling_qwen2.py:463:0
  %8 : int = prim::Constant[value=0]() # /home/phil2/Super-Intel-NPU/current/Super-Intel-NPU/venv_offering/lib/python3.12/site-packages/transformers/models/qwen2/modeling_qwen2.py:463:0
  %9 : int = prim::Constant[value=9223372036854775807]() # /home/phil2/Super-Intel-NPU/current/Super-Intel-NPU/venv_offering/lib/python3.12/site-packages/transformers/models/qwen2/modeling_qwen2.py:463:0
  %10 : int = prim::Constant[value=1]() # /home/phil2/Super-Intel-NPU/current/Super-Intel-NPU/venv_offering/lib/python3.12/site-packages/transformers/models/qwen2/modeling_qwen2.py:463:0
  %11 : Float(2, 16, 4096, strides=[65536, 4096, 1], requires_grad=0, device=cpu) = aten::slice(%hidden_states, %7, %8, %9, %10) # /home/phil2/Super-Intel-NPU/current/Super-Intel-NPU/venv_offering/lib/python3.12/site-packages/transformers/models/qwen2/modeling_qwen2.py:463:0
  %12 : int = prim::Constant[value=1]() # /home/phil2/Super-Intel-NPU/current/Super-Intel-NPU/venv_offering/lib/python3.12/site-packages/transformers/models/qwen2/modeling_qwen2.py:463:0
  %13 : int = prim::Constant[value=0]() # /home/phil2/Super-Intel-NPU/current/Super-Intel-NPU/venv_offering/lib/python3.12/site-packages/transformers/models/qwen2/modeling_qwen2.py:463:0
  %14 : int = prim::Constant[value=9223372036854775807]() # /home/phil2/Super-Intel-NPU/current/Super-Intel-NPU/venv_offering/lib/python3.12/site-packages/transformers/models/qwen2/modeling_qwen2.py:463:0
  %15 : int = prim::Constant[value=1]() # /home/phil2/Super-Intel-NPU/current/Super-Intel-NPU/venv_offering/lib/python3.12/site-packages/transformers/models/qwen2/modeling_qwen2.py:463:0
  %16 : Float(2, 16, 4096, strides=[65536, 4096, 1], requires_grad=0, device=cpu) = aten::slice(%11, %12, %13, %14, %15) # /home/phil2/Super-Intel-NPU/current/Super-Intel-NPU/venv_offering/lib/python3.12/site-packages/transformers/models/qwen2/modeling_qwen2.py:463:0
  %17 : int = prim::Constant[value=2]() # /home/phil2/Super-Intel-NPU/current/Super-Intel-NPU/venv_offering/lib/python3.12/site-packages/transformers/models/qwen2/modeling_qwen2.py:463:0
  %18 : int = prim::Constant[value=0]() # /home/phil2/Super-Intel-NPU/current/Super-Intel-NPU/venv_offering/lib/python3.12/site-packages/transformers/models/qwen2/modeling_qwen2.py:463:0
  %19 : int = prim::Constant[value=9223372036854775807]() # /home/phil2/Super-Intel-NPU/current/Super-Intel-NPU/venv_offering/lib/python3.12/site-packages/transformers/models/qwen2/modeling_qwen2.py:463:0
  %20 : int = prim::Constant[value=1]() # /home/phil2/Super-Intel-NPU/current/Super-Intel-NPU/venv_offering/lib/python3.12/site-packages/transformers/models/qwen2/modeling_qwen2.py:463:0
  %input : Float(2, 16, 4096, strides=[65536, 4096, 1], requires_grad=0, device=cpu) = aten::slice(%16, %17, %18, %19, %20) # /home/phil2/Super-Intel-NPU/current/Super-Intel-NPU/venv_offering/lib/python3.12/site-packages/transformers/models/qwen2/modeling_qwen2.py:463:0
  %5458 : NoneType = prim::Constant(), scope: __module.lm_head
  %weight : Tensor = prim::GetAttr[name="weight"](%lm_head)
  %5460 : Float(2, 16, 151936, strides=[2430976, 151936, 1], requires_grad=0, device=cpu) = aten::linear(%input, %weight, %5458), scope: __module.lm_head # /home/phil2/Super-Intel-NPU/current/Super-Intel-NPU/venv_offering/lib/python3.12/site-packages/torch/nn/modules/linear.py:134:0
  %23 : (Float(2, 16, 151936, strides=[2430976, 151936, 1], requires_grad=0, device=cpu)) = prim::TupleConstruct(%5460)
  return (%23)

2026-01-15 22:07:33,147 - INFO -     > Intermediate Model Size: 4.52 GB
2026-01-15 22:07:35,378 - INFO - >>> [Bake] Stage 2: Reshaping to [1, 4096]...
2026-01-15 22:07:35,448 - INFO -     > Input: input_ids [?,?]
2026-01-15 22:07:35,448 - INFO -       -> Locking to [1, 4096]
2026-01-15 22:07:35,448 - INFO -     > Input: attention_mask [?,?]
2026-01-15 22:07:35,448 - INFO -       -> Locking to [1, 4096]
2026-01-15 22:07:35,448 - INFO -     > Input: position_ids [?,?]
2026-01-15 22:07:35,448 - INFO -       -> Locking to [1, 4096]
2026-01-15 22:07:35,505 - INFO - >>> [Bake] Saving final static model to ./models/qwen3_int4...
2026-01-15 22:07:37,074 - INFO - >>> [Bake] DONE.
