2026-01-14 09:30:15,640 - INFO - >>> [Bake] Starting process for model: Intel/neural-chat-7b-v3-1
2026-01-14 09:30:15,640 - INFO - >>> [Bake] Downloading to ./model_staging...
2026-01-14 09:30:15,642 - DEBUG - Starting new HTTPS connection (1): huggingface.co:443
2026-01-14 09:30:15,937 - DEBUG - https://huggingface.co:443 "GET /api/models/Intel/neural-chat-7b-v3-1/revision/main HTTP/1.1" 200 7138
2026-01-14 09:30:15,941 - DEBUG - Attempting to acquire lock 135756480541856 on model_staging/.cache/huggingface/download/LICENSE.lock
2026-01-14 09:30:15,941 - DEBUG - Lock 135756480541856 acquired on model_staging/.cache/huggingface/download/LICENSE.lock
2026-01-14 09:30:15,943 - DEBUG - Attempting to release lock 135756480541856 on model_staging/.cache/huggingface/download/LICENSE.lock
2026-01-14 09:30:15,943 - DEBUG - Attempting to acquire lock 135756480543440 on model_staging/.cache/huggingface/download/README.md.lock
2026-01-14 09:30:15,943 - DEBUG - Lock 135756480541856 released on model_staging/.cache/huggingface/download/LICENSE.lock
2026-01-14 09:30:15,944 - DEBUG - Attempting to acquire lock 135756480807040 on model_staging/.cache/huggingface/download/generation_config.json.lock
2026-01-14 09:30:15,946 - DEBUG - Attempting to acquire lock 135765197228080 on model_staging/.cache/huggingface/download/.gitattributes.lock
2026-01-14 09:30:15,946 - DEBUG - Lock 135756480543440 acquired on model_staging/.cache/huggingface/download/README.md.lock
2026-01-14 09:30:15,946 - DEBUG - Attempting to acquire lock 135756480808480 on model_staging/.cache/huggingface/download/model-00002-of-00002.safetensors.lock
2026-01-14 09:30:15,946 - DEBUG - Attempting to acquire lock 135756480809008 on model_staging/.cache/huggingface/download/model.safetensors.index.json.lock
2026-01-14 09:30:15,947 - DEBUG - Attempting to acquire lock 135756480811072 on model_staging/.cache/huggingface/download/config.json.lock
2026-01-14 09:30:15,947 - DEBUG - Lock 135756480807040 acquired on model_staging/.cache/huggingface/download/generation_config.json.lock
2026-01-14 09:30:15,947 - DEBUG - Lock 135765197228080 acquired on model_staging/.cache/huggingface/download/.gitattributes.lock
2026-01-14 09:30:15,947 - DEBUG - Attempting to acquire lock 135756480808144 on model_staging/.cache/huggingface/download/model-00001-of-00002.safetensors.lock
2026-01-14 09:30:15,947 - DEBUG - Attempting to release lock 135756480543440 on model_staging/.cache/huggingface/download/README.md.lock
2026-01-14 09:30:15,947 - DEBUG - Attempting to acquire lock 135756480812320 on model_staging/.cache/huggingface/download/pytorch_model-00001-of-00002.bin.lock
2026-01-14 09:30:15,948 - DEBUG - Lock 135756480809008 acquired on model_staging/.cache/huggingface/download/model.safetensors.index.json.lock
2026-01-14 09:30:15,948 - DEBUG - Lock 135756480808480 acquired on model_staging/.cache/huggingface/download/model-00002-of-00002.safetensors.lock
2026-01-14 09:30:15,948 - DEBUG - Lock 135756480811072 acquired on model_staging/.cache/huggingface/download/config.json.lock
2026-01-14 09:30:15,948 - DEBUG - Attempting to release lock 135765197228080 on model_staging/.cache/huggingface/download/.gitattributes.lock
2026-01-14 09:30:15,948 - DEBUG - Attempting to release lock 135756480807040 on model_staging/.cache/huggingface/download/generation_config.json.lock
2026-01-14 09:30:15,948 - DEBUG - Lock 135756480543440 released on model_staging/.cache/huggingface/download/README.md.lock
2026-01-14 09:30:15,948 - DEBUG - Lock 135756480808144 acquired on model_staging/.cache/huggingface/download/model-00001-of-00002.safetensors.lock
2026-01-14 09:30:15,948 - DEBUG - Lock 135756480812320 acquired on model_staging/.cache/huggingface/download/pytorch_model-00001-of-00002.bin.lock
2026-01-14 09:30:15,948 - DEBUG - Attempting to release lock 135756480809008 on model_staging/.cache/huggingface/download/model.safetensors.index.json.lock
2026-01-14 09:30:15,949 - DEBUG - Attempting to release lock 135756480808480 on model_staging/.cache/huggingface/download/model-00002-of-00002.safetensors.lock
2026-01-14 09:30:15,949 - DEBUG - Attempting to release lock 135756480811072 on model_staging/.cache/huggingface/download/config.json.lock
2026-01-14 09:30:15,949 - DEBUG - Lock 135756480807040 released on model_staging/.cache/huggingface/download/generation_config.json.lock
2026-01-14 09:30:15,949 - DEBUG - Lock 135765197228080 released on model_staging/.cache/huggingface/download/.gitattributes.lock
2026-01-14 09:30:15,949 - DEBUG - Attempting to release lock 135756480808144 on model_staging/.cache/huggingface/download/model-00001-of-00002.safetensors.lock
2026-01-14 09:30:15,949 - DEBUG - Attempting to acquire lock 135756480813136 on model_staging/.cache/huggingface/download/pytorch_model-00002-of-00002.bin.lock
2026-01-14 09:30:15,949 - DEBUG - Attempting to release lock 135756480812320 on model_staging/.cache/huggingface/download/pytorch_model-00001-of-00002.bin.lock
2026-01-14 09:30:15,949 - DEBUG - Lock 135756480809008 released on model_staging/.cache/huggingface/download/model.safetensors.index.json.lock
2026-01-14 09:30:15,949 - DEBUG - Lock 135756480808480 released on model_staging/.cache/huggingface/download/model-00002-of-00002.safetensors.lock
2026-01-14 09:30:15,949 - DEBUG - Lock 135756480811072 released on model_staging/.cache/huggingface/download/config.json.lock
2026-01-14 09:30:15,950 - DEBUG - Attempting to acquire lock 135756480812800 on model_staging/.cache/huggingface/download/pytorch_model.bin.index.json.lock
2026-01-14 09:30:15,950 - DEBUG - Lock 135756480808144 released on model_staging/.cache/huggingface/download/model-00001-of-00002.safetensors.lock
2026-01-14 09:30:15,950 - DEBUG - Lock 135756480812320 released on model_staging/.cache/huggingface/download/pytorch_model-00001-of-00002.bin.lock
2026-01-14 09:30:15,950 - DEBUG - Lock 135756480813136 acquired on model_staging/.cache/huggingface/download/pytorch_model-00002-of-00002.bin.lock
2026-01-14 09:30:15,950 - DEBUG - Attempting to acquire lock 135756480807376 on model_staging/.cache/huggingface/download/tokenizer.json.lock
2026-01-14 09:30:15,951 - DEBUG - Lock 135756480812800 acquired on model_staging/.cache/huggingface/download/pytorch_model.bin.index.json.lock
2026-01-14 09:30:15,951 - DEBUG - Attempting to acquire lock 135756480808000 on model_staging/.cache/huggingface/download/tokenizer.model.lock
2026-01-14 09:30:15,951 - DEBUG - Attempting to acquire lock 135756480543296 on model_staging/.cache/huggingface/download/tokenizer_config.json.lock
2026-01-14 09:30:15,951 - DEBUG - Attempting to acquire lock 135756480807280 on model_staging/.cache/huggingface/download/special_tokens_map.json.lock
2026-01-14 09:30:15,951 - DEBUG - Attempting to release lock 135756480813136 on model_staging/.cache/huggingface/download/pytorch_model-00002-of-00002.bin.lock
2026-01-14 09:30:15,951 - DEBUG - Lock 135756480807376 acquired on model_staging/.cache/huggingface/download/tokenizer.json.lock
2026-01-14 09:30:15,951 - DEBUG - Attempting to release lock 135756480812800 on model_staging/.cache/huggingface/download/pytorch_model.bin.index.json.lock
2026-01-14 09:30:15,951 - DEBUG - Lock 135756480808000 acquired on model_staging/.cache/huggingface/download/tokenizer.model.lock
2026-01-14 09:30:15,951 - DEBUG - Lock 135756480543296 acquired on model_staging/.cache/huggingface/download/tokenizer_config.json.lock
2026-01-14 09:30:15,951 - DEBUG - Lock 135756480813136 released on model_staging/.cache/huggingface/download/pytorch_model-00002-of-00002.bin.lock
2026-01-14 09:30:15,951 - DEBUG - Lock 135756480812800 released on model_staging/.cache/huggingface/download/pytorch_model.bin.index.json.lock
2026-01-14 09:30:15,952 - DEBUG - Attempting to release lock 135756480808000 on model_staging/.cache/huggingface/download/tokenizer.model.lock
2026-01-14 09:30:15,952 - DEBUG - Attempting to release lock 135756480543296 on model_staging/.cache/huggingface/download/tokenizer_config.json.lock
2026-01-14 09:30:15,952 - DEBUG - Attempting to release lock 135756480807376 on model_staging/.cache/huggingface/download/tokenizer.json.lock
2026-01-14 09:30:15,952 - DEBUG - Lock 135756480807280 acquired on model_staging/.cache/huggingface/download/special_tokens_map.json.lock
2026-01-14 09:30:15,952 - DEBUG - Lock 135756480808000 released on model_staging/.cache/huggingface/download/tokenizer.model.lock
2026-01-14 09:30:15,952 - DEBUG - Lock 135756480543296 released on model_staging/.cache/huggingface/download/tokenizer_config.json.lock
2026-01-14 09:30:15,952 - DEBUG - Lock 135756480807376 released on model_staging/.cache/huggingface/download/tokenizer.json.lock
2026-01-14 09:30:15,952 - DEBUG - Attempting to release lock 135756480807280 on model_staging/.cache/huggingface/download/special_tokens_map.json.lock
2026-01-14 09:30:15,952 - DEBUG - Lock 135756480807280 released on model_staging/.cache/huggingface/download/special_tokens_map.json.lock
2026-01-14 09:30:15,952 - INFO - >>> [Bake] Loading NNCF config from src/python/nncf_config.json...
2026-01-14 09:30:15,953 - INFO - >>> [Bake] Loading model and applying Data-Free NNCF INT4 Compression...
2026-01-14 09:30:16,123 - DEBUG - Patching module Embedding(32000, 4096)
2026-01-14 09:30:16,123 - DEBUG - Patching module Linear(in_features=4096, out_features=4096, bias=False)
2026-01-14 09:30:16,123 - DEBUG - Patching module Linear(in_features=4096, out_features=1024, bias=False)
2026-01-14 09:30:16,123 - DEBUG - Patching module Linear(in_features=4096, out_features=1024, bias=False)
2026-01-14 09:30:16,123 - DEBUG - Patching module Linear(in_features=4096, out_features=4096, bias=False)
2026-01-14 09:30:16,123 - DEBUG - Patching module Linear(in_features=4096, out_features=14336, bias=False)
2026-01-14 09:30:16,123 - DEBUG - Patching module Linear(in_features=4096, out_features=14336, bias=False)
2026-01-14 09:30:16,123 - DEBUG - Patching module Linear(in_features=14336, out_features=4096, bias=False)
2026-01-14 09:30:16,124 - DEBUG - Patching module Linear(in_features=4096, out_features=4096, bias=False)
2026-01-14 09:30:16,124 - DEBUG - Patching module Linear(in_features=4096, out_features=1024, bias=False)
2026-01-14 09:30:16,124 - DEBUG - Patching module Linear(in_features=4096, out_features=1024, bias=False)
2026-01-14 09:30:16,124 - DEBUG - Patching module Linear(in_features=4096, out_features=4096, bias=False)
2026-01-14 09:30:16,124 - DEBUG - Patching module Linear(in_features=4096, out_features=14336, bias=False)
2026-01-14 09:30:16,124 - DEBUG - Patching module Linear(in_features=4096, out_features=14336, bias=False)
2026-01-14 09:30:16,124 - DEBUG - Patching module Linear(in_features=14336, out_features=4096, bias=False)
2026-01-14 09:30:16,124 - DEBUG - Patching module Linear(in_features=4096, out_features=4096, bias=False)
2026-01-14 09:30:16,124 - DEBUG - Patching module Linear(in_features=4096, out_features=1024, bias=False)
2026-01-14 09:30:16,124 - DEBUG - Patching module Linear(in_features=4096, out_features=1024, bias=False)
2026-01-14 09:30:16,124 - DEBUG - Patching module Linear(in_features=4096, out_features=4096, bias=False)
2026-01-14 09:30:16,124 - DEBUG - Patching module Linear(in_features=4096, out_features=14336, bias=False)
2026-01-14 09:30:16,124 - DEBUG - Patching module Linear(in_features=4096, out_features=14336, bias=False)
2026-01-14 09:30:16,124 - DEBUG - Patching module Linear(in_features=14336, out_features=4096, bias=False)
2026-01-14 09:30:16,124 - DEBUG - Patching module Linear(in_features=4096, out_features=4096, bias=False)
2026-01-14 09:30:16,124 - DEBUG - Patching module Linear(in_features=4096, out_features=1024, bias=False)
2026-01-14 09:30:16,124 - DEBUG - Patching module Linear(in_features=4096, out_features=1024, bias=False)
2026-01-14 09:30:16,124 - DEBUG - Patching module Linear(in_features=4096, out_features=4096, bias=False)
2026-01-14 09:30:16,124 - DEBUG - Patching module Linear(in_features=4096, out_features=14336, bias=False)
2026-01-14 09:30:16,124 - DEBUG - Patching module Linear(in_features=4096, out_features=14336, bias=False)
2026-01-14 09:30:16,124 - DEBUG - Patching module Linear(in_features=14336, out_features=4096, bias=False)
2026-01-14 09:30:16,124 - DEBUG - Patching module Linear(in_features=4096, out_features=4096, bias=False)
2026-01-14 09:30:16,124 - DEBUG - Patching module Linear(in_features=4096, out_features=1024, bias=False)
2026-01-14 09:30:16,124 - DEBUG - Patching module Linear(in_features=4096, out_features=1024, bias=False)
2026-01-14 09:30:16,124 - DEBUG - Patching module Linear(in_features=4096, out_features=4096, bias=False)
2026-01-14 09:30:16,125 - DEBUG - Patching module Linear(in_features=4096, out_features=14336, bias=False)
2026-01-14 09:30:16,125 - DEBUG - Patching module Linear(in_features=4096, out_features=14336, bias=False)
2026-01-14 09:30:16,125 - DEBUG - Patching module Linear(in_features=14336, out_features=4096, bias=False)
2026-01-14 09:30:16,125 - DEBUG - Patching module Linear(in_features=4096, out_features=4096, bias=False)
2026-01-14 09:30:16,125 - DEBUG - Patching module Linear(in_features=4096, out_features=1024, bias=False)
2026-01-14 09:30:16,125 - DEBUG - Patching module Linear(in_features=4096, out_features=1024, bias=False)
2026-01-14 09:30:16,125 - DEBUG - Patching module Linear(in_features=4096, out_features=4096, bias=False)
2026-01-14 09:30:16,125 - DEBUG - Patching module Linear(in_features=4096, out_features=14336, bias=False)
2026-01-14 09:30:16,125 - DEBUG - Patching module Linear(in_features=4096, out_features=14336, bias=False)
2026-01-14 09:30:16,125 - DEBUG - Patching module Linear(in_features=14336, out_features=4096, bias=False)
2026-01-14 09:30:16,125 - DEBUG - Patching module Linear(in_features=4096, out_features=4096, bias=False)
2026-01-14 09:30:16,125 - DEBUG - Patching module Linear(in_features=4096, out_features=1024, bias=False)
2026-01-14 09:30:16,125 - DEBUG - Patching module Linear(in_features=4096, out_features=1024, bias=False)
2026-01-14 09:30:16,125 - DEBUG - Patching module Linear(in_features=4096, out_features=4096, bias=False)
2026-01-14 09:30:16,125 - DEBUG - Patching module Linear(in_features=4096, out_features=14336, bias=False)
2026-01-14 09:30:16,125 - DEBUG - Patching module Linear(in_features=4096, out_features=14336, bias=False)
2026-01-14 09:30:16,125 - DEBUG - Patching module Linear(in_features=14336, out_features=4096, bias=False)
2026-01-14 09:30:16,125 - DEBUG - Patching module Linear(in_features=4096, out_features=4096, bias=False)
2026-01-14 09:30:16,125 - DEBUG - Patching module Linear(in_features=4096, out_features=1024, bias=False)
2026-01-14 09:30:16,125 - DEBUG - Patching module Linear(in_features=4096, out_features=1024, bias=False)
2026-01-14 09:30:16,125 - DEBUG - Patching module Linear(in_features=4096, out_features=4096, bias=False)
2026-01-14 09:30:16,125 - DEBUG - Patching module Linear(in_features=4096, out_features=14336, bias=False)
2026-01-14 09:30:16,125 - DEBUG - Patching module Linear(in_features=4096, out_features=14336, bias=False)
2026-01-14 09:30:16,125 - DEBUG - Patching module Linear(in_features=14336, out_features=4096, bias=False)
2026-01-14 09:30:16,125 - DEBUG - Patching module Linear(in_features=4096, out_features=4096, bias=False)
2026-01-14 09:30:16,125 - DEBUG - Patching module Linear(in_features=4096, out_features=1024, bias=False)
2026-01-14 09:30:16,125 - DEBUG - Patching module Linear(in_features=4096, out_features=1024, bias=False)
2026-01-14 09:30:16,126 - DEBUG - Patching module Linear(in_features=4096, out_features=4096, bias=False)
2026-01-14 09:30:16,126 - DEBUG - Patching module Linear(in_features=4096, out_features=14336, bias=False)
2026-01-14 09:30:16,126 - DEBUG - Patching module Linear(in_features=4096, out_features=14336, bias=False)
2026-01-14 09:30:16,126 - DEBUG - Patching module Linear(in_features=14336, out_features=4096, bias=False)
2026-01-14 09:30:16,126 - DEBUG - Patching module Linear(in_features=4096, out_features=4096, bias=False)
2026-01-14 09:30:16,126 - DEBUG - Patching module Linear(in_features=4096, out_features=1024, bias=False)
2026-01-14 09:30:16,126 - DEBUG - Patching module Linear(in_features=4096, out_features=1024, bias=False)
2026-01-14 09:30:16,126 - DEBUG - Patching module Linear(in_features=4096, out_features=4096, bias=False)
2026-01-14 09:30:16,126 - DEBUG - Patching module Linear(in_features=4096, out_features=14336, bias=False)
2026-01-14 09:30:16,126 - DEBUG - Patching module Linear(in_features=4096, out_features=14336, bias=False)
2026-01-14 09:30:16,126 - DEBUG - Patching module Linear(in_features=14336, out_features=4096, bias=False)
2026-01-14 09:30:16,126 - DEBUG - Patching module Linear(in_features=4096, out_features=4096, bias=False)
2026-01-14 09:30:16,126 - DEBUG - Patching module Linear(in_features=4096, out_features=1024, bias=False)
2026-01-14 09:30:16,126 - DEBUG - Patching module Linear(in_features=4096, out_features=1024, bias=False)
2026-01-14 09:30:16,126 - DEBUG - Patching module Linear(in_features=4096, out_features=4096, bias=False)
2026-01-14 09:30:16,126 - DEBUG - Patching module Linear(in_features=4096, out_features=14336, bias=False)
2026-01-14 09:30:16,126 - DEBUG - Patching module Linear(in_features=4096, out_features=14336, bias=False)
2026-01-14 09:30:16,126 - DEBUG - Patching module Linear(in_features=14336, out_features=4096, bias=False)
2026-01-14 09:30:16,126 - DEBUG - Patching module Linear(in_features=4096, out_features=4096, bias=False)
2026-01-14 09:30:16,126 - DEBUG - Patching module Linear(in_features=4096, out_features=1024, bias=False)
2026-01-14 09:30:16,126 - DEBUG - Patching module Linear(in_features=4096, out_features=1024, bias=False)
2026-01-14 09:30:16,126 - DEBUG - Patching module Linear(in_features=4096, out_features=4096, bias=False)
2026-01-14 09:30:16,126 - DEBUG - Patching module Linear(in_features=4096, out_features=14336, bias=False)
2026-01-14 09:30:16,126 - DEBUG - Patching module Linear(in_features=4096, out_features=14336, bias=False)
2026-01-14 09:30:16,126 - DEBUG - Patching module Linear(in_features=14336, out_features=4096, bias=False)
2026-01-14 09:30:16,126 - DEBUG - Patching module Linear(in_features=4096, out_features=4096, bias=False)
2026-01-14 09:30:16,126 - DEBUG - Patching module Linear(in_features=4096, out_features=1024, bias=False)
2026-01-14 09:30:16,126 - DEBUG - Patching module Linear(in_features=4096, out_features=1024, bias=False)
2026-01-14 09:30:16,127 - DEBUG - Patching module Linear(in_features=4096, out_features=4096, bias=False)
2026-01-14 09:30:16,127 - DEBUG - Patching module Linear(in_features=4096, out_features=14336, bias=False)
2026-01-14 09:30:16,127 - DEBUG - Patching module Linear(in_features=4096, out_features=14336, bias=False)
2026-01-14 09:30:16,127 - DEBUG - Patching module Linear(in_features=14336, out_features=4096, bias=False)
2026-01-14 09:30:16,127 - DEBUG - Patching module Linear(in_features=4096, out_features=4096, bias=False)
2026-01-14 09:30:16,127 - DEBUG - Patching module Linear(in_features=4096, out_features=1024, bias=False)
2026-01-14 09:30:16,127 - DEBUG - Patching module Linear(in_features=4096, out_features=1024, bias=False)
2026-01-14 09:30:16,127 - DEBUG - Patching module Linear(in_features=4096, out_features=4096, bias=False)
2026-01-14 09:30:16,127 - DEBUG - Patching module Linear(in_features=4096, out_features=14336, bias=False)
2026-01-14 09:30:16,127 - DEBUG - Patching module Linear(in_features=4096, out_features=14336, bias=False)
2026-01-14 09:30:16,127 - DEBUG - Patching module Linear(in_features=14336, out_features=4096, bias=False)
2026-01-14 09:30:16,127 - DEBUG - Patching module Linear(in_features=4096, out_features=4096, bias=False)
2026-01-14 09:30:16,127 - DEBUG - Patching module Linear(in_features=4096, out_features=1024, bias=False)
2026-01-14 09:30:16,127 - DEBUG - Patching module Linear(in_features=4096, out_features=1024, bias=False)
2026-01-14 09:30:16,127 - DEBUG - Patching module Linear(in_features=4096, out_features=4096, bias=False)
2026-01-14 09:30:16,127 - DEBUG - Patching module Linear(in_features=4096, out_features=14336, bias=False)
2026-01-14 09:30:16,127 - DEBUG - Patching module Linear(in_features=4096, out_features=14336, bias=False)
2026-01-14 09:30:16,127 - DEBUG - Patching module Linear(in_features=14336, out_features=4096, bias=False)
2026-01-14 09:30:16,127 - DEBUG - Patching module Linear(in_features=4096, out_features=4096, bias=False)
2026-01-14 09:30:16,127 - DEBUG - Patching module Linear(in_features=4096, out_features=1024, bias=False)
2026-01-14 09:30:16,127 - DEBUG - Patching module Linear(in_features=4096, out_features=1024, bias=False)
2026-01-14 09:30:16,127 - DEBUG - Patching module Linear(in_features=4096, out_features=4096, bias=False)
2026-01-14 09:30:16,127 - DEBUG - Patching module Linear(in_features=4096, out_features=14336, bias=False)
2026-01-14 09:30:16,127 - DEBUG - Patching module Linear(in_features=4096, out_features=14336, bias=False)
2026-01-14 09:30:16,127 - DEBUG - Patching module Linear(in_features=14336, out_features=4096, bias=False)
2026-01-14 09:30:16,127 - DEBUG - Patching module Linear(in_features=4096, out_features=4096, bias=False)
2026-01-14 09:30:16,127 - DEBUG - Patching module Linear(in_features=4096, out_features=1024, bias=False)
2026-01-14 09:30:16,127 - DEBUG - Patching module Linear(in_features=4096, out_features=1024, bias=False)
2026-01-14 09:30:16,128 - DEBUG - Patching module Linear(in_features=4096, out_features=4096, bias=False)
2026-01-14 09:30:16,128 - DEBUG - Patching module Linear(in_features=4096, out_features=14336, bias=False)
2026-01-14 09:30:16,128 - DEBUG - Patching module Linear(in_features=4096, out_features=14336, bias=False)
2026-01-14 09:30:16,128 - DEBUG - Patching module Linear(in_features=14336, out_features=4096, bias=False)
2026-01-14 09:30:16,128 - DEBUG - Patching module Linear(in_features=4096, out_features=4096, bias=False)
2026-01-14 09:30:16,128 - DEBUG - Patching module Linear(in_features=4096, out_features=1024, bias=False)
2026-01-14 09:30:16,128 - DEBUG - Patching module Linear(in_features=4096, out_features=1024, bias=False)
2026-01-14 09:30:16,128 - DEBUG - Patching module Linear(in_features=4096, out_features=4096, bias=False)
2026-01-14 09:30:16,128 - DEBUG - Patching module Linear(in_features=4096, out_features=14336, bias=False)
2026-01-14 09:30:16,128 - DEBUG - Patching module Linear(in_features=4096, out_features=14336, bias=False)
2026-01-14 09:30:16,128 - DEBUG - Patching module Linear(in_features=14336, out_features=4096, bias=False)
2026-01-14 09:30:16,128 - DEBUG - Patching module Linear(in_features=4096, out_features=4096, bias=False)
2026-01-14 09:30:16,128 - DEBUG - Patching module Linear(in_features=4096, out_features=1024, bias=False)
2026-01-14 09:30:16,128 - DEBUG - Patching module Linear(in_features=4096, out_features=1024, bias=False)
2026-01-14 09:30:16,128 - DEBUG - Patching module Linear(in_features=4096, out_features=4096, bias=False)
2026-01-14 09:30:16,128 - DEBUG - Patching module Linear(in_features=4096, out_features=14336, bias=False)
2026-01-14 09:30:16,128 - DEBUG - Patching module Linear(in_features=4096, out_features=14336, bias=False)
2026-01-14 09:30:16,128 - DEBUG - Patching module Linear(in_features=14336, out_features=4096, bias=False)
2026-01-14 09:30:16,128 - DEBUG - Patching module Linear(in_features=4096, out_features=4096, bias=False)
2026-01-14 09:30:16,128 - DEBUG - Patching module Linear(in_features=4096, out_features=1024, bias=False)
2026-01-14 09:30:16,128 - DEBUG - Patching module Linear(in_features=4096, out_features=1024, bias=False)
2026-01-14 09:30:16,128 - DEBUG - Patching module Linear(in_features=4096, out_features=4096, bias=False)
2026-01-14 09:30:16,128 - DEBUG - Patching module Linear(in_features=4096, out_features=14336, bias=False)
2026-01-14 09:30:16,129 - DEBUG - Patching module Linear(in_features=4096, out_features=14336, bias=False)
2026-01-14 09:30:16,129 - DEBUG - Patching module Linear(in_features=14336, out_features=4096, bias=False)
2026-01-14 09:30:16,129 - DEBUG - Patching module Linear(in_features=4096, out_features=4096, bias=False)
2026-01-14 09:30:16,129 - DEBUG - Patching module Linear(in_features=4096, out_features=1024, bias=False)
2026-01-14 09:30:16,129 - DEBUG - Patching module Linear(in_features=4096, out_features=1024, bias=False)
2026-01-14 09:30:16,129 - DEBUG - Patching module Linear(in_features=4096, out_features=4096, bias=False)
2026-01-14 09:30:16,129 - DEBUG - Patching module Linear(in_features=4096, out_features=14336, bias=False)
2026-01-14 09:30:16,129 - DEBUG - Patching module Linear(in_features=4096, out_features=14336, bias=False)
2026-01-14 09:30:16,129 - DEBUG - Patching module Linear(in_features=14336, out_features=4096, bias=False)
2026-01-14 09:30:16,129 - DEBUG - Patching module Linear(in_features=4096, out_features=4096, bias=False)
2026-01-14 09:30:16,129 - DEBUG - Patching module Linear(in_features=4096, out_features=1024, bias=False)
2026-01-14 09:30:16,129 - DEBUG - Patching module Linear(in_features=4096, out_features=1024, bias=False)
2026-01-14 09:30:16,129 - DEBUG - Patching module Linear(in_features=4096, out_features=4096, bias=False)
2026-01-14 09:30:16,129 - DEBUG - Patching module Linear(in_features=4096, out_features=14336, bias=False)
2026-01-14 09:30:16,129 - DEBUG - Patching module Linear(in_features=4096, out_features=14336, bias=False)
2026-01-14 09:30:16,129 - DEBUG - Patching module Linear(in_features=14336, out_features=4096, bias=False)
2026-01-14 09:30:16,129 - DEBUG - Patching module Linear(in_features=4096, out_features=4096, bias=False)
2026-01-14 09:30:16,129 - DEBUG - Patching module Linear(in_features=4096, out_features=1024, bias=False)
2026-01-14 09:30:16,129 - DEBUG - Patching module Linear(in_features=4096, out_features=1024, bias=False)
2026-01-14 09:30:16,129 - DEBUG - Patching module Linear(in_features=4096, out_features=4096, bias=False)
2026-01-14 09:30:16,129 - DEBUG - Patching module Linear(in_features=4096, out_features=14336, bias=False)
2026-01-14 09:30:16,129 - DEBUG - Patching module Linear(in_features=4096, out_features=14336, bias=False)
2026-01-14 09:30:16,129 - DEBUG - Patching module Linear(in_features=14336, out_features=4096, bias=False)
2026-01-14 09:30:16,129 - DEBUG - Patching module Linear(in_features=4096, out_features=4096, bias=False)
2026-01-14 09:30:16,130 - DEBUG - Patching module Linear(in_features=4096, out_features=1024, bias=False)
2026-01-14 09:30:16,130 - DEBUG - Patching module Linear(in_features=4096, out_features=1024, bias=False)
2026-01-14 09:30:16,130 - DEBUG - Patching module Linear(in_features=4096, out_features=4096, bias=False)
2026-01-14 09:30:16,130 - DEBUG - Patching module Linear(in_features=4096, out_features=14336, bias=False)
2026-01-14 09:30:16,130 - DEBUG - Patching module Linear(in_features=4096, out_features=14336, bias=False)
2026-01-14 09:30:16,130 - DEBUG - Patching module Linear(in_features=14336, out_features=4096, bias=False)
2026-01-14 09:30:16,130 - DEBUG - Patching module Linear(in_features=4096, out_features=4096, bias=False)
2026-01-14 09:30:16,130 - DEBUG - Patching module Linear(in_features=4096, out_features=1024, bias=False)
2026-01-14 09:30:16,130 - DEBUG - Patching module Linear(in_features=4096, out_features=1024, bias=False)
2026-01-14 09:30:16,130 - DEBUG - Patching module Linear(in_features=4096, out_features=4096, bias=False)
2026-01-14 09:30:16,130 - DEBUG - Patching module Linear(in_features=4096, out_features=14336, bias=False)
2026-01-14 09:30:16,130 - DEBUG - Patching module Linear(in_features=4096, out_features=14336, bias=False)
2026-01-14 09:30:16,130 - DEBUG - Patching module Linear(in_features=14336, out_features=4096, bias=False)
2026-01-14 09:30:16,130 - DEBUG - Patching module Linear(in_features=4096, out_features=4096, bias=False)
2026-01-14 09:30:16,130 - DEBUG - Patching module Linear(in_features=4096, out_features=1024, bias=False)
2026-01-14 09:30:16,130 - DEBUG - Patching module Linear(in_features=4096, out_features=1024, bias=False)
2026-01-14 09:30:16,130 - DEBUG - Patching module Linear(in_features=4096, out_features=4096, bias=False)
2026-01-14 09:30:16,130 - DEBUG - Patching module Linear(in_features=4096, out_features=14336, bias=False)
2026-01-14 09:30:16,130 - DEBUG - Patching module Linear(in_features=4096, out_features=14336, bias=False)
2026-01-14 09:30:16,130 - DEBUG - Patching module Linear(in_features=14336, out_features=4096, bias=False)
2026-01-14 09:30:16,130 - DEBUG - Patching module Linear(in_features=4096, out_features=4096, bias=False)
2026-01-14 09:30:16,130 - DEBUG - Patching module Linear(in_features=4096, out_features=1024, bias=False)
2026-01-14 09:30:16,130 - DEBUG - Patching module Linear(in_features=4096, out_features=1024, bias=False)
2026-01-14 09:30:16,130 - DEBUG - Patching module Linear(in_features=4096, out_features=4096, bias=False)
2026-01-14 09:30:16,130 - DEBUG - Patching module Linear(in_features=4096, out_features=14336, bias=False)
2026-01-14 09:30:16,130 - DEBUG - Patching module Linear(in_features=4096, out_features=14336, bias=False)
2026-01-14 09:30:16,130 - DEBUG - Patching module Linear(in_features=14336, out_features=4096, bias=False)
2026-01-14 09:30:16,130 - DEBUG - Patching module Linear(in_features=4096, out_features=4096, bias=False)
2026-01-14 09:30:16,131 - DEBUG - Patching module Linear(in_features=4096, out_features=1024, bias=False)
2026-01-14 09:30:16,131 - DEBUG - Patching module Linear(in_features=4096, out_features=1024, bias=False)
2026-01-14 09:30:16,131 - DEBUG - Patching module Linear(in_features=4096, out_features=4096, bias=False)
2026-01-14 09:30:16,131 - DEBUG - Patching module Linear(in_features=4096, out_features=14336, bias=False)
2026-01-14 09:30:16,131 - DEBUG - Patching module Linear(in_features=4096, out_features=14336, bias=False)
2026-01-14 09:30:16,131 - DEBUG - Patching module Linear(in_features=14336, out_features=4096, bias=False)
2026-01-14 09:30:16,131 - DEBUG - Patching module Linear(in_features=4096, out_features=4096, bias=False)
2026-01-14 09:30:16,131 - DEBUG - Patching module Linear(in_features=4096, out_features=1024, bias=False)
2026-01-14 09:30:16,131 - DEBUG - Patching module Linear(in_features=4096, out_features=1024, bias=False)
2026-01-14 09:30:16,131 - DEBUG - Patching module Linear(in_features=4096, out_features=4096, bias=False)
2026-01-14 09:30:16,131 - DEBUG - Patching module Linear(in_features=4096, out_features=14336, bias=False)
2026-01-14 09:30:16,131 - DEBUG - Patching module Linear(in_features=4096, out_features=14336, bias=False)
2026-01-14 09:30:16,131 - DEBUG - Patching module Linear(in_features=14336, out_features=4096, bias=False)
2026-01-14 09:30:16,131 - DEBUG - Patching module Linear(in_features=4096, out_features=4096, bias=False)
2026-01-14 09:30:16,131 - DEBUG - Patching module Linear(in_features=4096, out_features=1024, bias=False)
2026-01-14 09:30:16,131 - DEBUG - Patching module Linear(in_features=4096, out_features=1024, bias=False)
2026-01-14 09:30:16,131 - DEBUG - Patching module Linear(in_features=4096, out_features=4096, bias=False)
2026-01-14 09:30:16,131 - DEBUG - Patching module Linear(in_features=4096, out_features=14336, bias=False)
2026-01-14 09:30:16,131 - DEBUG - Patching module Linear(in_features=4096, out_features=14336, bias=False)
2026-01-14 09:30:16,131 - DEBUG - Patching module Linear(in_features=14336, out_features=4096, bias=False)
2026-01-14 09:30:16,131 - DEBUG - Patching module Linear(in_features=4096, out_features=4096, bias=False)
2026-01-14 09:30:16,131 - DEBUG - Patching module Linear(in_features=4096, out_features=1024, bias=False)
2026-01-14 09:30:16,131 - DEBUG - Patching module Linear(in_features=4096, out_features=1024, bias=False)
2026-01-14 09:30:16,131 - DEBUG - Patching module Linear(in_features=4096, out_features=4096, bias=False)
2026-01-14 09:30:16,131 - DEBUG - Patching module Linear(in_features=4096, out_features=14336, bias=False)
2026-01-14 09:30:16,131 - DEBUG - Patching module Linear(in_features=4096, out_features=14336, bias=False)
2026-01-14 09:30:16,131 - DEBUG - Patching module Linear(in_features=14336, out_features=4096, bias=False)
2026-01-14 09:30:16,131 - DEBUG - Patching module Linear(in_features=4096, out_features=4096, bias=False)
2026-01-14 09:30:16,132 - DEBUG - Patching module Linear(in_features=4096, out_features=1024, bias=False)
2026-01-14 09:30:16,132 - DEBUG - Patching module Linear(in_features=4096, out_features=1024, bias=False)
2026-01-14 09:30:16,132 - DEBUG - Patching module Linear(in_features=4096, out_features=4096, bias=False)
2026-01-14 09:30:16,132 - DEBUG - Patching module Linear(in_features=4096, out_features=14336, bias=False)
2026-01-14 09:30:16,132 - DEBUG - Patching module Linear(in_features=4096, out_features=14336, bias=False)
2026-01-14 09:30:16,132 - DEBUG - Patching module Linear(in_features=14336, out_features=4096, bias=False)
2026-01-14 09:30:16,132 - DEBUG - Patching module Linear(in_features=4096, out_features=32000, bias=False)
2026-01-14 09:30:16,132 - DEBUG - Casting module MistralRMSNorm((4096,), eps=1e-05) to float32
2026-01-14 09:30:16,132 - DEBUG - Casting module MistralRMSNorm((4096,), eps=1e-05) to float32
2026-01-14 09:30:16,132 - DEBUG - Casting module MistralRMSNorm((4096,), eps=1e-05) to float32
2026-01-14 09:30:16,132 - DEBUG - Casting module MistralRMSNorm((4096,), eps=1e-05) to float32
2026-01-14 09:30:16,132 - DEBUG - Casting module MistralRMSNorm((4096,), eps=1e-05) to float32
2026-01-14 09:30:16,132 - DEBUG - Casting module MistralRMSNorm((4096,), eps=1e-05) to float32
2026-01-14 09:30:16,132 - DEBUG - Casting module MistralRMSNorm((4096,), eps=1e-05) to float32
2026-01-14 09:30:16,132 - DEBUG - Casting module MistralRMSNorm((4096,), eps=1e-05) to float32
2026-01-14 09:30:16,132 - DEBUG - Casting module MistralRMSNorm((4096,), eps=1e-05) to float32
2026-01-14 09:30:16,132 - DEBUG - Casting module MistralRMSNorm((4096,), eps=1e-05) to float32
2026-01-14 09:30:16,132 - DEBUG - Casting module MistralRMSNorm((4096,), eps=1e-05) to float32
2026-01-14 09:30:16,132 - DEBUG - Casting module MistralRMSNorm((4096,), eps=1e-05) to float32
2026-01-14 09:30:16,133 - DEBUG - Casting module MistralRMSNorm((4096,), eps=1e-05) to float32
2026-01-14 09:30:16,133 - DEBUG - Casting module MistralRMSNorm((4096,), eps=1e-05) to float32
2026-01-14 09:30:16,133 - DEBUG - Casting module MistralRMSNorm((4096,), eps=1e-05) to float32
2026-01-14 09:30:16,133 - DEBUG - Casting module MistralRMSNorm((4096,), eps=1e-05) to float32
2026-01-14 09:30:16,133 - DEBUG - Casting module MistralRMSNorm((4096,), eps=1e-05) to float32
2026-01-14 09:30:16,133 - DEBUG - Casting module MistralRMSNorm((4096,), eps=1e-05) to float32
2026-01-14 09:30:16,133 - DEBUG - Casting module MistralRMSNorm((4096,), eps=1e-05) to float32
2026-01-14 09:30:16,133 - DEBUG - Casting module MistralRMSNorm((4096,), eps=1e-05) to float32
2026-01-14 09:30:16,133 - DEBUG - Casting module MistralRMSNorm((4096,), eps=1e-05) to float32
2026-01-14 09:30:16,133 - DEBUG - Casting module MistralRMSNorm((4096,), eps=1e-05) to float32
2026-01-14 09:30:16,133 - DEBUG - Casting module MistralRMSNorm((4096,), eps=1e-05) to float32
2026-01-14 09:30:16,133 - DEBUG - Casting module MistralRMSNorm((4096,), eps=1e-05) to float32
2026-01-14 09:30:16,133 - DEBUG - Casting module MistralRMSNorm((4096,), eps=1e-05) to float32
2026-01-14 09:30:16,133 - DEBUG - Casting module MistralRMSNorm((4096,), eps=1e-05) to float32
2026-01-14 09:30:16,133 - DEBUG - Casting module MistralRMSNorm((4096,), eps=1e-05) to float32
2026-01-14 09:30:16,133 - DEBUG - Casting module MistralRMSNorm((4096,), eps=1e-05) to float32
2026-01-14 09:30:16,133 - DEBUG - Casting module MistralRMSNorm((4096,), eps=1e-05) to float32
2026-01-14 09:30:16,133 - DEBUG - Casting module MistralRMSNorm((4096,), eps=1e-05) to float32
2026-01-14 09:30:16,133 - DEBUG - Casting module MistralRMSNorm((4096,), eps=1e-05) to float32
2026-01-14 09:30:16,133 - DEBUG - Casting module MistralRMSNorm((4096,), eps=1e-05) to float32
2026-01-14 09:30:16,133 - DEBUG - Casting module MistralRMSNorm((4096,), eps=1e-05) to float32
2026-01-14 09:30:16,133 - DEBUG - Casting module MistralRMSNorm((4096,), eps=1e-05) to float32
2026-01-14 09:30:16,133 - DEBUG - Casting module MistralRMSNorm((4096,), eps=1e-05) to float32
2026-01-14 09:30:16,133 - DEBUG - Casting module MistralRMSNorm((4096,), eps=1e-05) to float32
2026-01-14 09:30:16,133 - DEBUG - Casting module MistralRMSNorm((4096,), eps=1e-05) to float32
2026-01-14 09:30:16,133 - DEBUG - Casting module MistralRMSNorm((4096,), eps=1e-05) to float32
2026-01-14 09:30:16,133 - DEBUG - Casting module MistralRMSNorm((4096,), eps=1e-05) to float32
2026-01-14 09:30:16,134 - DEBUG - Casting module MistralRMSNorm((4096,), eps=1e-05) to float32
2026-01-14 09:30:16,134 - DEBUG - Casting module MistralRMSNorm((4096,), eps=1e-05) to float32
2026-01-14 09:30:16,134 - DEBUG - Casting module MistralRMSNorm((4096,), eps=1e-05) to float32
2026-01-14 09:30:16,134 - DEBUG - Casting module MistralRMSNorm((4096,), eps=1e-05) to float32
2026-01-14 09:30:16,134 - DEBUG - Casting module MistralRMSNorm((4096,), eps=1e-05) to float32
2026-01-14 09:30:16,134 - DEBUG - Casting module MistralRMSNorm((4096,), eps=1e-05) to float32
2026-01-14 09:30:16,134 - DEBUG - Casting module MistralRMSNorm((4096,), eps=1e-05) to float32
2026-01-14 09:30:16,134 - DEBUG - Casting module MistralRMSNorm((4096,), eps=1e-05) to float32
2026-01-14 09:30:16,134 - DEBUG - Casting module MistralRMSNorm((4096,), eps=1e-05) to float32
2026-01-14 09:30:16,134 - DEBUG - Casting module MistralRMSNorm((4096,), eps=1e-05) to float32
2026-01-14 09:30:16,134 - DEBUG - Casting module MistralRMSNorm((4096,), eps=1e-05) to float32
2026-01-14 09:30:16,134 - DEBUG - Casting module MistralRMSNorm((4096,), eps=1e-05) to float32
2026-01-14 09:30:16,134 - DEBUG - Casting module MistralRMSNorm((4096,), eps=1e-05) to float32
2026-01-14 09:30:16,134 - DEBUG - Casting module MistralRMSNorm((4096,), eps=1e-05) to float32
2026-01-14 09:30:16,134 - DEBUG - Casting module MistralRMSNorm((4096,), eps=1e-05) to float32
2026-01-14 09:30:16,134 - DEBUG - Casting module MistralRMSNorm((4096,), eps=1e-05) to float32
2026-01-14 09:30:16,134 - DEBUG - Casting module MistralRMSNorm((4096,), eps=1e-05) to float32
2026-01-14 09:30:16,134 - DEBUG - Casting module MistralRMSNorm((4096,), eps=1e-05) to float32
2026-01-14 09:30:16,134 - DEBUG - Casting module MistralRMSNorm((4096,), eps=1e-05) to float32
2026-01-14 09:30:16,134 - DEBUG - Casting module MistralRMSNorm((4096,), eps=1e-05) to float32
2026-01-14 09:30:16,134 - DEBUG - Casting module MistralRMSNorm((4096,), eps=1e-05) to float32
2026-01-14 09:30:16,134 - DEBUG - Casting module MistralRMSNorm((4096,), eps=1e-05) to float32
2026-01-14 09:30:16,134 - DEBUG - Casting module MistralRMSNorm((4096,), eps=1e-05) to float32
2026-01-14 09:30:16,134 - DEBUG - Casting module MistralRMSNorm((4096,), eps=1e-05) to float32
2026-01-14 09:30:16,134 - DEBUG - Casting module MistralRMSNorm((4096,), eps=1e-05) to float32
2026-01-14 09:30:16,134 - DEBUG - Casting module MistralRMSNorm((4096,), eps=1e-05) to float32
2026-01-14 09:30:18,448 - DEBUG - Inlined graph:
graph(%self.1 : __torch__.transformers.models.mistral.modeling_mistral.MistralForCausalLM,
      %input_ids : Long(2, 16, strides=[16, 1], requires_grad=0, device=cpu),
      %attention_mask.1 : Long(2, 32, strides=[32, 1], requires_grad=0, device=cpu),
      %position_ids : Long(2, 16, strides=[16, 1], requires_grad=0, device=cpu),
      %past_key_values : (Tensor, Tensor)[]):
  %lm_head : __torch__.torch.nn.modules.linear.___torch_mangle_411.Linear = prim::GetAttr[name="lm_head"](%self.1)
  %model : __torch__.transformers.models.mistral.modeling_mistral.MistralModel = prim::GetAttr[name="model"](%self.1)
  %7 : (Tensor, Tensor), %8 : (Tensor, Tensor), %9 : (Tensor, Tensor), %10 : (Tensor, Tensor), %11 : (Tensor, Tensor), %12 : (Tensor, Tensor), %13 : (Tensor, Tensor), %14 : (Tensor, Tensor), %15 : (Tensor, Tensor), %16 : (Tensor, Tensor), %17 : (Tensor, Tensor), %18 : (Tensor, Tensor), %19 : (Tensor, Tensor), %20 : (Tensor, Tensor), %21 : (Tensor, Tensor), %22 : (Tensor, Tensor), %23 : (Tensor, Tensor), %24 : (Tensor, Tensor), %25 : (Tensor, Tensor), %26 : (Tensor, Tensor), %27 : (Tensor, Tensor), %28 : (Tensor, Tensor), %29 : (Tensor, Tensor), %30 : (Tensor, Tensor), %31 : (Tensor, Tensor), %32 : (Tensor, Tensor), %33 : (Tensor, Tensor), %34 : (Tensor, Tensor), %35 : (Tensor, Tensor), %36 : (Tensor, Tensor), %37 : (Tensor, Tensor), %38 : (Tensor, Tensor) = prim::ListUnpack(%past_key_values)
  %39 : Float(2, 8, 16, 128, strides=[16384, 2048, 128, 1], requires_grad=0, device=cpu), %40 : Float(2, 8, 16, 128, strides=[16384, 2048, 128, 1], requires_grad=0, device=cpu) = prim::TupleUnpack(%7)
  %41 : Float(2, 8, 16, 128, strides=[16384, 2048, 128, 1], requires_grad=0, device=cpu), %42 : Float(2, 8, 16, 128, strides=[16384, 2048, 128, 1], requires_grad=0, device=cpu) = prim::TupleUnpack(%8)
  %43 : Float(2, 8, 16, 128, strides=[16384, 2048, 128, 1], requires_grad=0, device=cpu), %44 : Float(2, 8, 16, 128, strides=[16384, 2048, 128, 1], requires_grad=0, device=cpu) = prim::TupleUnpack(%9)
  %45 : Float(2, 8, 16, 128, strides=[16384, 2048, 128, 1], requires_grad=0, device=cpu), %46 : Float(2, 8, 16, 128, strides=[16384, 2048, 128, 1], requires_grad=0, device=cpu) = prim::TupleUnpack(%10)
  %47 : Float(2, 8, 16, 128, strides=[16384, 2048, 128, 1], requires_grad=0, device=cpu), %48 : Float(2, 8, 16, 128, strides=[16384, 2048, 128, 1], requires_grad=0, device=cpu) = prim::TupleUnpack(%11)
  %49 : Float(2, 8, 16, 128, strides=[16384, 2048, 128, 1], requires_grad=0, device=cpu), %50 : Float(2, 8, 16, 128, strides=[16384, 2048, 128, 1], requires_grad=0, device=cpu) = prim::TupleUnpack(%12)
  %51 : Float(2, 8, 16, 128, strides=[16384, 2048, 128, 1], requires_grad=0, device=cpu), %52 : Float(2, 8, 16, 128, strides=[16384, 2048, 128, 1], requires_grad=0, device=cpu) = prim::TupleUnpack(%13)
  %53 : Float(2, 8, 16, 128, strides=[16384, 2048, 128, 1], requires_grad=0, device=cpu), %54 : Float(2, 8, 16, 128, strides=[16384, 2048, 128, 1], requires_grad=0, device=cpu) = prim::TupleUnpack(%14)
  %55 : Float(2, 8, 16, 128, strides=[16384, 2048, 128, 1], requires_grad=0, device=cpu), %56 : Float(2, 8, 16, 128, strides=[16384, 2048, 128, 1], requires_grad=0, device=cpu) = prim::TupleUnpack(%15)
  %57 : Float(2, 8, 16, 128, strides=[16384, 2048, 128, 1], requires_grad=0, device=cpu), %58 : Float(2, 8, 16, 128, strides=[16384, 2048, 128, 1], requires_grad=0, device=cpu) = prim::TupleUnpack(%16)
  %59 : Float(2, 8, 16, 128, strides=[16384, 2048, 128, 1], requires_grad=0, device=cpu), %60 : Float(2, 8, 16, 128, strides=[16384, 2048, 128, 1], requires_grad=0, device=cpu) = prim::TupleUnpack(%17)
  %61 : Float(2, 8, 16, 128, strides=[16384, 2048, 128, 1], requires_grad=0, device=cpu), %62 : Float(2, 8, 16, 128, strides=[16384, 2048, 128, 1], requires_grad=0, device=cpu) = prim::TupleUnpack(%18)
  %63 : Float(2, 8, 16, 128, strides=[16384, 2048, 128, 1], requires_grad=0, device=cpu), %64 : Float(2, 8, 16, 128, strides=[16384, 2048, 128, 1], requires_grad=0, device=cpu) = prim::TupleUnpack(%19)
  %65 : Float(2, 8, 16, 128, strides=[16384, 2048, 128, 1], requires_grad=0, device=cpu), %66 : Float(2, 8, 16, 128, strides=[16384, 2048, 128, 1], requires_grad=0, device=cpu) = prim::TupleUnpack(%20)
  %67 : Float(2, 8, 16, 128, strides=[16384, 2048, 128, 1], requires_grad=0, device=cpu), %68 : Float(2, 8, 16, 128, strides=[16384, 2048, 128, 1], requires_grad=0, device=cpu) = prim::TupleUnpack(%21)
  %69 : Float(2, 8, 16, 128, strides=[16384, 2048, 128, 1], requires_grad=0, device=cpu), %70 : Float(2, 8, 16, 128, strides=[16384, 2048, 128, 1], requires_grad=0, device=cpu) = prim::TupleUnpack(%22)
  %71 : Float(2, 8, 16, 128, strides=[16384, 2048, 128, 1], requires_grad=0, device=cpu), %72 : Float(2, 8, 16, 128, strides=[16384, 2048, 128, 1], requires_grad=0, device=cpu) = prim::TupleUnpack(%23)
  %73 : Float(2, 8, 16, 128, strides=[16384, 2048, 128, 1], requires_grad=0, device=cpu), %74 : Float(2, 8, 16, 128, strides=[16384, 2048, 128, 1], requires_grad=0, device=cpu) = prim::TupleUnpack(%24)
  %75 : Float(2, 8, 16, 128, strides=[16384, 2048, 128, 1], requires_grad=0, device=cpu), %76 : Float(2, 8, 16, 128, strides=[16384, 2048, 128, 1], requires_grad=0, device=cpu) = prim::TupleUnpack(%25)
  %77 : Float(2, 8, 16, 128, strides=[16384, 2048, 128, 1], requires_grad=0, device=cpu), %78 : Float(2, 8, 16, 128, strides=[16384, 2048, 128, 1], requires_grad=0, device=cpu) = prim::TupleUnpack(%26)
  %79 : Float(2, 8, 16, 128, strides=[16384, 2048, 128, 1], requires_grad=0, device=cpu), %80 : Float(2, 8, 16, 128, strides=[16384, 2048, 128, 1], requires_grad=0, device=cpu) = prim::TupleUnpack(%27)
  %81 : Float(2, 8, 16, 128, strides=[16384, 2048, 128, 1], requires_grad=0, device=cpu), %82 : Float(2, 8, 16, 128, strides=[16384, 2048, 128, 1], requires_grad=0, device=cpu) = prim::TupleUnpack(%28)
  %83 : Float(2, 8, 16, 128, strides=[16384, 2048, 128, 1], requires_grad=0, device=cpu), %84 : Float(2, 8, 16, 128, strides=[16384, 2048, 128, 1], requires_grad=0, device=cpu) = prim::TupleUnpack(%29)
  %85 : Float(2, 8, 16, 128, strides=[16384, 2048, 128, 1], requires_grad=0, device=cpu), %86 : Float(2, 8, 16, 128, strides=[16384, 2048, 128, 1], requires_grad=0, device=cpu) = prim::TupleUnpack(%30)
  %87 : Float(2, 8, 16, 128, strides=[16384, 2048, 128, 1], requires_grad=0, device=cpu), %88 : Float(2, 8, 16, 128, strides=[16384, 2048, 128, 1], requires_grad=0, device=cpu) = prim::TupleUnpack(%31)
  %89 : Float(2, 8, 16, 128, strides=[16384, 2048, 128, 1], requires_grad=0, device=cpu), %90 : Float(2, 8, 16, 128, strides=[16384, 2048, 128, 1], requires_grad=0, device=cpu) = prim::TupleUnpack(%32)
  %91 : Float(2, 8, 16, 128, strides=[16384, 2048, 128, 1], requires_grad=0, device=cpu), %92 : Float(2, 8, 16, 128, strides=[16384, 2048, 128, 1], requires_grad=0, device=cpu) = prim::TupleUnpack(%33)
  %93 : Float(2, 8, 16, 128, strides=[16384, 2048, 128, 1], requires_grad=0, device=cpu), %94 : Float(2, 8, 16, 128, strides=[16384, 2048, 128, 1], requires_grad=0, device=cpu) = prim::TupleUnpack(%34)
  %95 : Float(2, 8, 16, 128, strides=[16384, 2048, 128, 1], requires_grad=0, device=cpu), %96 : Float(2, 8, 16, 128, strides=[16384, 2048, 128, 1], requires_grad=0, device=cpu) = prim::TupleUnpack(%35)
  %97 : Float(2, 8, 16, 128, strides=[16384, 2048, 128, 1], requires_grad=0, device=cpu), %98 : Float(2, 8, 16, 128, strides=[16384, 2048, 128, 1], requires_grad=0, device=cpu) = prim::TupleUnpack(%36)
  %99 : Float(2, 8, 16, 128, strides=[16384, 2048, 128, 1], requires_grad=0, device=cpu), %100 : Float(2, 8, 16, 128, strides=[16384, 2048, 128, 1], requires_grad=0, device=cpu) = prim::TupleUnpack(%37)
  %101 : Float(2, 8, 16, 128, strides=[16384, 2048, 128, 1], requires_grad=0, device=cpu), %102 : Float(2, 8, 16, 128, strides=[16384, 2048, 128, 1], requires_grad=0, device=cpu) = prim::TupleUnpack(%38)
  %219 : Double(requires_grad=0, device=cpu) = prim::Constant[value={1e-05}](), scope: __module.model/__module.model.layers.0/__module.model.layers.0.input_layernorm # /home/phil2/Super-Intel-NPU/current/Super-Intel-NPU/venv_offering/lib/python3.12/site-packages/transformers/models/mistral/modeling_mistral.py:200:0
  %220 : bool = prim::Constant[value=1](), scope: __module.model/__module.model.layers.0/__module.model.layers.0.input_layernorm # /home/phil2/Super-Intel-NPU/current/Super-Intel-NPU/venv_offering/lib/python3.12/site-packages/transformers/models/mistral/modeling_mistral.py:199:0
  %221 : float = prim::Constant[value=0.088388347648318447](), scope: __module.model/__module.model.layers.0/__module.model.layers.0.self_attn # /home/phil2/Super-Intel-NPU/current/Super-Intel-NPU/venv_offering/lib/python3.12/site-packages/transformers/integrations/sdpa_attention.py:96:0
  %222 : float = prim::Constant[value=0.](), scope: __module.model/__module.model.layers.0/__module.model.layers.0.self_attn # /home/phil2/Super-Intel-NPU/current/Super-Intel-NPU/venv_offering/lib/python3.12/site-packages/transformers/integrations/sdpa_attention.py:96:0
  %223 : Long(requires_grad=0, device=cpu) = prim::Constant[value={4}](), scope: __module.model/__module.model.layers.0/__module.model.layers.0.self_attn # /home/phil2/Super-Intel-NPU/current/Super-Intel-NPU/venv_offering/lib/python3.12/site-packages/transformers/integrations/sdpa_attention.py:27:0
  %224 : int = prim::Constant[value=-2](), scope: __module.model/__module.model.layers.0/__module.model.layers.0.self_attn # /home/phil2/Super-Intel-NPU/current/Super-Intel-NPU/venv_offering/lib/python3.12/site-packages/optimum/exporters/onnx/model_patcher.py:500:0
  %225 : Long(requires_grad=0, device=cpu) = prim::Constant[value={2}](), scope: __module.model/__module.model.layers.0/__module.model.layers.0.self_attn # /home/phil2/Super-Intel-NPU/current/Super-Intel-NPU/venv_offering/lib/python3.12/site-packages/torch/_tensor.py:1119:0
  %226 : int = prim::Constant[value=128](), scope: __module.model/__module.model.layers.0/__module.model.layers.0.self_attn # /home/phil2/Super-Intel-NPU/current/Super-Intel-NPU/venv_offering/lib/python3.12/site-packages/transformers/models/mistral/modeling_mistral.py:153:0
  %227 : Double(requires_grad=0, device=cpu) = prim::Constant[value={1}](), scope: __module.model/__module.model.rotary_emb # /home/phil2/Super-Intel-NPU/current/Super-Intel-NPU/venv_offering/lib/python3.12/site-packages/transformers/models/mistral/modeling_mistral.py:300:0
  %228 : Float(requires_grad=0, device=cpu) = prim::Constant[value={-65504}](), scope: __module.model # /home/phil2/Super-Intel-NPU/current/Super-Intel-NPU/venv_offering/lib/python3.12/site-packages/optimum/exporters/openvino/model_patcher.py:208:0
  %229 : int = prim::Constant[value=6](), scope: __module.model # /home/phil2/Super-Intel-NPU/current/Super-Intel-NPU/venv_offering/lib/python3.12/site-packages/optimum/exporters/openvino/model_patcher.py:207:0
  %230 : Float(requires_grad=0, device=cpu) = prim::Constant[value={0}](), scope: __module.model # /home/phil2/Super-Intel-NPU/current/Super-Intel-NPU/venv_offering/lib/python3.12/site-packages/optimum/exporters/openvino/model_patcher.py:207:0
  %231 : int = prim::Constant[value=-1](), scope: __module.model # /home/phil2/Super-Intel-NPU/current/Super-Intel-NPU/venv_offering/lib/python3.12/site-packages/optimum/exporters/onnx/model_patcher.py:412:0
  %232 : Long(requires_grad=0, device=cpu) = prim::Constant[value={4096}](), scope: __module.model # /home/phil2/Super-Intel-NPU/current/Super-Intel-NPU/venv_offering/lib/python3.12/site-packages/transformers/masking_utils.py:88:0
  %233 : Long(requires_grad=0, device=cpu) = prim::Constant[value={0}](), scope: __module.model # /home/phil2/Super-Intel-NPU/current/Super-Intel-NPU/venv_offering/lib/python3.12/site-packages/optimum/exporters/onnx/model_patcher.py:408:0
  %234 : int = prim::Constant[value=4](), scope: __module.model # /home/phil2/Super-Intel-NPU/current/Super-Intel-NPU/venv_offering/lib/python3.12/site-packages/optimum/exporters/onnx/model_patcher.py:407:0
  %235 : int = prim::Constant[value=3](), scope: __module.model # /home/phil2/Super-Intel-NPU/current/Super-Intel-NPU/venv_offering/lib/python3.12/site-packages/optimum/exporters/onnx/model_patcher.py:405:0
  %236 : int = prim::Constant[value=9223372036854775807](), scope: __module.model # /home/phil2/Super-Intel-NPU/current/Super-Intel-NPU/venv_offering/lib/python3.12/site-packages/optimum/exporters/onnx/model_patcher.py:405:0
  %237 : int = prim::Constant[value=0](), scope: __module.model # /home/phil2/Super-Intel-NPU/current/Super-Intel-NPU/venv_offering/lib/python3.12/site-packages/transformers/cache_utils.py:126:0
  %238 : int = prim::Constant[value=11](), scope: __module.model # /home/phil2/Super-Intel-NPU/current/Super-Intel-NPU/venv_offering/lib/python3.12/site-packages/transformers/masking_utils.py:723:0
  %239 : bool = prim::Constant[value=0](), scope: __module.model # /home/phil2/Super-Intel-NPU/current/Super-Intel-NPU/venv_offering/lib/python3.12/site-packages/transformers/models/mistral/modeling_mistral.py:348:0
  %240 : Device = prim::Constant[value="cpu"](), scope: __module.model # /home/phil2/Super-Intel-NPU/current/Super-Intel-NPU/venv_offering/lib/python3.12/site-packages/transformers/models/mistral/modeling_mistral.py:348:0
  %241 : NoneType = prim::Constant(), scope: __module.model
  %242 : int = prim::Constant[value=1](), scope: __module.model # /home/phil2/Super-Intel-NPU/current/Super-Intel-NPU/venv_offering/lib/python3.12/site-packages/transformers/models/mistral/modeling_mistral.py:349:0
  %243 : int = prim::Constant[value=2](), scope: __module.model # /home/phil2/Super-Intel-NPU/current/Super-Intel-NPU/venv_offering/lib/python3.12/site-packages/transformers/cache_utils.py:134:0
  %norm : __torch__.transformers.models.mistral.modeling_mistral.___torch_mangle_410.MistralRMSNorm = prim::GetAttr[name="norm"](%model)
  %layers : __torch__.torch.nn.modules.container.ModuleList = prim::GetAttr[name="layers"](%model)
  %_31 : __torch__.transformers.models.mistral.modeling_mistral.___torch_mangle_409.MistralDecoderLayer = prim::GetAttr[name="31"](%layers)
  %layers.61 : __torch__.torch.nn.modules.container.ModuleList = prim::GetAttr[name="layers"](%model)
  %_30 : __torch__.transformers.models.mistral.modeling_mistral.___torch_mangle_396.MistralDecoderLayer = prim::GetAttr[name="30"](%layers.61)
  %layers.59 : __torch__.torch.nn.modules.container.ModuleList = prim::GetAttr[name="layers"](%model)
  %_29 : __torch__.transformers.models.mistral.modeling_mistral.___torch_mangle_383.MistralDecoderLayer = prim::GetAttr[name="29"](%layers.59)
  %layers.57 : __torch__.torch.nn.modules.container.ModuleList = prim::GetAttr[name="layers"](%model)
  %_28 : __torch__.transformers.models.mistral.modeling_mistral.___torch_mangle_370.MistralDecoderLayer = prim::GetAttr[name="28"](%layers.57)
  %layers.55 : __torch__.torch.nn.modules.container.ModuleList = prim::GetAttr[name="layers"](%model)
  %_27 : __torch__.transformers.models.mistral.modeling_mistral.___torch_mangle_357.MistralDecoderLayer = prim::GetAttr[name="27"](%layers.55)
  %layers.53 : __torch__.torch.nn.modules.container.ModuleList = prim::GetAttr[name="layers"](%model)
  %_26 : __torch__.transformers.models.mistral.modeling_mistral.___torch_mangle_344.MistralDecoderLayer = prim::GetAttr[name="26"](%layers.53)
  %layers.51 : __torch__.torch.nn.modules.container.ModuleList = prim::GetAttr[name="layers"](%model)
  %_25 : __torch__.transformers.models.mistral.modeling_mistral.___torch_mangle_331.MistralDecoderLayer = prim::GetAttr[name="25"](%layers.51)
  %layers.49 : __torch__.torch.nn.modules.container.ModuleList = prim::GetAttr[name="layers"](%model)
  %_24 : __torch__.transformers.models.mistral.modeling_mistral.___torch_mangle_318.MistralDecoderLayer = prim::GetAttr[name="24"](%layers.49)
  %layers.47 : __torch__.torch.nn.modules.container.ModuleList = prim::GetAttr[name="layers"](%model)
  %_23 : __torch__.transformers.models.mistral.modeling_mistral.___torch_mangle_305.MistralDecoderLayer = prim::GetAttr[name="23"](%layers.47)
  %layers.45 : __torch__.torch.nn.modules.container.ModuleList = prim::GetAttr[name="layers"](%model)
  %_22 : __torch__.transformers.models.mistral.modeling_mistral.___torch_mangle_292.MistralDecoderLayer = prim::GetAttr[name="22"](%layers.45)
  %layers.43 : __torch__.torch.nn.modules.container.ModuleList = prim::GetAttr[name="layers"](%model)
  %_21 : __torch__.transformers.models.mistral.modeling_mistral.___torch_mangle_279.MistralDecoderLayer = prim::GetAttr[name="21"](%layers.43)
  %layers.41 : __torch__.torch.nn.modules.container.ModuleList = prim::GetAttr[name="layers"](%model)
  %_20 : __torch__.transformers.models.mistral.modeling_mistral.___torch_mangle_266.MistralDecoderLayer = prim::GetAttr[name="20"](%layers.41)
  %layers.39 : __torch__.torch.nn.modules.container.ModuleList = prim::GetAttr[name="layers"](%model)
  %_19 : __torch__.transformers.models.mistral.modeling_mistral.___torch_mangle_253.MistralDecoderLayer = prim::GetAttr[name="19"](%layers.39)
  %layers.37 : __torch__.torch.nn.modules.container.ModuleList = prim::GetAttr[name="layers"](%model)
  %_18 : __torch__.transformers.models.mistral.modeling_mistral.___torch_mangle_240.MistralDecoderLayer = prim::GetAttr[name="18"](%layers.37)
  %layers.35 : __torch__.torch.nn.modules.container.ModuleList = prim::GetAttr[name="layers"](%model)
  %_17 : __torch__.transformers.models.mistral.modeling_mistral.___torch_mangle_227.MistralDecoderLayer = prim::GetAttr[name="17"](%layers.35)
  %layers.33 : __torch__.torch.nn.modules.container.ModuleList = prim::GetAttr[name="layers"](%model)
  %_16 : __torch__.transformers.models.mistral.modeling_mistral.___torch_mangle_214.MistralDecoderLayer = prim::GetAttr[name="16"](%layers.33)
  %layers.31 : __torch__.torch.nn.modules.container.ModuleList = prim::GetAttr[name="layers"](%model)
  %_15 : __torch__.transformers.models.mistral.modeling_mistral.___torch_mangle_201.MistralDecoderLayer = prim::GetAttr[name="15"](%layers.31)
  %layers.29 : __torch__.torch.nn.modules.container.ModuleList = prim::GetAttr[name="layers"](%model)
  %_14 : __torch__.transformers.models.mistral.modeling_mistral.___torch_mangle_188.MistralDecoderLayer = prim::GetAttr[name="14"](%layers.29)
  %layers.27 : __torch__.torch.nn.modules.container.ModuleList = prim::GetAttr[name="layers"](%model)
  %_13 : __torch__.transformers.models.mistral.modeling_mistral.___torch_mangle_175.MistralDecoderLayer = prim::GetAttr[name="13"](%layers.27)
  %layers.25 : __torch__.torch.nn.modules.container.ModuleList = prim::GetAttr[name="layers"](%model)
  %_12 : __torch__.transformers.models.mistral.modeling_mistral.___torch_mangle_162.MistralDecoderLayer = prim::GetAttr[name="12"](%layers.25)
  %layers.23 : __torch__.torch.nn.modules.container.ModuleList = prim::GetAttr[name="layers"](%model)
  %_11 : __torch__.transformers.models.mistral.modeling_mistral.___torch_mangle_149.MistralDecoderLayer = prim::GetAttr[name="11"](%layers.23)
  %layers.21 : __torch__.torch.nn.modules.container.ModuleList = prim::GetAttr[name="layers"](%model)
  %_10 : __torch__.transformers.models.mistral.modeling_mistral.___torch_mangle_136.MistralDecoderLayer = prim::GetAttr[name="10"](%layers.21)
  %layers.19 : __torch__.torch.nn.modules.container.ModuleList = prim::GetAttr[name="layers"](%model)
  %_9 : __torch__.transformers.models.mistral.modeling_mistral.___torch_mangle_123.MistralDecoderLayer = prim::GetAttr[name="9"](%layers.19)
  %layers.17 : __torch__.torch.nn.modules.container.ModuleList = prim::GetAttr[name="layers"](%model)
  %_8 : __torch__.transformers.models.mistral.modeling_mistral.___torch_mangle_110.MistralDecoderLayer = prim::GetAttr[name="8"](%layers.17)
  %layers.15 : __torch__.torch.nn.modules.container.ModuleList = prim::GetAttr[name="layers"](%model)
  %_7 : __torch__.transformers.models.mistral.modeling_mistral.___torch_mangle_97.MistralDecoderLayer = prim::GetAttr[name="7"](%layers.15)
  %layers.13 : __torch__.torch.nn.modules.container.ModuleList = prim::GetAttr[name="layers"](%model)
  %_6 : __torch__.transformers.models.mistral.modeling_mistral.___torch_mangle_84.MistralDecoderLayer = prim::GetAttr[name="6"](%layers.13)
  %layers.11 : __torch__.torch.nn.modules.container.ModuleList = prim::GetAttr[name="layers"](%model)
  %_5 : __torch__.transformers.models.mistral.modeling_mistral.___torch_mangle_71.MistralDecoderLayer = prim::GetAttr[name="5"](%layers.11)
  %layers.9 : __torch__.torch.nn.modules.container.ModuleList = prim::GetAttr[name="layers"](%model)
  %_4 : __torch__.transformers.models.mistral.modeling_mistral.___torch_mangle_58.MistralDecoderLayer = prim::GetAttr[name="4"](%layers.9)
  %layers.7 : __torch__.torch.nn.modules.container.ModuleList = prim::GetAttr[name="layers"](%model)
  %_3 : __torch__.transformers.models.mistral.modeling_mistral.___torch_mangle_45.MistralDecoderLayer = prim::GetAttr[name="3"](%layers.7)
  %layers.5 : __torch__.torch.nn.modules.container.ModuleList = prim::GetAttr[name="layers"](%model)
  %_2 : __torch__.transformers.models.mistral.modeling_mistral.___torch_mangle_32.MistralDecoderLayer = prim::GetAttr[name="2"](%layers.5)
  %layers.3 : __torch__.torch.nn.modules.container.ModuleList = prim::GetAttr[name="layers"](%model)
  %_1 : __torch__.transformers.models.mistral.modeling_mistral.___torch_mangle_19.MistralDecoderLayer = prim::GetAttr[name="1"](%layers.3)
  %layers.1 : __torch__.torch.nn.modules.container.ModuleList = prim::GetAttr[name="layers"](%model)
  %_0 : __torch__.transformers.models.mistral.modeling_mistral.MistralDecoderLayer = prim::GetAttr[name="0"](%layers.1)
  %rotary_emb : __torch__.transformers.models.mistral.modeling_mistral.MistralRotaryEmbedding = prim::GetAttr[name="rotary_emb"](%model)
  %embed_tokens : __torch__.torch.nn.modules.sparse.Embedding = prim::GetAttr[name="embed_tokens"](%model)
  %weight.1 : Tensor = prim::GetAttr[name="weight"](%embed_tokens)
  %inputs_embeds : Float(2, 16, 4096, strides=[65536, 4096, 1], requires_grad=0, device=cpu) = ^Trampoline[inplace=0, module="openvino.frontend.pytorch.patch_model", Subgraph=<Graph>](None, False, False)(%weight.1, %input_ids), scope: __module.model/__module.model.embed_tokens # /home/phil2/Super-Intel-NPU/current/Super-Intel-NPU/venv_offering/lib/python3.12/site-packages/torch/autograd/function.py:581:0
  %313 : int = aten::size(%39, %243), scope: __module.model # /home/phil2/Super-Intel-NPU/current/Super-Intel-NPU/venv_offering/lib/python3.12/site-packages/transformers/cache_utils.py:134:0
  %past_seen_tokens : Long(device=cpu) = prim::NumToTensor(%313), scope: __module.model
  %315 : int = aten::size(%inputs_embeds, %242), scope: __module.model # /home/phil2/Super-Intel-NPU/current/Super-Intel-NPU/venv_offering/lib/python3.12/site-packages/transformers/models/mistral/modeling_mistral.py:349:0
  %316 : Long(device=cpu) = prim::NumToTensor(%315), scope: __module.model
  %317 : Long(requires_grad=0, device=cpu) = aten::add(%past_seen_tokens, %316, %242), scope: __module.model # /home/phil2/Super-Intel-NPU/current/Super-Intel-NPU/venv_offering/lib/python3.12/site-packages/transformers/models/mistral/modeling_mistral.py:349:0
  %318 : Scalar = aten::ScalarImplicit(%317), scope: __module.model
  %cache_position : Long(16, strides=[1], requires_grad=0, device=cpu) = aten::arange(%313, %318, %241, %241, %240, %239), scope: __module.model # /home/phil2/Super-Intel-NPU/current/Super-Intel-NPU/venv_offering/lib/python3.12/site-packages/transformers/models/mistral/modeling_mistral.py:348:0
  %attention_mask.3 : Bool(2, 32, strides=[32, 1], requires_grad=0, device=cpu) = aten::to(%attention_mask.1, %240, %238, %239, %239, %241), scope: __module.model # /home/phil2/Super-Intel-NPU/current/Super-Intel-NPU/venv_offering/lib/python3.12/site-packages/transformers/masking_utils.py:723:0
  %321 : int = aten::size(%cache_position, %237), scope: __module.model # /home/phil2/Super-Intel-NPU/current/Super-Intel-NPU/venv_offering/lib/python3.12/site-packages/transformers/cache_utils.py:126:0
  %query_length : Long(device=cpu) = prim::NumToTensor(%321), scope: __module.model
  %323 : int = aten::size(%39, %243), scope: __module.model # /home/phil2/Super-Intel-NPU/current/Super-Intel-NPU/venv_offering/lib/python3.12/site-packages/transformers/cache_utils.py:134:0
  %324 : Long(device=cpu) = prim::NumToTensor(%323), scope: __module.model
  %kv_length : Long(requires_grad=0, device=cpu) = aten::add(%324, %query_length, %242), scope: __module.model # /home/phil2/Super-Intel-NPU/current/Super-Intel-NPU/venv_offering/lib/python3.12/site-packages/transformers/cache_utils.py:127:0
  %326 : int = aten::Int(%kv_length), scope: __module.model
  %327 : Scalar = aten::ScalarImplicit(%kv_length), scope: __module.model
  %328 : int = aten::size(%inputs_embeds, %237), scope: __module.model # /home/phil2/Super-Intel-NPU/current/Super-Intel-NPU/venv_offering/lib/python3.12/site-packages/transformers/masking_utils.py:893:0
  %329 : int = aten::size(%cache_position, %237), scope: __module.model # /home/phil2/Super-Intel-NPU/current/Super-Intel-NPU/venv_offering/lib/python3.12/site-packages/optimum/exporters/onnx/model_patcher.py:391:0
  %330 : Long(1, 16, strides=[16, 1], requires_grad=0, device=cpu) = aten::unsqueeze(%cache_position, %237), scope: __module.model # /home/phil2/Super-Intel-NPU/current/Super-Intel-NPU/venv_offering/lib/python3.12/site-packages/optimum/exporters/onnx/model_patcher.py:405:0
  %331 : Long(1, 1, 16, strides=[16, 16, 1], requires_grad=0, device=cpu) = aten::unsqueeze(%330, %242), scope: __module.model # /home/phil2/Super-Intel-NPU/current/Super-Intel-NPU/venv_offering/lib/python3.12/site-packages/optimum/exporters/onnx/model_patcher.py:405:0
  %332 : Long(1, 1, 16, strides=[16, 16, 1], requires_grad=0, device=cpu) = aten::slice(%331, %243, %237, %236, %242), scope: __module.model # /home/phil2/Super-Intel-NPU/current/Super-Intel-NPU/venv_offering/lib/python3.12/site-packages/optimum/exporters/onnx/model_patcher.py:405:0
  %q_idx : Long(1, 1, 16, 1, strides=[16, 16, 1, 1], requires_grad=0, device=cpu) = aten::unsqueeze(%332, %235), scope: __module.model # /home/phil2/Super-Intel-NPU/current/Super-Intel-NPU/venv_offering/lib/python3.12/site-packages/optimum/exporters/onnx/model_patcher.py:405:0
  %334 : Long(2, strides=[1], requires_grad=0, device=cpu) = aten::arange(%328, %234, %241, %240, %239), scope: __module.model # /home/phil2/Super-Intel-NPU/current/Super-Intel-NPU/venv_offering/lib/python3.12/site-packages/optimum/exporters/onnx/model_patcher.py:407:0
  %335 : Long(2, strides=[1], requires_grad=0, device=cpu) = aten::slice(%334, %237, %237, %236, %242), scope: __module.model # /home/phil2/Super-Intel-NPU/current/Super-Intel-NPU/venv_offering/lib/python3.12/site-packages/optimum/exporters/onnx/model_patcher.py:407:0
  %336 : Long(2, 1, strides=[1, 1], requires_grad=0, device=cpu) = aten::unsqueeze(%335, %242), scope: __module.model # /home/phil2/Super-Intel-NPU/current/Super-Intel-NPU/venv_offering/lib/python3.12/site-packages/optimum/exporters/onnx/model_patcher.py:407:0
  %337 : Long(2, 1, 1, strides=[1, 1, 1], requires_grad=0, device=cpu) = aten::unsqueeze(%336, %243), scope: __module.model # /home/phil2/Super-Intel-NPU/current/Super-Intel-NPU/venv_offering/lib/python3.12/site-packages/optimum/exporters/onnx/model_patcher.py:407:0
  %batch_idx : Long(2, 1, 1, 1, strides=[1, 1, 1, 1], requires_grad=0, device=cpu) = aten::unsqueeze(%337, %235), scope: __module.model # /home/phil2/Super-Intel-NPU/current/Super-Intel-NPU/venv_offering/lib/python3.12/site-packages/optimum/exporters/onnx/model_patcher.py:407:0
  %339 : Long(32, strides=[1], requires_grad=0, device=cpu) = aten::arange(%327, %234, %241, %240, %239), scope: __module.model # /home/phil2/Super-Intel-NPU/current/Super-Intel-NPU/venv_offering/lib/python3.12/site-packages/optimum/exporters/onnx/model_patcher.py:408:0
  %340 : Long(1, 32, strides=[32, 1], requires_grad=0, device=cpu) = aten::unsqueeze(%339, %237), scope: __module.model # /home/phil2/Super-Intel-NPU/current/Super-Intel-NPU/venv_offering/lib/python3.12/site-packages/optimum/exporters/onnx/model_patcher.py:408:0
  %341 : Long(1, 1, 32, strides=[32, 32, 1], requires_grad=0, device=cpu) = aten::unsqueeze(%340, %242), scope: __module.model # /home/phil2/Super-Intel-NPU/current/Super-Intel-NPU/venv_offering/lib/python3.12/site-packages/optimum/exporters/onnx/model_patcher.py:408:0
  %342 : Long(1, 1, 1, 32, strides=[32, 32, 32, 1], requires_grad=0, device=cpu) = aten::unsqueeze(%341, %243), scope: __module.model # /home/phil2/Super-Intel-NPU/current/Super-Intel-NPU/venv_offering/lib/python3.12/site-packages/optimum/exporters/onnx/model_patcher.py:408:0
  %343 : Long(1, 1, 1, 32, strides=[32, 32, 32, 1], requires_grad=0, device=cpu) = aten::slice(%342, %235, %237, %236, %242), scope: __module.model # /home/phil2/Super-Intel-NPU/current/Super-Intel-NPU/venv_offering/lib/python3.12/site-packages/optimum/exporters/onnx/model_patcher.py:408:0
  %kv_idx : Long(1, 1, 1, 32, strides=[32, 32, 32, 1], requires_grad=0, device=cpu) = aten::add(%343, %233, %242), scope: __module.model # /home/phil2/Super-Intel-NPU/current/Super-Intel-NPU/venv_offering/lib/python3.12/site-packages/optimum/exporters/onnx/model_patcher.py:408:0
  %345 : int[] = prim::ListConstruct(), scope: __module.model
  %result.5 : Bool(requires_grad=0, device=cpu) = aten::new_ones(%q_idx, %345, %238, %241, %241, %239), scope: __module.model # /home/phil2/Super-Intel-NPU/current/Super-Intel-NPU/venv_offering/lib/python3.12/site-packages/transformers/masking_utils.py:52:0
  %347 : int[] = prim::ListConstruct(), scope: __module.model
  %result.1 : Bool(requires_grad=0, device=cpu) = aten::new_ones(%q_idx, %347, %238, %241, %241, %239), scope: __module.model # /home/phil2/Super-Intel-NPU/current/Super-Intel-NPU/venv_offering/lib/python3.12/site-packages/transformers/masking_utils.py:52:0
  %349 : Long(1, 1, 16, 1, strides=[16, 16, 1, 1], requires_grad=0, device=cpu) = aten::sub(%q_idx, %232, %242), scope: __module.model # /home/phil2/Super-Intel-NPU/current/Super-Intel-NPU/venv_offering/lib/python3.12/site-packages/transformers/masking_utils.py:88:0
  %350 : Bool(1, 1, 16, 32, strides=[512, 512, 32, 1], requires_grad=0, device=cpu) = aten::gt(%kv_idx, %349), scope: __module.model # /home/phil2/Super-Intel-NPU/current/Super-Intel-NPU/venv_offering/lib/python3.12/site-packages/transformers/masking_utils.py:88:0
  %351 : Bool(1, 1, 16, 32, strides=[512, 512, 32, 1], requires_grad=0, device=cpu) = aten::to(%350, %238, %237, %240, %241, %239, %239, %241), scope: __module.model # /home/phil2/Super-Intel-NPU/current/Super-Intel-NPU/venv_offering/lib/python3.12/site-packages/transformers/masking_utils.py:54:0
  %result.3 : Bool(1, 1, 16, 32, strides=[512, 512, 32, 1], requires_grad=0, device=cpu) = aten::__and__(%result.1, %351), scope: __module.model # /home/phil2/Super-Intel-NPU/current/Super-Intel-NPU/venv_offering/lib/python3.12/site-packages/transformers/masking_utils.py:54:0
  %353 : Bool(1, 1, 16, 32, strides=[512, 512, 32, 1], requires_grad=0, device=cpu) = aten::le(%kv_idx, %q_idx), scope: __module.model # /home/phil2/Super-Intel-NPU/current/Super-Intel-NPU/venv_offering/lib/python3.12/site-packages/transformers/masking_utils.py:78:0
  %354 : Bool(1, 1, 16, 32, strides=[512, 512, 32, 1], requires_grad=0, device=cpu) = aten::to(%353, %238, %237, %240, %241, %239, %239, %241), scope: __module.model # /home/phil2/Super-Intel-NPU/current/Super-Intel-NPU/venv_offering/lib/python3.12/site-packages/transformers/masking_utils.py:54:0
  %355 : Bool(1, 1, 16, 32, strides=[512, 512, 32, 1], requires_grad=0, device=cpu) = aten::__and__(%result.3, %354), scope: __module.model # /home/phil2/Super-Intel-NPU/current/Super-Intel-NPU/venv_offering/lib/python3.12/site-packages/transformers/masking_utils.py:54:0
  %356 : Bool(1, 1, 16, 32, strides=[512, 512, 32, 1], requires_grad=0, device=cpu) = aten::to(%355, %238, %237, %240, %241, %239, %239, %241), scope: __module.model # /home/phil2/Super-Intel-NPU/current/Super-Intel-NPU/venv_offering/lib/python3.12/site-packages/transformers/masking_utils.py:54:0
  %result : Bool(1, 1, 16, 32, strides=[512, 512, 32, 1], requires_grad=0, device=cpu) = aten::__and__(%result.5, %356), scope: __module.model # /home/phil2/Super-Intel-NPU/current/Super-Intel-NPU/venv_offering/lib/python3.12/site-packages/transformers/masking_utils.py:54:0
  %358 : Tensor?[] = prim::ListConstruct(%batch_idx, %kv_idx), scope: __module.model
  %359 : Bool(2, 1, 1, 32, strides=[32, 32, 32, 1], requires_grad=0, device=cpu) = aten::index(%attention_mask.3, %358), scope: __module.model # /home/phil2/Super-Intel-NPU/current/Super-Intel-NPU/venv_offering/lib/python3.12/site-packages/transformers/masking_utils.py:142:0
  %360 : Bool(2, 1, 1, 32, strides=[32, 32, 32, 1], requires_grad=0, device=cpu) = aten::to(%359, %238, %237, %240, %241, %239, %239, %241), scope: __module.model # /home/phil2/Super-Intel-NPU/current/Super-Intel-NPU/venv_offering/lib/python3.12/site-packages/transformers/masking_utils.py:54:0
  %causal_mask : Bool(2, 1, 16, 32, strides=[512, 512, 32, 1], requires_grad=0, device=cpu) = aten::__and__(%result, %360), scope: __module.model # /home/phil2/Super-Intel-NPU/current/Super-Intel-NPU/venv_offering/lib/python3.12/site-packages/transformers/masking_utils.py:54:0
  %362 : int[] = prim::ListConstruct(%328, %231, %329, %326), scope: __module.model
  %mask : Bool(2, 1, 16, 32, strides=[512, 512, 32, 1], requires_grad=0, device=cpu) = aten::expand(%causal_mask, %362, %239), scope: __module.model # /home/phil2/Super-Intel-NPU/current/Super-Intel-NPU/venv_offering/lib/python3.12/site-packages/optimum/exporters/onnx/model_patcher.py:412:0
  %364 : Float(requires_grad=0, device=cpu) = aten::to(%230, %240, %229, %239, %239, %241), scope: __module.model # /home/phil2/Super-Intel-NPU/current/Super-Intel-NPU/venv_offering/lib/python3.12/site-packages/optimum/exporters/openvino/model_patcher.py:207:0
  %365 : Float(requires_grad=0, device=cpu) = aten::detach(%364), scope: __module.model # /home/phil2/Super-Intel-NPU/current/Super-Intel-NPU/venv_offering/lib/python3.12/site-packages/optimum/exporters/openvino/model_patcher.py:207:0
  %366 : Float(requires_grad=0, device=cpu) = aten::to(%228, %240, %229, %239, %239, %241), scope: __module.model # /home/phil2/Super-Intel-NPU/current/Super-Intel-NPU/venv_offering/lib/python3.12/site-packages/optimum/exporters/openvino/model_patcher.py:208:0
  %367 : Float(requires_grad=0, device=cpu) = aten::detach(%366), scope: __module.model # /home/phil2/Super-Intel-NPU/current/Super-Intel-NPU/venv_offering/lib/python3.12/site-packages/optimum/exporters/openvino/model_patcher.py:208:0
  %attention_mask.5 : Float(2, 1, 16, 32, strides=[512, 512, 32, 1], requires_grad=0, device=cpu) = aten::where(%mask, %365, %367), scope: __module.model # /home/phil2/Super-Intel-NPU/current/Super-Intel-NPU/venv_offering/lib/python3.12/site-packages/optimum/exporters/openvino/model_patcher.py:205:0
  %inv_freq : Tensor = prim::GetAttr[name="inv_freq"](%rotary_emb)
  %370 : Float(1, 64, strides=[64, 1], requires_grad=0, device=cpu) = aten::unsqueeze(%inv_freq, %237), scope: __module.model/__module.model.rotary_emb # /home/phil2/Super-Intel-NPU/current/Super-Intel-NPU/venv_offering/lib/python3.12/site-packages/transformers/models/mistral/modeling_mistral.py:293:0
  %371 : Float(1, 64, strides=[64, 1], requires_grad=0, device=cpu) = aten::slice(%370, %242, %237, %236, %242), scope: __module.model/__module.model.rotary_emb # /home/phil2/Super-Intel-NPU/current/Super-Intel-NPU/venv_offering/lib/python3.12/site-packages/transformers/models/mistral/modeling_mistral.py:293:0
  %372 : Float(1, 64, 1, strides=[64, 1, 1], requires_grad=0, device=cpu) = aten::unsqueeze(%371, %243), scope: __module.model/__module.model.rotary_emb # /home/phil2/Super-Intel-NPU/current/Super-Intel-NPU/venv_offering/lib/python3.12/site-packages/transformers/models/mistral/modeling_mistral.py:293:0
  %373 : Float(1, 64, 1, strides=[64, 1, 1], requires_grad=0, device=cpu) = aten::to(%372, %229, %239, %239, %241), scope: __module.model/__module.model.rotary_emb # /home/phil2/Super-Intel-NPU/current/Super-Intel-NPU/venv_offering/lib/python3.12/site-packages/transformers/models/mistral/modeling_mistral.py:293:0
  %374 : int = aten::size(%position_ids, %237), scope: __module.model/__module.model.rotary_emb # /home/phil2/Super-Intel-NPU/current/Super-Intel-NPU/venv_offering/lib/python3.12/site-packages/transformers/models/mistral/modeling_mistral.py:293:0
  %375 : int[] = prim::ListConstruct(%374, %231, %242), scope: __module.model/__module.model.rotary_emb
  %376 : Float(2, 64, 1, strides=[0, 1, 1], requires_grad=0, device=cpu) = aten::expand(%373, %375, %239), scope: __module.model/__module.model.rotary_emb # /home/phil2/Super-Intel-NPU/current/Super-Intel-NPU/venv_offering/lib/python3.12/site-packages/transformers/models/mistral/modeling_mistral.py:293:0
  %inv_freq_expanded.1 : Float(2, 64, 1, strides=[0, 1, 1], requires_grad=0, device=cpu) = aten::to(%376, %229, %237, %240, %241, %239, %239, %241), scope: __module.model/__module.model.rotary_emb # /home/phil2/Super-Intel-NPU/current/Super-Intel-NPU/venv_offering/lib/python3.12/site-packages/transformers/models/mistral/modeling_mistral.py:293:0
  %378 : Long(2, 16, strides=[16, 1], requires_grad=0, device=cpu) = aten::slice(%position_ids, %237, %237, %236, %242), scope: __module.model/__module.model.rotary_emb # /home/phil2/Super-Intel-NPU/current/Super-Intel-NPU/venv_offering/lib/python3.12/site-packages/transformers/models/mistral/modeling_mistral.py:294:0
  %379 : Long(2, 1, 16, strides=[16, 16, 1], requires_grad=0, device=cpu) = aten::unsqueeze(%378, %242), scope: __module.model/__module.model.rotary_emb # /home/phil2/Super-Intel-NPU/current/Super-Intel-NPU/venv_offering/lib/python3.12/site-packages/transformers/models/mistral/modeling_mistral.py:294:0
  %380 : Long(2, 1, 16, strides=[16, 16, 1], requires_grad=0, device=cpu) = aten::slice(%379, %243, %237, %236, %242), scope: __module.model/__module.model.rotary_emb # /home/phil2/Super-Intel-NPU/current/Super-Intel-NPU/venv_offering/lib/python3.12/site-packages/transformers/models/mistral/modeling_mistral.py:294:0
  %position_ids_expanded.1 : Float(2, 1, 16, strides=[16, 16, 1], requires_grad=0, device=cpu) = aten::to(%380, %229, %239, %239, %241), scope: __module.model/__module.model.rotary_emb # /home/phil2/Super-Intel-NPU/current/Super-Intel-NPU/venv_offering/lib/python3.12/site-packages/transformers/models/mistral/modeling_mistral.py:294:0
  %inv_freq_expanded : Float(2, 64, 1, strides=[0, 1, 1], requires_grad=0, device=cpu) = aten::to(%inv_freq_expanded.1, %229, %239, %239, %241), scope: __module.model/__module.model.rotary_emb # /home/phil2/Super-Intel-NPU/current/Super-Intel-NPU/venv_offering/lib/python3.12/site-packages/transformers/models/mistral/modeling_mistral.py:298:0
  %position_ids_expanded : Float(2, 1, 16, strides=[16, 16, 1], requires_grad=0, device=cpu) = aten::to(%position_ids_expanded.1, %229, %239, %239, %241), scope: __module.model/__module.model.rotary_emb # /home/phil2/Super-Intel-NPU/current/Super-Intel-NPU/venv_offering/lib/python3.12/site-packages/transformers/models/mistral/modeling_mistral.py:298:0
  %384 : Float(2, 64, 16, strides=[1024, 16, 1], requires_grad=0, device=cpu) = aten::matmul(%inv_freq_expanded, %position_ids_expanded), scope: __module.model/__module.model.rotary_emb # /home/phil2/Super-Intel-NPU/current/Super-Intel-NPU/venv_offering/lib/python3.12/site-packages/transformers/models/mistral/modeling_mistral.py:298:0
  %freqs : Float(2, 16, 64, strides=[1024, 1, 16], requires_grad=0, device=cpu) = aten::transpose(%384, %242, %243), scope: __module.model/__module.model.rotary_emb # /home/phil2/Super-Intel-NPU/current/Super-Intel-NPU/venv_offering/lib/python3.12/site-packages/transformers/models/mistral/modeling_mistral.py:298:0
  %386 : Tensor[] = prim::ListConstruct(%freqs, %freqs), scope: __module.model/__module.model.rotary_emb
  %emb : Float(2, 16, 128, strides=[2048, 128, 1], requires_grad=0, device=cpu) = aten::cat(%386, %231), scope: __module.model/__module.model.rotary_emb # /home/phil2/Super-Intel-NPU/current/Super-Intel-NPU/venv_offering/lib/python3.12/site-packages/transformers/models/mistral/modeling_mistral.py:299:0
  %388 : Float(2, 16, 128, strides=[2048, 128, 1], requires_grad=0, device=cpu) = aten::cos(%emb), scope: __module.model/__module.model.rotary_emb # /home/phil2/Super-Intel-NPU/current/Super-Intel-NPU/venv_offering/lib/python3.12/site-packages/transformers/models/mistral/modeling_mistral.py:300:0
  %cos.1 : Float(2, 16, 128, strides=[2048, 128, 1], requires_grad=0, device=cpu) = aten::mul(%388, %227), scope: __module.model/__module.model.rotary_emb # /home/phil2/Super-Intel-NPU/current/Super-Intel-NPU/venv_offering/lib/python3.12/site-packages/transformers/models/mistral/modeling_mistral.py:300:0
  %390 : Float(2, 16, 128, strides=[2048, 128, 1], requires_grad=0, device=cpu) = aten::sin(%emb), scope: __module.model/__module.model.rotary_emb # /home/phil2/Super-Intel-NPU/current/Super-Intel-NPU/venv_offering/lib/python3.12/site-packages/transformers/models/mistral/modeling_mistral.py:301:0
  %sin.1 : Float(2, 16, 128, strides=[2048, 128, 1], requires_grad=0, device=cpu) = aten::mul(%390, %227), scope: __module.model/__module.model.rotary_emb # /home/phil2/Super-Intel-NPU/current/Super-Intel-NPU/venv_offering/lib/python3.12/site-packages/transformers/models/mistral/modeling_mistral.py:301:0
  %cos.3 : Float(2, 16, 128, strides=[2048, 128, 1], requires_grad=0, device=cpu) = aten::to(%cos.1, %229, %239, %239, %241), scope: __module.model/__module.model.rotary_emb # /home/phil2/Super-Intel-NPU/current/Super-Intel-NPU/venv_offering/lib/python3.12/site-packages/transformers/models/mistral/modeling_mistral.py:303:0
  %sin.3 : Float(2, 16, 128, strides=[2048, 128, 1], requires_grad=0, device=cpu) = aten::to(%sin.1, %229, %239, %239, %241), scope: __module.model/__module.model.rotary_emb # /home/phil2/Super-Intel-NPU/current/Super-Intel-NPU/venv_offering/lib/python3.12/site-packages/transformers/models/mistral/modeling_mistral.py:303:0
  %394 : (Float(2, 16, 128, strides=[2048, 128, 1], requires_grad=0, device=cpu), Float(2, 16, 128, strides=[2048, 128, 1], requires_grad=0, device=cpu)) = prim::TupleConstruct(%cos.3, %sin.3)
  %395 : Float(2, 16, 128, strides=[2048, 128, 1], requires_grad=0, device=cpu), %396 : Float(2, 16, 128, strides=[2048, 128, 1], requires_grad=0, device=cpu) = prim::TupleUnpack(%394)
  %mlp.1 : __torch__.transformers.models.mistral.modeling_mistral.MistralMLP = prim::GetAttr[name="mlp"](%_0)
  %post_attention_layernorm.1 : __torch__.transformers.models.mistral.modeling_mistral.___torch_mangle_6.MistralRMSNorm = prim::GetAttr[name="post_attention_layernorm"](%_0)
  %self_attn.1 : __torch__.transformers.models.mistral.modeling_mistral.MistralAttention = prim::GetAttr[name="self_attn"](%_0)
  %input_layernorm.1 : __torch__.transformers.models.mistral.modeling_mistral.MistralRMSNorm = prim::GetAttr[name="input_layernorm"](%_0)
  %weight.3 : Tensor = prim::GetAttr[name="weight"](%input_layernorm.1)
  %hidden_states.1 : Float(2, 16, 4096, strides=[65536, 4096, 1], requires_grad=0, device=cpu) = aten::to(%inputs_embeds, %229, %239, %239, %241), scope: __module.model/__module.model.layers.0/__module.model.layers.0.input_layernorm # /home/phil2/Super-Intel-NPU/current/Super-Intel-NPU/venv_offering/lib/python3.12/site-packages/transformers/models/mistral/modeling_mistral.py:198:0
  %403 : Float(2, 16, 4096, strides=[65536, 4096, 1], requires_grad=0, device=cpu) = aten::pow(%hidden_states.1, %243), scope: __module.model/__module.model.layers.0/__module.model.layers.0.input_layernorm # /home/phil2/Super-Intel-NPU/current/Super-Intel-NPU/venv_offering/lib/python3.12/site-packages/transformers/models/mistral/modeling_mistral.py:199:0
  %404 : int[] = prim::ListConstruct(%231), scope: __module.model/__module.model.layers.0/__module.model.layers.0.input_layernorm
  %variance.1 : Float(2, 16, 1, strides=[16, 1, 1], requires_grad=0, device=cpu) = aten::mean(%403, %404, %220, %241), scope: __module.model/__module.model.layers.0/__module.model.layers.0.input_layernorm # /home/phil2/Super-Intel-NPU/current/Super-Intel-NPU/venv_offering/lib/python3.12/site-packages/transformers/models/mistral/modeling_mistral.py:199:0
  %406 : Float(2, 16, 1, strides=[16, 1, 1], requires_grad=0, device=cpu) = aten::add(%variance.1, %219, %242), scope: __module.model/__module.model.layers.0/__module.model.layers.0.input_layernorm # /home/phil2/Super-Intel-NPU/current/Super-Intel-NPU/venv_offering/lib/python3.12/site-packages/transformers/models/mistral/modeling_mistral.py:200:0
  %407 : Float(2, 16, 1, strides=[16, 1, 1], requires_grad=0, device=cpu) = aten::rsqrt(%406), scope: __module.model/__module.model.layers.0/__module.model.layers.0.input_layernorm # /home/phil2/Super-Intel-NPU/current/Super-Intel-NPU/venv_offering/lib/python3.12/site-packages/transformers/models/mistral/modeling_mistral.py:200:0
  %hidden_states.3 : Float(2, 16, 4096, strides=[65536, 4096, 1], requires_grad=0, device=cpu) = aten::mul(%hidden_states.1, %407), scope: __module.model/__module.model.layers.0/__module.model.layers.0.input_layernorm # /home/phil2/Super-Intel-NPU/current/Super-Intel-NPU/venv_offering/lib/python3.12/site-packages/transformers/models/mistral/modeling_mistral.py:200:0
  %hidden_states.5 : Float(2, 16, 4096, strides=[65536, 4096, 1], requires_grad=0, device=cpu) = aten::to(%hidden_states.3, %229, %239, %239, %241), scope: __module.model/__module.model.layers.0/__module.model.layers.0.input_layernorm # /home/phil2/Super-Intel-NPU/current/Super-Intel-NPU/venv_offering/lib/python3.12/site-packages/transformers/models/mistral/modeling_mistral.py:201:0
  %hidden_states.7 : Float(2, 16, 4096, strides=[65536, 4096, 1], requires_grad=0, device=cpu) = aten::mul(%weight.3, %hidden_states.5), scope: __module.model/__module.model.layers.0/__module.model.layers.0.input_layernorm # /home/phil2/Super-Intel-NPU/current/Super-Intel-NPU/venv_offering/lib/python3.12/site-packages/transformers/models/mistral/modeling_mistral.py:201:0
  %411 : (Float(2, 16, 4096, strides=[65536, 4096, 1], requires_grad=0, device=cpu), Float(2, 16, 4096, strides=[65536, 4096, 1], requires_grad=0, device=cpu)) = prim::TupleConstruct(%hidden_states.7, %hidden_states.1)
  %412 : Float(2, 16, 4096, strides=[65536, 4096, 1], requires_grad=0, device=cpu), %413 : Float(2, 16, 4096, strides=[65536, 4096, 1], requires_grad=0, device=cpu) = prim::TupleUnpack(%411)
  %o_proj.1 : __torch__.torch.nn.modules.linear.___torch_mangle_2.Linear = prim::GetAttr[name="o_proj"](%self_attn.1)
  %v_proj.1 : __torch__.torch.nn.modules.linear.___torch_mangle_1.Linear = prim::GetAttr[name="v_proj"](%self_attn.1)
  %k_proj.1 : __torch__.torch.nn.modules.linear.___torch_mangle_0.Linear = prim::GetAttr[name="k_proj"](%self_attn.1)
  %q_proj.1 : __torch__.torch.nn.modules.linear.Linear = prim::GetAttr[name="q_proj"](%self_attn.1)
  %418 : int = aten::size(%412, %237), scope: __module.model/__module.model.layers.0/__module.model.layers.0.self_attn # /home/phil2/Super-Intel-NPU/current/Super-Intel-NPU/venv_offering/lib/python3.12/site-packages/transformers/models/mistral/modeling_mistral.py:150:0
  %419 : int = aten::size(%412, %242), scope: __module.model/__module.model.layers.0/__module.model.layers.0.self_attn # /home/phil2/Super-Intel-NPU/current/Super-Intel-NPU/venv_offering/lib/python3.12/site-packages/transformers/models/mistral/modeling_mistral.py:150:0
  %weight.5 : Tensor = prim::GetAttr[name="weight"](%q_proj.1)
  %421 : Float(2, 16, 4096, strides=[65536, 4096, 1], requires_grad=0, device=cpu) = ^Trampoline[inplace=0, module="openvino.frontend.pytorch.patch_model", Subgraph=<Graph>](None)(%412, %weight.5), scope: __module.model/__module.model.layers.0/__module.model.layers.0.self_attn/__module.model.layers.0.self_attn.q_proj # /home/phil2/Super-Intel-NPU/current/Super-Intel-NPU/venv_offering/lib/python3.12/site-packages/torch/autograd/function.py:581:0
  %422 : int[] = prim::ListConstruct(%418, %419, %231, %226), scope: __module.model/__module.model.layers.0/__module.model.layers.0.self_attn
  %423 : Float(2, 16, 32, 128, strides=[65536, 4096, 128, 1], requires_grad=0, device=cpu) = aten::view(%421, %422), scope: __module.model/__module.model.layers.0/__module.model.layers.0.self_attn # /home/phil2/Super-Intel-NPU/current/Super-Intel-NPU/venv_offering/lib/python3.12/site-packages/transformers/models/mistral/modeling_mistral.py:153:0
  %q.1 : Float(2, 32, 16, 128, strides=[65536, 128, 4096, 1], requires_grad=0, device=cpu) = aten::transpose(%423, %242, %243), scope: __module.model/__module.model.layers.0/__module.model.layers.0.self_attn # /home/phil2/Super-Intel-NPU/current/Super-Intel-NPU/venv_offering/lib/python3.12/site-packages/transformers/models/mistral/modeling_mistral.py:153:0
  %weight.7 : Tensor = prim::GetAttr[name="weight"](%k_proj.1)
  %426 : Float(2, 16, 1024, strides=[16384, 1024, 1], requires_grad=0, device=cpu) = ^Trampoline[inplace=0, module="openvino.frontend.pytorch.patch_model", Subgraph=<Graph>](None)(%412, %weight.7), scope: __module.model/__module.model.layers.0/__module.model.layers.0.self_attn/__module.model.layers.0.self_attn.k_proj # /home/phil2/Super-Intel-NPU/current/Super-Intel-NPU/venv_offering/lib/python3.12/site-packages/torch/autograd/function.py:581:0
  %427 : int[] = prim::ListConstruct(%418, %419, %231, %226), scope: __module.model/__module.model.layers.0/__module.model.layers.0.self_attn
  %428 : Float(2, 16, 8, 128, strides=[16384, 1024, 128, 1], requires_grad=0, device=cpu) = aten::view(%426, %427), scope: __module.model/__module.model.layers.0/__module.model.layers.0.self_attn # /home/phil2/Super-Intel-NPU/current/Super-Intel-NPU/venv_offering/lib/python3.12/site-packages/transformers/models/mistral/modeling_mistral.py:154:0
  %k.1 : Float(2, 8, 16, 128, strides=[16384, 128, 1024, 1], requires_grad=0, device=cpu) = aten::transpose(%428, %242, %243), scope: __module.model/__module.model.layers.0/__module.model.layers.0.self_attn # /home/phil2/Super-Intel-NPU/current/Super-Intel-NPU/venv_offering/lib/python3.12/site-packages/transformers/models/mistral/modeling_mistral.py:154:0
  %weight.9 : Tensor = prim::GetAttr[name="weight"](%v_proj.1)
  %431 : Float(2, 16, 1024, strides=[16384, 1024, 1], requires_grad=0, device=cpu) = ^Trampoline[inplace=0, module="openvino.frontend.pytorch.patch_model", Subgraph=<Graph>](None)(%412, %weight.9), scope: __module.model/__module.model.layers.0/__module.model.layers.0.self_attn/__module.model.layers.0.self_attn.v_proj # /home/phil2/Super-Intel-NPU/current/Super-Intel-NPU/venv_offering/lib/python3.12/site-packages/torch/autograd/function.py:581:0
  %432 : int[] = prim::ListConstruct(%418, %419, %231, %226), scope: __module.model/__module.model.layers.0/__module.model.layers.0.self_attn
  %433 : Float(2, 16, 8, 128, strides=[16384, 1024, 128, 1], requires_grad=0, device=cpu) = aten::view(%431, %432), scope: __module.model/__module.model.layers.0/__module.model.layers.0.self_attn # /home/phil2/Super-Intel-NPU/current/Super-Intel-NPU/venv_offering/lib/python3.12/site-packages/transformers/models/mistral/modeling_mistral.py:155:0
  %value_states.1 : Float(2, 8, 16, 128, strides=[16384, 128, 1024, 1], requires_grad=0, device=cpu) = aten::transpose(%433, %242, %243), scope: __module.model/__module.model.layers.0/__module.model.layers.0.self_attn # /home/phil2/Super-Intel-NPU/current/Super-Intel-NPU/venv_offering/lib/python3.12/site-packages/transformers/models/mistral/modeling_mistral.py:155:0
  %cos.5 : Float(2, 1, 16, 128, strides=[2048, 2048, 128, 1], requires_grad=0, device=cpu) = aten::unsqueeze(%395, %242), scope: __module.model/__module.model.layers.0/__module.model.layers.0.self_attn # /home/phil2/Super-Intel-NPU/current/Super-Intel-NPU/venv_offering/lib/python3.12/site-packages/transformers/models/mistral/modeling_mistral.py:78:0
  %sin.5 : Float(2, 1, 16, 128, strides=[2048, 2048, 128, 1], requires_grad=0, device=cpu) = aten::unsqueeze(%396, %242), scope: __module.model/__module.model.layers.0/__module.model.layers.0.self_attn # /home/phil2/Super-Intel-NPU/current/Super-Intel-NPU/venv_offering/lib/python3.12/site-packages/transformers/models/mistral/modeling_mistral.py:79:0
  %437 : Float(2, 32, 16, 128, strides=[65536, 128, 4096, 1], requires_grad=0, device=cpu) = aten::mul(%q.1, %cos.5), scope: __module.model/__module.model.layers.0/__module.model.layers.0.self_attn # /home/phil2/Super-Intel-NPU/current/Super-Intel-NPU/venv_offering/lib/python3.12/site-packages/transformers/models/mistral/modeling_mistral.py:80:0
  %438 : int = aten::size(%q.1, %235), scope: __module.model/__module.model.layers.0/__module.model.layers.0.self_attn # /home/phil2/Super-Intel-NPU/current/Super-Intel-NPU/venv_offering/lib/python3.12/site-packages/transformers/models/mistral/modeling_mistral.py:53:0
  %439 : Long(device=cpu) = prim::NumToTensor(%438), scope: __module.model/__module.model.layers.0/__module.model.layers.0.self_attn
  %440 : Long(requires_grad=0, device=cpu) = aten::floor_divide(%439, %225), scope: __module.model/__module.model.layers.0/__module.model.layers.0.self_attn # /home/phil2/Super-Intel-NPU/current/Super-Intel-NPU/venv_offering/lib/python3.12/site-packages/torch/_tensor.py:1119:0
  %441 : int = aten::Int(%440), scope: __module.model/__module.model.layers.0/__module.model.layers.0.self_attn
  %x1.1 : Float(2, 32, 16, 64, strides=[65536, 128, 4096, 1], requires_grad=0, device=cpu) = aten::slice(%q.1, %235, %237, %441, %242), scope: __module.model/__module.model.layers.0/__module.model.layers.0.self_attn # /home/phil2/Super-Intel-NPU/current/Super-Intel-NPU/venv_offering/lib/python3.12/site-packages/transformers/models/mistral/modeling_mistral.py:53:0
  %443 : int = aten::size(%q.1, %235), scope: __module.model/__module.model.layers.0/__module.model.layers.0.self_attn # /home/phil2/Super-Intel-NPU/current/Super-Intel-NPU/venv_offering/lib/python3.12/site-packages/transformers/models/mistral/modeling_mistral.py:54:0
  %444 : Long(device=cpu) = prim::NumToTensor(%443), scope: __module.model/__module.model.layers.0/__module.model.layers.0.self_attn
  %445 : Long(requires_grad=0, device=cpu) = aten::floor_divide(%444, %225), scope: __module.model/__module.model.layers.0/__module.model.layers.0.self_attn # /home/phil2/Super-Intel-NPU/current/Super-Intel-NPU/venv_offering/lib/python3.12/site-packages/torch/_tensor.py:1119:0
  %446 : int = aten::Int(%445), scope: __module.model/__module.model.layers.0/__module.model.layers.0.self_attn
  %x2.1 : Float(2, 32, 16, 64, strides=[65536, 128, 4096, 1], requires_grad=0, device=cpu) = aten::slice(%q.1, %235, %446, %236, %242), scope: __module.model/__module.model.layers.0/__module.model.layers.0.self_attn # /home/phil2/Super-Intel-NPU/current/Super-Intel-NPU/venv_offering/lib/python3.12/site-packages/transformers/models/mistral/modeling_mistral.py:54:0
  %448 : Float(2, 32, 16, 64, strides=[32768, 64, 2048, 1], requires_grad=0, device=cpu) = aten::neg(%x2.1), scope: __module.model/__module.model.layers.0/__module.model.layers.0.self_attn # /home/phil2/Super-Intel-NPU/current/Super-Intel-NPU/venv_offering/lib/python3.12/site-packages/transformers/models/mistral/modeling_mistral.py:55:0
  %449 : Tensor[] = prim::ListConstruct(%448, %x1.1), scope: __module.model/__module.model.layers.0/__module.model.layers.0.self_attn
  %450 : Float(2, 32, 16, 128, strides=[65536, 2048, 128, 1], requires_grad=0, device=cpu) = aten::cat(%449, %231), scope: __module.model/__module.model.layers.0/__module.model.layers.0.self_attn # /home/phil2/Super-Intel-NPU/current/Super-Intel-NPU/venv_offering/lib/python3.12/site-packages/transformers/models/mistral/modeling_mistral.py:55:0
  %451 : Float(2, 32, 16, 128, strides=[65536, 2048, 128, 1], requires_grad=0, device=cpu) = aten::mul(%450, %sin.5), scope: __module.model/__module.model.layers.0/__module.model.layers.0.self_attn # /home/phil2/Super-Intel-NPU/current/Super-Intel-NPU/venv_offering/lib/python3.12/site-packages/transformers/models/mistral/modeling_mistral.py:80:0
  %query.1 : Float(2, 32, 16, 128, strides=[65536, 128, 4096, 1], requires_grad=0, device=cpu) = aten::add(%437, %451, %242), scope: __module.model/__module.model.layers.0/__module.model.layers.0.self_attn # /home/phil2/Super-Intel-NPU/current/Super-Intel-NPU/venv_offering/lib/python3.12/site-packages/transformers/models/mistral/modeling_mistral.py:80:0
  %453 : Float(2, 8, 16, 128, strides=[16384, 128, 1024, 1], requires_grad=0, device=cpu) = aten::mul(%k.1, %cos.5), scope: __module.model/__module.model.layers.0/__module.model.layers.0.self_attn # /home/phil2/Super-Intel-NPU/current/Super-Intel-NPU/venv_offering/lib/python3.12/site-packages/transformers/models/mistral/modeling_mistral.py:81:0
  %454 : int = aten::size(%k.1, %235), scope: __module.model/__module.model.layers.0/__module.model.layers.0.self_attn # /home/phil2/Super-Intel-NPU/current/Super-Intel-NPU/venv_offering/lib/python3.12/site-packages/transformers/models/mistral/modeling_mistral.py:53:0
  %455 : Long(device=cpu) = prim::NumToTensor(%454), scope: __module.model/__module.model.layers.0/__module.model.layers.0.self_attn
  %456 : Long(requires_grad=0, device=cpu) = aten::floor_divide(%455, %225), scope: __module.model/__module.model.layers.0/__module.model.layers.0.self_attn # /home/phil2/Super-Intel-NPU/current/Super-Intel-NPU/venv_offering/lib/python3.12/site-packages/torch/_tensor.py:1119:0
  %457 : int = aten::Int(%456), scope: __module.model/__module.model.layers.0/__module.model.layers.0.self_attn
  %x1.3 : Float(2, 8, 16, 64, strides=[16384, 128, 1024, 1], requires_grad=0, device=cpu) = aten::slice(%k.1, %235, %237, %457, %242), scope: __module.model/__module.model.layers.0/__module.model.layers.0.self_attn # /home/phil2/Super-Intel-NPU/current/Super-Intel-NPU/venv_offering/lib/python3.12/site-packages/transformers/models/mistral/modeling_mistral.py:53:0
  %459 : int = aten::size(%k.1, %235), scope: __module.model/__module.model.layers.0/__module.model.layers.0.self_attn # /home/phil2/Super-Intel-NPU/current/Super-Intel-NPU/venv_offering/lib/python3.12/site-packages/transformers/models/mistral/modeling_mistral.py:54:0
  %460 : Long(device=cpu) = prim::NumToTensor(%459), scope: __module.model/__module.model.layers.0/__module.model.layers.0.self_attn
  %461 : Long(requires_grad=0, device=cpu) = aten::floor_divide(%460, %225), scope: __module.model/__module.model.layers.0/__module.model.layers.0.self_attn # /home/phil2/Super-Intel-NPU/current/Super-Intel-NPU/venv_offering/lib/python3.12/site-packages/torch/_tensor.py:1119:0
  %462 : int = aten::Int(%461), scope: __module.model/__module.model.layers.0/__module.model.layers.0.self_attn
  %x2.3 : Float(2, 8, 16, 64, strides=[16384, 128, 1024, 1], requires_grad=0, device=cpu) = aten::slice(%k.1, %235, %462, %236, %242), scope: __module.model/__module.model.layers.0/__module.model.layers.0.self_attn # /home/phil2/Super-Intel-NPU/current/Super-Intel-NPU/venv_offering/lib/python3.12/site-packages/transformers/models/mistral/modeling_mistral.py:54:0
  %464 : Float(2, 8, 16, 64, strides=[8192, 64, 512, 1], requires_grad=0, device=cpu) = aten::neg(%x2.3), scope: __module.model/__module.model.layers.0/__module.model.layers.0.self_attn # /home/phil2/Super-Intel-NPU/current/Super-Intel-NPU/venv_offering/lib/python3.12/site-packages/transformers/models/mistral/modeling_mistral.py:55:0
  %465 : Tensor[] = prim::ListConstruct(%464, %x1.3), scope: __module.model/__module.model.layers.0/__module.model.layers.0.self_attn
  %466 : Float(2, 8, 16, 128, strides=[16384, 2048, 128, 1], requires_grad=0, device=cpu) = aten::cat(%465, %231), scope: __module.model/__module.model.layers.0/__module.model.layers.0.self_attn # /home/phil2/Super-Intel-NPU/current/Super-Intel-NPU/venv_offering/lib/python3.12/site-packages/transformers/models/mistral/modeling_mistral.py:55:0
  %467 : Float(2, 8, 16, 128, strides=[16384, 2048, 128, 1], requires_grad=0, device=cpu) = aten::mul(%466, %sin.5), scope: __module.model/__module.model.layers.0/__module.model.layers.0.self_attn # /home/phil2/Super-Intel-NPU/current/Super-Intel-NPU/venv_offering/lib/python3.12/site-packages/transformers/models/mistral/modeling_mistral.py:81:0
  %key_states.1 : Float(2, 8, 16, 128, strides=[16384, 128, 1024, 1], requires_grad=0, device=cpu) = aten::add(%453, %467, %242), scope: __module.model/__module.model.layers.0/__module.model.layers.0.self_attn # /home/phil2/Super-Intel-NPU/current/Super-Intel-NPU/venv_offering/lib/python3.12/site-packages/transformers/models/mistral/modeling_mistral.py:81:0
  %469 : Tensor[] = prim::ListConstruct(%39, %key_states.1), scope: __module.model/__module.model.layers.0/__module.model.layers.0.self_attn
  %hidden_states.9 : Float(2, 8, 32, 128, strides=[32768, 4096, 128, 1], requires_grad=0, device=cpu) = aten::cat(%469, %224), scope: __module.model/__module.model.layers.0/__module.model.layers.0.self_attn # /home/phil2/Super-Intel-NPU/current/Super-Intel-NPU/venv_offering/lib/python3.12/site-packages/optimum/exporters/onnx/model_patcher.py:500:0
  %471 : Tensor[] = prim::ListConstruct(%40, %value_states.1), scope: __module.model/__module.model.layers.0/__module.model.layers.0.self_attn
  %hidden_states.13 : Float(2, 8, 32, 128, strides=[32768, 4096, 128, 1], requires_grad=0, device=cpu) = aten::cat(%471, %224), scope: __module.model/__module.model.layers.0/__module.model.layers.0.self_attn # /home/phil2/Super-Intel-NPU/current/Super-Intel-NPU/venv_offering/lib/python3.12/site-packages/optimum/exporters/onnx/model_patcher.py:501:0
  %473 : int = aten::size(%hidden_states.9, %237), scope: __module.model/__module.model.layers.0/__module.model.layers.0.self_attn # /home/phil2/Super-Intel-NPU/current/Super-Intel-NPU/venv_offering/lib/python3.12/site-packages/transformers/integrations/sdpa_attention.py:23:0
  %474 : int = aten::size(%hidden_states.9, %242), scope: __module.model/__module.model.layers.0/__module.model.layers.0.self_attn # /home/phil2/Super-Intel-NPU/current/Super-Intel-NPU/venv_offering/lib/python3.12/site-packages/transformers/integrations/sdpa_attention.py:23:0
  %num_key_value_heads.1 : Long(device=cpu) = prim::NumToTensor(%474), scope: __module.model/__module.model.layers.0/__module.model.layers.0.self_attn
  %476 : int = aten::size(%hidden_states.9, %243), scope: __module.model/__module.model.layers.0/__module.model.layers.0.self_attn # /home/phil2/Super-Intel-NPU/current/Super-Intel-NPU/venv_offering/lib/python3.12/site-packages/transformers/integrations/sdpa_attention.py:23:0
  %477 : int = aten::size(%hidden_states.9, %235), scope: __module.model/__module.model.layers.0/__module.model.layers.0.self_attn # /home/phil2/Super-Intel-NPU/current/Super-Intel-NPU/venv_offering/lib/python3.12/site-packages/transformers/integrations/sdpa_attention.py:23:0
  %478 : Float(2, 8, 32, 128, strides=[32768, 4096, 128, 1], requires_grad=0, device=cpu) = aten::slice(%hidden_states.9, %237, %237, %236, %242), scope: __module.model/__module.model.layers.0/__module.model.layers.0.self_attn # /home/phil2/Super-Intel-NPU/current/Super-Intel-NPU/venv_offering/lib/python3.12/site-packages/transformers/integrations/sdpa_attention.py:26:0
  %479 : Float(2, 8, 32, 128, strides=[32768, 4096, 128, 1], requires_grad=0, device=cpu) = aten::slice(%478, %242, %237, %236, %242), scope: __module.model/__module.model.layers.0/__module.model.layers.0.self_attn # /home/phil2/Super-Intel-NPU/current/Super-Intel-NPU/venv_offering/lib/python3.12/site-packages/transformers/integrations/sdpa_attention.py:26:0
  %480 : Float(2, 8, 1, 32, 128, strides=[32768, 4096, 4096, 128, 1], requires_grad=0, device=cpu) = aten::unsqueeze(%479, %243), scope: __module.model/__module.model.layers.0/__module.model.layers.0.self_attn # /home/phil2/Super-Intel-NPU/current/Super-Intel-NPU/venv_offering/lib/python3.12/site-packages/transformers/integrations/sdpa_attention.py:26:0
  %481 : Float(2, 8, 1, 32, 128, strides=[32768, 4096, 4096, 128, 1], requires_grad=0, device=cpu) = aten::slice(%480, %235, %237, %236, %242), scope: __module.model/__module.model.layers.0/__module.model.layers.0.self_attn # /home/phil2/Super-Intel-NPU/current/Super-Intel-NPU/venv_offering/lib/python3.12/site-packages/transformers/integrations/sdpa_attention.py:26:0
  %482 : Float(2, 8, 1, 32, 128, strides=[32768, 4096, 4096, 128, 1], requires_grad=0, device=cpu) = aten::slice(%481, %234, %237, %236, %242), scope: __module.model/__module.model.layers.0/__module.model.layers.0.self_attn # /home/phil2/Super-Intel-NPU/current/Super-Intel-NPU/venv_offering/lib/python3.12/site-packages/transformers/integrations/sdpa_attention.py:26:0
  %483 : int[] = prim::ListConstruct(%473, %474, %234, %476, %477), scope: __module.model/__module.model.layers.0/__module.model.layers.0.self_attn
  %hidden_states.11 : Float(2, 8, 4, 32, 128, strides=[32768, 4096, 0, 128, 1], requires_grad=0, device=cpu) = aten::expand(%482, %483, %239), scope: __module.model/__module.model.layers.0/__module.model.layers.0.self_attn # /home/phil2/Super-Intel-NPU/current/Super-Intel-NPU/venv_offering/lib/python3.12/site-packages/transformers/integrations/sdpa_attention.py:26:0
  %485 : Long(requires_grad=0, device=cpu) = aten::mul(%num_key_value_heads.1, %223), scope: __module.model/__module.model.layers.0/__module.model.layers.0.self_attn # /home/phil2/Super-Intel-NPU/current/Super-Intel-NPU/venv_offering/lib/python3.12/site-packages/transformers/integrations/sdpa_attention.py:27:0
  %486 : int = aten::Int(%485), scope: __module.model/__module.model.layers.0/__module.model.layers.0.self_attn
  %487 : int[] = prim::ListConstruct(%473, %486, %476, %477), scope: __module.model/__module.model.layers.0/__module.model.layers.0.self_attn
  %key.1 : Float(2, 32, 32, 128, strides=[131072, 4096, 128, 1], requires_grad=0, device=cpu) = aten::reshape(%hidden_states.11, %487), scope: __module.model/__module.model.layers.0/__module.model.layers.0.self_attn # /home/phil2/Super-Intel-NPU/current/Super-Intel-NPU/venv_offering/lib/python3.12/site-packages/transformers/integrations/sdpa_attention.py:27:0
  %489 : int = aten::size(%hidden_states.13, %237), scope: __module.model/__module.model.layers.0/__module.model.layers.0.self_attn # /home/phil2/Super-Intel-NPU/current/Super-Intel-NPU/venv_offering/lib/python3.12/site-packages/transformers/integrations/sdpa_attention.py:23:0
  %490 : int = aten::size(%hidden_states.13, %242), scope: __module.model/__module.model.layers.0/__module.model.layers.0.self_attn # /home/phil2/Super-Intel-NPU/current/Super-Intel-NPU/venv_offering/lib/python3.12/site-packages/transformers/integrations/sdpa_attention.py:23:0
  %num_key_value_heads.3 : Long(device=cpu) = prim::NumToTensor(%490), scope: __module.model/__module.model.layers.0/__module.model.layers.0.self_attn
  %492 : int = aten::size(%hidden_states.13, %243), scope: __module.model/__module.model.layers.0/__module.model.layers.0.self_attn # /home/phil2/Super-Intel-NPU/current/Super-Intel-NPU/venv_offering/lib/python3.12/site-packages/transformers/integrations/sdpa_attention.py:23:0
  %493 : int = aten::size(%hidden_states.13, %235), scope: __module.model/__module.model.layers.0/__module.model.layers.0.self_attn # /home/phil2/Super-Intel-NPU/current/Super-Intel-NPU/venv_offering/lib/python3.12/site-packages/transformers/integrations/sdpa_attention.py:23:0
  %494 : Float(2, 8, 32, 128, strides=[32768, 4096, 128, 1], requires_grad=0, device=cpu) = aten::slice(%hidden_states.13, %237, %237, %236, %242), scope: __module.model/__module.model.layers.0/__module.model.layers.0.self_attn # /home/phil2/Super-Intel-NPU/current/Super-Intel-NPU/venv_offering/lib/python3.12/site-packages/transformers/integrations/sdpa_attention.py:26:0
  %495 : Float(2, 8, 32, 128, strides=[32768, 4096, 128, 1], requires_grad=0, device=cpu) = aten::slice(%494, %242, %237, %236, %242), scope: __module.model/__module.model.layers.0/__module.model.layers.0.self_attn # /home/phil2/Super-Intel-NPU/current/Super-Intel-NPU/venv_offering/lib/python3.12/site-packages/transformers/integrations/sdpa_attention.py:26:0
  %496 : Float(2, 8, 1, 32, 128, strides=[32768, 4096, 4096, 128, 1], requires_grad=0, device=cpu) = aten::unsqueeze(%495, %243), scope: __module.model/__module.model.layers.0/__module.model.layers.0.self_attn # /home/phil2/Super-Intel-NPU/current/Super-Intel-NPU/venv_offering/lib/python3.12/site-packages/transformers/integrations/sdpa_attention.py:26:0
  %497 : Float(2, 8, 1, 32, 128, strides=[32768, 4096, 4096, 128, 1], requires_grad=0, device=cpu) = aten::slice(%496, %235, %237, %236, %242), scope: __module.model/__module.model.layers.0/__module.model.layers.0.self_attn # /home/phil2/Super-Intel-NPU/current/Super-Intel-NPU/venv_offering/lib/python3.12/site-packages/transformers/integrations/sdpa_attention.py:26:0
  %498 : Float(2, 8, 1, 32, 128, strides=[32768, 4096, 4096, 128, 1], requires_grad=0, device=cpu) = aten::slice(%497, %234, %237, %236, %242), scope: __module.model/__module.model.layers.0/__module.model.layers.0.self_attn # /home/phil2/Super-Intel-NPU/current/Super-Intel-NPU/venv_offering/lib/python3.12/site-packages/transformers/integrations/sdpa_attention.py:26:0
  %499 : int[] = prim::ListConstruct(%489, %490, %234, %492, %493), scope: __module.model/__module.model.layers.0/__module.model.layers.0.self_attn
  %hidden_states.15 : Float(2, 8, 4, 32, 128, strides=[32768, 4096, 0, 128, 1], requires_grad=0, device=cpu) = aten::expand(%498, %499, %239), scope: __module.model/__module.model.layers.0/__module.model.layers.0.self_attn # /home/phil2/Super-Intel-NPU/current/Super-Intel-NPU/venv_offering/lib/python3.12/site-packages/transformers/integrations/sdpa_attention.py:26:0
  %501 : Long(requires_grad=0, device=cpu) = aten::mul(%num_key_value_heads.3, %223), scope: __module.model/__module.model.layers.0/__module.model.layers.0.self_attn # /home/phil2/Super-Intel-NPU/current/Super-Intel-NPU/venv_offering/lib/python3.12/site-packages/transformers/integrations/sdpa_attention.py:27:0
  %502 : int = aten::Int(%501), scope: __module.model/__module.model.layers.0/__module.model.layers.0.self_attn
  %503 : int[] = prim::ListConstruct(%489, %502, %492, %493), scope: __module.model/__module.model.layers.0/__module.model.layers.0.self_attn
  %value.1 : Float(2, 32, 32, 128, strides=[131072, 4096, 128, 1], requires_grad=0, device=cpu) = aten::reshape(%hidden_states.15, %503), scope: __module.model/__module.model.layers.0/__module.model.layers.0.self_attn # /home/phil2/Super-Intel-NPU/current/Super-Intel-NPU/venv_offering/lib/python3.12/site-packages/transformers/integrations/sdpa_attention.py:27:0
  %505 : int = aten::size(%key.1, %243), scope: __module.model/__module.model.layers.0/__module.model.layers.0.self_attn # /home/phil2/Super-Intel-NPU/current/Super-Intel-NPU/venv_offering/lib/python3.12/site-packages/transformers/integrations/sdpa_attention.py:73:0
  %506 : Float(2, 1, 16, 32, strides=[512, 512, 32, 1], requires_grad=0, device=cpu) = aten::slice(%attention_mask.5, %237, %237, %236, %242), scope: __module.model/__module.model.layers.0/__module.model.layers.0.self_attn # /home/phil2/Super-Intel-NPU/current/Super-Intel-NPU/venv_offering/lib/python3.12/site-packages/transformers/integrations/sdpa_attention.py:73:0
  %507 : Float(2, 1, 16, 32, strides=[512, 512, 32, 1], requires_grad=0, device=cpu) = aten::slice(%506, %242, %237, %236, %242), scope: __module.model/__module.model.layers.0/__module.model.layers.0.self_attn # /home/phil2/Super-Intel-NPU/current/Super-Intel-NPU/venv_offering/lib/python3.12/site-packages/transformers/integrations/sdpa_attention.py:73:0
  %508 : Float(2, 1, 16, 32, strides=[512, 512, 32, 1], requires_grad=0, device=cpu) = aten::slice(%507, %243, %237, %236, %242), scope: __module.model/__module.model.layers.0/__module.model.layers.0.self_attn # /home/phil2/Super-Intel-NPU/current/Super-Intel-NPU/venv_offering/lib/python3.12/site-packages/transformers/integrations/sdpa_attention.py:73:0
  %attention_mask.7 : Float(2, 1, 16, 32, strides=[512, 512, 32, 1], requires_grad=0, device=cpu) = aten::slice(%508, %235, %237, %505, %242), scope: __module.model/__module.model.layers.0/__module.model.layers.0.self_attn # /home/phil2/Super-Intel-NPU/current/Super-Intel-NPU/venv_offering/lib/python3.12/site-packages/transformers/integrations/sdpa_attention.py:73:0
  %attn_output.1 : Float(2, 32, 16, 128, strides=[65536, 128, 4096, 1], requires_grad=0, device=cpu) = aten::scaled_dot_product_attention(%query.1, %key.1, %value.1, %attention_mask.7, %222, %239, %221, %239), scope: __module.model/__module.model.layers.0/__module.model.layers.0.self_attn # /home/phil2/Super-Intel-NPU/current/Super-Intel-NPU/venv_offering/lib/python3.12/site-packages/transformers/integrations/sdpa_attention.py:96:0
  %511 : Float(2, 16, 32, 128, strides=[65536, 4096, 128, 1], requires_grad=0, device=cpu) = aten::transpose(%attn_output.1, %242, %243), scope: __module.model/__module.model.layers.0/__module.model.layers.0.self_attn # /home/phil2/Super-Intel-NPU/current/Super-Intel-NPU/venv_offering/lib/python3.12/site-packages/transformers/integrations/sdpa_attention.py:106:0
  %attn_output.3 : Float(2, 16, 32, 128, strides=[65536, 4096, 128, 1], requires_grad=0, device=cpu) = aten::contiguous(%511, %237), scope: __module.model/__module.model.layers.0/__module.model.layers.0.self_attn # /home/phil2/Super-Intel-NPU/current/Super-Intel-NPU/venv_offering/lib/python3.12/site-packages/transformers/integrations/sdpa_attention.py:106:0
  %513 : int[] = prim::ListConstruct(%418, %419, %231), scope: __module.model/__module.model.layers.0/__module.model.layers.0.self_attn
  %514 : Float(2, 16, 4096, strides=[65536, 4096, 1], requires_grad=0, device=cpu) = aten::reshape(%attn_output.3, %513), scope: __module.model/__module.model.layers.0/__module.model.layers.0.self_attn # /home/phil2/Super-Intel-NPU/current/Super-Intel-NPU/venv_offering/lib/python3.12/site-packages/transformers/models/mistral/modeling_mistral.py:181:0
  %515 : Float(2, 16, 4096, strides=[65536, 4096, 1], requires_grad=0, device=cpu) = aten::contiguous(%514, %237), scope: __module.model/__module.model.layers.0/__module.model.layers.0.self_attn # /home/phil2/Super-Intel-NPU/current/Super-Intel-NPU/venv_offering/lib/python3.12/site-packages/transformers/models/mistral/modeling_mistral.py:181:0
  %weight.11 : Tensor = prim::GetAttr[name="weight"](%o_proj.1)
  %hidden_states.17 : Float(2, 16, 4096, strides=[65536, 4096, 1], requires_grad=0, device=cpu) = ^Trampoline[inplace=0, module="openvino.frontend.pytorch.patch_model", Subgraph=<Graph>](None)(%515, %weight.11), scope: __module.model/__module.model.layers.0/__module.model.layers.0.self_attn/__module.model.layers.0.self_attn.o_proj # /home/phil2/Super-Intel-NPU/current/Super-Intel-NPU/venv_offering/lib/python3.12/site-packages/torch/autograd/function.py:581:0
  %518 : (Float(2, 16, 4096, strides=[65536, 4096, 1], requires_grad=0, device=cpu), Float(2, 8, 32, 128, strides=[32768, 4096, 128, 1], requires_grad=0, device=cpu), Float(2, 8, 32, 128, strides=[32768, 4096, 128, 1], requires_grad=0, device=cpu)) = prim::TupleConstruct(%hidden_states.17, %hidden_states.9, %hidden_states.13)
  %519 : Float(2, 16, 4096, strides=[65536, 4096, 1], requires_grad=0, device=cpu), %520 : Float(2, 8, 32, 128, strides=[32768, 4096, 128, 1], requires_grad=0, device=cpu), %521 : Float(2, 8, 32, 128, strides=[32768, 4096, 128, 1], requires_grad=0, device=cpu) = prim::TupleUnpack(%518)
  %hidden_states.19 : Float(2, 16, 4096, strides=[65536, 4096, 1], requires_grad=0, device=cpu) = aten::add(%413, %519, %242), scope: __module.model/__module.model.layers.0 # /home/phil2/Super-Intel-NPU/current/Super-Intel-NPU/venv_offering/lib/python3.12/site-packages/transformers/models/mistral/modeling_mistral.py:241:0
  %weight.13 : Tensor = prim::GetAttr[name="weight"](%post_attention_layernorm.1)
  %hidden_states.21 : Float(2, 16, 4096, strides=[65536, 4096, 1], requires_grad=0, device=cpu) = aten::to(%hidden_states.19, %229, %239, %239, %241), scope: __module.model/__module.model.layers.0/__module.model.layers.0.post_attention_layernorm # /home/phil2/Super-Intel-NPU/current/Super-Intel-NPU/venv_offering/lib/python3.12/site-packages/transformers/models/mistral/modeling_mistral.py:198:0
  %525 : Float(2, 16, 4096, strides=[65536, 4096, 1], requires_grad=0, device=cpu) = aten::pow(%hidden_states.21, %243), scope: __module.model/__module.model.layers.0/__module.model.layers.0.post_attention_layernorm # /home/phil2/Super-Intel-NPU/current/Super-Intel-NPU/venv_offering/lib/python3.12/site-packages/transformers/models/mistral/modeling_mistral.py:199:0
  %526 : int[] = prim::ListConstruct(%231), scope: __module.model/__module.model.layers.0/__module.model.layers.0.post_attention_layernorm
  %variance.3 : Float(2, 16, 1, strides=[16, 1, 1], requires_grad=0, device=cpu) = aten::mean(%525, %526, %220, %241), scope: __module.model/__module.model.layers.0/__module.model.layers.0.post_attention_layernorm # /home/phil2/Super-Intel-NPU/current/Super-Intel-NPU/venv_offering/lib/python3.12/site-packages/transformers/models/mistral/modeling_mistral.py:199:0
  %528 : Float(2, 16, 1, strides=[16, 1, 1], requires_grad=0, device=cpu) = aten::add(%variance.3, %219, %242), scope: __module.model/__module.model.layers.0/__module.model.layers.0.post_attention_layernorm # /home/phil2/Super-Intel-NPU/current/Super-Intel-NPU/venv_offering/lib/python3.12/site-packages/transformers/models/mistral/modeling_mistral.py:200:0
  %529 : Float(2, 16, 1, strides=[16, 1, 1], requires_grad=0, device=cpu) = aten::rsqrt(%528), scope: __module.model/__module.model.layers.0/__module.model.layers.0.post_attention_layernorm # /home/phil2/Super-Intel-NPU/current/Super-Intel-NPU/venv_offering/lib/python3.12/site-packages/transformers/models/mistral/modeling_mistral.py:200:0
  %hidden_states.23 : Float(2, 16, 4096, strides=[65536, 4096, 1], requires_grad=0, device=cpu) = aten::mul(%hidden_states.21, %529), scope: __module.model/__module.model.layers.0/__module.model.layers.0.post_attention_layernorm # /home/phil2/Super-Intel-NPU/current/Super-Intel-NPU/venv_offering/lib/python3.12/site-packages/transformers/models/mistral/modeling_mistral.py:200:0
  %hidden_states.25 : Float(2, 16, 4096, strides=[65536, 4096, 1], requires_grad=0, device=cpu) = aten::to(%hidden_states.23, %229, %239, %239, %241), scope: __module.model/__module.model.layers.0/__module.model.layers.0.post_attention_layernorm # /home/phil2/Super-Intel-NPU/current/Super-Intel-NPU/venv_offering/lib/python3.12/site-packages/transformers/models/mistral/modeling_mistral.py:201:0
  %532 : Float(2, 16, 4096, strides=[65536, 4096, 1], requires_grad=0, device=cpu) = aten::mul(%weight.13, %hidden_states.25), scope: __module.model/__module.model.layers.0/__module.model.layers.0.post_attention_layernorm # /home/phil2/Super-Intel-NPU/current/Super-Intel-NPU/venv_offering/lib/python3.12/site-packages/transformers/models/mistral/modeling_mistral.py:201:0
  %533 : (Float(2, 16, 4096, strides=[65536, 4096, 1], requires_grad=0, device=cpu), Float(2, 16, 4096, strides=[65536, 4096, 1], requires_grad=0, device=cpu)) = prim::TupleConstruct(%532, %hidden_states.21)
  %534 : Float(2, 16, 4096, strides=[65536, 4096, 1], requires_grad=0, device=cpu), %535 : Float(2, 16, 4096, strides=[65536, 4096, 1], requires_grad=0, device=cpu) = prim::TupleUnpack(%533)
  %down_proj.1 : __torch__.torch.nn.modules.linear.___torch_mangle_5.Linear = prim::GetAttr[name="down_proj"](%mlp.1)
  %up_proj.1 : __torch__.torch.nn.modules.linear.___torch_mangle_4.Linear = prim::GetAttr[name="up_proj"](%mlp.1)
  %gate_proj.1 : __torch__.torch.nn.modules.linear.___torch_mangle_3.Linear = prim::GetAttr[name="gate_proj"](%mlp.1)
  %weight.15 : Tensor = prim::GetAttr[name="weight"](%gate_proj.1)
  %input.1 : Float(2, 16, 14336, strides=[229376, 14336, 1], requires_grad=0, device=cpu) = ^Trampoline[inplace=0, module="openvino.frontend.pytorch.patch_model", Subgraph=<Graph>](None)(%534, %weight.15), scope: __module.model/__module.model.layers.0/__module.model.layers.0.mlp/__module.model.layers.0.mlp.gate_proj # /home/phil2/Super-Intel-NPU/current/Super-Intel-NPU/venv_offering/lib/python3.12/site-packages/torch/autograd/function.py:581:0
  %541 : Float(2, 16, 14336, strides=[229376, 14336, 1], requires_grad=0, device=cpu) = aten::silu(%input.1), scope: __module.model/__module.model.layers.0/__module.model.layers.0.mlp/__module.model.layers.0.mlp.act_fn # /home/phil2/Super-Intel-NPU/current/Super-Intel-NPU/venv_offering/lib/python3.12/site-packages/torch/nn/functional.py:2371:0
  %weight.17 : Tensor = prim::GetAttr[name="weight"](%up_proj.1)
  %543 : Float(2, 16, 14336, strides=[229376, 14336, 1], requires_grad=0, device=cpu) = ^Trampoline[inplace=0, module="openvino.frontend.pytorch.patch_model", Subgraph=<Graph>](None)(%534, %weight.17), scope: __module.model/__module.model.layers.0/__module.model.layers.0.mlp/__module.model.layers.0.mlp.up_proj # /home/phil2/Super-Intel-NPU/current/Super-Intel-NPU/venv_offering/lib/python3.12/site-packages/torch/autograd/function.py:581:0
  %544 : Float(2, 16, 14336, strides=[229376, 14336, 1], requires_grad=0, device=cpu) = aten::mul(%541, %543), scope: __module.model/__module.model.layers.0/__module.model.layers.0.mlp # /home/phil2/Super-Intel-NPU/current/Super-Intel-NPU/venv_offering/lib/python3.12/site-packages/transformers/models/mistral/modeling_mistral.py:47:0
  %weight.19 : Tensor = prim::GetAttr[name="weight"](%down_proj.1)
  %hidden_states.27 : Float(2, 16, 4096, strides=[65536, 4096, 1], requires_grad=0, device=cpu) = ^Trampoline[inplace=0, module="openvino.frontend.pytorch.patch_model", Subgraph=<Graph>](None)(%544, %weight.19), scope: __module.model/__module.model.layers.0/__module.model.layers.0.mlp/__module.model.layers.0.mlp.down_proj # /home/phil2/Super-Intel-NPU/current/Super-Intel-NPU/venv_offering/lib/python3.12/site-packages/torch/autograd/function.py:581:0
  %hidden_states.29 : Float(2, 16, 4096, strides=[65536, 4096, 1], requires_grad=0, device=cpu) = aten::add(%535, %hidden_states.27, %242), scope: __module.model/__module.model.layers.0 # /home/phil2/Super-Intel-NPU/current/Super-Intel-NPU/venv_offering/lib/python3.12/site-packages/transformers/models/mistral/modeling_mistral.py:247:0
  %548 : (Float(2, 16, 4096, strides=[65536, 4096, 1], requires_grad=0, device=cpu), Float(2, 8, 32, 128, strides=[32768, 4096, 128, 1], requires_grad=0, device=cpu), Float(2, 8, 32, 128, strides=[32768, 4096, 128, 1], requires_grad=0, device=cpu)) = prim::TupleConstruct(%hidden_states.29, %520, %521)
  %549 : Float(2, 16, 4096, strides=[65536, 4096, 1], requires_grad=0, device=cpu), %550 : Float(2, 8, 32, 128, strides=[32768, 4096, 128, 1], requires_grad=0, device=cpu), %551 : Float(2, 8, 32, 128, strides=[32768, 4096, 128, 1], requires_grad=0, device=cpu) = prim::TupleUnpack(%548)
  %mlp.3 : __torch__.transformers.models.mistral.modeling_mistral.___torch_mangle_16.MistralMLP = prim::GetAttr[name="mlp"](%_1)
  %post_attention_layernorm.3 : __torch__.transformers.models.mistral.modeling_mistral.___torch_mangle_18.MistralRMSNorm = prim::GetAttr[name="post_attention_layernorm"](%_1)
  %self_attn.3 : __torch__.transformers.models.mistral.modeling_mistral.___torch_mangle_11.MistralAttention = prim::GetAttr[name="self_attn"](%_1)
  %input_layernorm.3 : __torch__.transformers.models.mistral.modeling_mistral.___torch_mangle_17.MistralRMSNorm = prim::GetAttr[name="input_layernorm"](%_1)
  %weight.21 : Tensor = prim::GetAttr[name="weight"](%input_layernorm.3)
  %hidden_states.31 : Float(2, 16, 4096, strides=[65536, 4096, 1], requires_grad=0, device=cpu) = aten::to(%549, %229, %239, %239, %241), scope: __module.model/__module.model.layers.1/__module.model.layers.1.input_layernorm # /home/phil2/Super-Intel-NPU/current/Super-Intel-NPU/venv_offering/lib/python3.12/site-packages/transformers/models/mistral/modeling_mistral.py:198:0
  %558 : Float(2, 16, 4096, strides=[65536, 4096, 1], requires_grad=0, device=cpu) = aten::pow(%hidden_states.31, %243), scope: __module.model/__module.model.layers.1/__module.model.layers.1.input_layernorm # /home/phil2/Super-Intel-NPU/current/Super-Intel-NPU/venv_offering/lib/python3.12/site-packages/transformers/models/mistral/modeling_mistral.py:199:0
  %559 : int[] = prim::ListConstruct(%231), scope: __module.model/__module.model.layers.1/__module.model.layers.1.input_layernorm
  %variance.5 : Float(2, 16, 1, strides=[16, 1, 1], requires_grad=0, device=cpu) = aten::mean(%558, %559, %220, %241), scope: __module.model/__module.model.layers.1/__module.model.layers.1.input_layernorm # /home/phil2/Super-Intel-NPU/current/Super-Intel-NPU/venv_offering/lib/python3.12/site-packages/transformers/models/mistral/modeling_mistral.py:199:0
  %561 : Float(2, 16, 1, strides=[16, 1, 1], requires_grad=0, device=cpu) = aten::add(%variance.5, %219, %242), scope: __module.model/__module.model.layers.1/__module.model.layers.1.input_layernorm # /home/phil2/Super-Intel-NPU/current/Super-Intel-NPU/venv_offering/lib/python3.12/site-packages/transformers/models/mistral/modeling_mistral.py:200:0
  %562 : Float(2, 16, 1, strides=[16, 1, 1], requires_grad=0, device=cpu) = aten::rsqrt(%561), scope: __module.model/__module.model.layers.1/__module.model.layers.1.input_layernorm # /home/phil2/Super-Intel-NPU/current/Super-Intel-NPU/venv_offering/lib/python3.12/site-packages/transformers/models/mistral/modeling_mistral.py:200:0
  %hidden_states.33 : Float(2, 16, 4096, strides=[65536, 4096, 1], requires_grad=0, device=cpu) = aten::mul(%hidden_states.31, %562), scope: __module.model/__module.model.layers.1/__module.model.layers.1.input_layernorm # /home/phil2/Super-Intel-NPU/current/Super-Intel-NPU/venv_offering/lib/python3.12/site-packages/transformers/models/mistral/modeling_mistral.py:200:0
  %hidden_states.35 : Float(2, 16, 4096, strides=[65536, 4096, 1], requires_grad=0, device=cpu) = aten::to(%hidden_states.33, %229, %239, %239, %241), scope: __module.model/__module.model.layers.1/__module.model.layers.1.input_layernorm # /home/phil2/Super-Intel-NPU/current/Super-Intel-NPU/venv_offering/lib/python3.12/site-packages/transformers/models/mistral/modeling_mistral.py:201:0
  %hidden_states.37 : Float(2, 16, 4096, strides=[65536, 4096, 1], requires_grad=0, device=cpu) = aten::mul(%weight.21, %hidden_states.35), scope: __module.model/__module.model.layers.1/__module.model.layers.1.input_layernorm # /home/phil2/Super-Intel-NPU/current/Super-Intel-NPU/venv_offering/lib/python3.12/site-packages/transformers/models/mistral/modeling_mistral.py:201:0
  %566 : (Float(2, 16, 4096, strides=[65536, 4096, 1], requires_grad=0, device=cpu), Float(2, 16, 4096, strides=[65536, 4096, 1], requires_grad=0, device=cpu)) = prim::TupleConstruct(%hidden_states.37, %hidden_states.31)
  %567 : Float(2, 16, 4096, strides=[65536, 4096, 1], requires_grad=0, device=cpu), %568 : Float(2, 16, 4096, strides=[65536, 4096, 1], requires_grad=0, device=cpu) = prim::TupleUnpack(%566)
  %o_proj.3 : __torch__.torch.nn.modules.linear.___torch_mangle_10.Linear = prim::GetAttr[name="o_proj"](%self_attn.3)
  %v_proj.3 : __torch__.torch.nn.modules.linear.___torch_mangle_9.Linear = prim::GetAttr[name="v_proj"](%self_attn.3)
  %k_proj.3 : __torch__.torch.nn.modules.linear.___torch_mangle_8.Linear = prim::GetAttr[name="k_proj"](%self_attn.3)
  %q_proj.3 : __torch__.torch.nn.modules.linear.___torch_mangle_7.Linear = prim::GetAttr[name="q_proj"](%self_attn.3)
  %573 : int = aten::size(%567, %237), scope: __module.model/__module.model.layers.1/__module.model.layers.1.self_attn # /home/phil2/Super-Intel-NPU/current/Super-Intel-NPU/venv_offering/lib/python3.12/site-packages/transformers/models/mistral/modeling_mistral.py:150:0
  %574 : int = aten::size(%567, %242), scope: __module.model/__module.model.layers.1/__module.model.layers.1.self_attn # /home/phil2/Super-Intel-NPU/current/Super-Intel-NPU/venv_offering/lib/python3.12/site-packages/transformers/models/mistral/modeling_mistral.py:150:0
  %weight.23 : Tensor = prim::GetAttr[name="weight"](%q_proj.3)
  %576 : Float(2, 16, 4096, strides=[65536, 4096, 1], requires_grad=0, device=cpu) = ^Trampoline[inplace=0, module="openvino.frontend.pytorch.patch_model", Subgraph=<Graph>](None)(%567, %weight.23), scope: __module.model/__module.model.layers.1/__module.model.layers.1.self_attn/__module.model.layers.1.self_attn.q_proj # /home/phil2/Super-Intel-NPU/current/Super-Intel-NPU/venv_offering/lib/python3.12/site-packages/torch/autograd/function.py:581:0
  %577 : int[] = prim::ListConstruct(%573, %574, %231, %226), scope: __module.model/__module.model.layers.1/__module.model.layers.1.self_attn
  %578 : Float(2, 16, 32, 128, strides=[65536, 4096, 128, 1], requires_grad=0, device=cpu) = aten::view(%576, %577), scope: __module.model/__module.model.layers.1/__module.model.layers.1.self_attn # /home/phil2/Super-Intel-NPU/current/Super-Intel-NPU/venv_offering/lib/python3.12/site-packages/transformers/models/mistral/modeling_mistral.py:153:0
  %q.3 : Float(2, 32, 16, 128, strides=[65536, 128, 4096, 1], requires_grad=0, device=cpu) = aten::transpose(%578, %242, %243), scope: __module.model/__module.model.layers.1/__module.model.layers.1.self_attn # /home/phil2/Super-Intel-NPU/current/Super-Intel-NPU/venv_offering/lib/python3.12/site-packages/transformers/models/mistral/modeling_mistral.py:153:0
  %weight.25 : Tensor = prim::GetAttr[name="weight"](%k_proj.3)
  %581 : Float(2, 16, 1024, strides=[16384, 1024, 1], requires_grad=0, device=cpu) = ^Trampoline[inplace=0, module="openvino.frontend.pytorch.patch_model", Subgraph=<Graph>](None)(%567, %weight.25), scope: __module.model/__module.model.layers.1/__module.model.layers.1.self_attn/__module.model.layers.1.self_attn.k_proj # /home/phil2/Super-Intel-NPU/current/Super-Intel-NPU/venv_offering/lib/python3.12/site-packages/torch/autograd/function.py:581:0
  %582 : int[] = prim::ListConstruct(%573, %574, %231, %226), scope: __module.model/__module.model.layers.1/__module.model.layers.1.self_attn
  %583 : Float(2, 16, 8, 128, strides=[16384, 1024, 128, 1], requires_grad=0, device=cpu) = aten::view(%581, %582), scope: __module.model/__module.model.layers.1/__module.model.layers.1.self_attn # /home/phil2/Super-Intel-NPU/current/Super-Intel-NPU/venv_offering/lib/python3.12/site-packages/transformers/models/mistral/modeling_mistral.py:154:0
  %k.3 : Float(2, 8, 16, 128, strides=[16384, 128, 1024, 1], requires_grad=0, device=cpu) = aten::transpose(%583, %242, %243), scope: __module.model/__module.model.layers.1/__module.model.layers.1.self_attn # /home/phil2/Super-Intel-NPU/current/Super-Intel-NPU/venv_offering/lib/python3.12/site-packages/transformers/models/mistral/modeling_mistral.py:154:0
  %weight.27 : Tensor = prim::GetAttr[name="weight"](%v_proj.3)
  %586 : Float(2, 16, 1024, strides=[16384, 1024, 1], requires_grad=0, device=cpu) = ^Trampoline[inplace=0, module="openvino.frontend.pytorch.patch_model", Subgraph=<Graph>](None)(%567, %weight.27), scope: __module.model/__module.model.layers.1/__module.model.layers.1.self_attn/__module.model.layers.1.self_attn.v_proj # /home/phil2/Super-Intel-NPU/current/Super-Intel-NPU/venv_offering/lib/python3.12/site-packages/torch/autograd/function.py:581:0
  %587 : int[] = prim::ListConstruct(%573, %574, %231, %226), scope: __module.model/__module.model.layers.1/__module.model.layers.1.self_attn
  %588 : Float(2, 16, 8, 128, strides=[16384, 1024, 128, 1], requires_grad=0, device=cpu) = aten::view(%586, %587), scope: __module.model/__module.model.layers.1/__module.model.layers.1.self_attn # /home/phil2/Super-Intel-NPU/current/Super-Intel-NPU/venv_offering/lib/python3.12/site-packages/transformers/models/mistral/modeling_mistral.py:155:0
  %value_states.3 : Float(2, 8, 16, 128, strides=[16384, 128, 1024, 1], requires_grad=0, device=cpu) = aten::transpose(%588, %242, %243), scope: __module.model/__module.model.layers.1/__module.model.layers.1.self_attn # /home/phil2/Super-Intel-NPU/current/Super-Intel-NPU/venv_offering/lib/python3.12/site-packages/transformers/models/mistral/modeling_mistral.py:155:0
  %cos.7 : Float(2, 1, 16, 128, strides=[2048, 2048, 128, 1], requires_grad=0, device=cpu) = aten::unsqueeze(%395, %242), scope: __module.model/__module.model.layers.1/__module.model.layers.1.self_attn # /home/phil2/Super-Intel-NPU/current/Super-Intel-NPU/venv_offering/lib/python3.12/site-packages/transformers/models/mistral/modeling_mistral.py:78:0
  %sin.7 : Float(2, 1, 16, 128, strides=[2048, 2048, 128, 1], requires_grad=0, device=cpu) = aten::unsqueeze(%396, %242), scope: __module.model/__module.model.layers.1/__module.model.layers.1.self_attn # /home/phil2/Super-Intel-NPU/current/Super-Intel-NPU/venv_offering/lib/python3.12/site-packages/transformers/models/mistral/modeling_mistral.py:79:0
  %592 : Float(2, 32, 16, 128, strides=[65536, 128, 4096, 1], requires_grad=0, device=cpu) = aten::mul(%q.3, %cos.7), scope: __module.model/__module.model.layers.1/__module.model.layers.1.self_attn # /home/phil2/Super-Intel-NPU/current/Super-Intel-NPU/venv_offering/lib/python3.12/site-packages/transformers/models/mistral/modeling_mistral.py:80:0
  %593 : int = aten::size(%q.3, %235), scope: __module.model/__module.model.layers.1/__module.model.layers.1.self_attn # /home/phil2/Super-Intel-NPU/current/Super-Intel-NPU/venv_offering/lib/python3.12/site-packages/transformers/models/mistral/modeling_mistral.py:53:0
  %594 : Long(device=cpu) = prim::NumToTensor(%593), scope: __module.model/__module.model.layers.1/__module.model.layers.1.self_attn
  %595 : Long(requires_grad=0, device=cpu) = aten::floor_divide(%594, %225), scope: __module.model/__module.model.layers.1/__module.model.layers.1.self_attn # /home/phil2/Super-Intel-NPU/current/Super-Intel-NPU/venv_offering/lib/python3.12/site-packages/torch/_tensor.py:1119:0
  %596 : int = aten::Int(%595), scope: __module.model/__module.model.layers.1/__module.model.layers.1.self_attn
  %x1.5 : Float(2, 32, 16, 64, strides=[65536, 128, 4096, 1], requires_grad=0, device=cpu) = aten::slice(%q.3, %235, %237, %596, %242), scope: __module.model/__module.model.layers.1/__module.model.layers.1.self_attn # /home/phil2/Super-Intel-NPU/current/Super-Intel-NPU/venv_offering/lib/python3.12/site-packages/transformers/models/mistral/modeling_mistral.py:53:0
  %598 : int = aten::size(%q.3, %235), scope: __module.model/__module.model.layers.1/__module.model.layers.1.self_attn # /home/phil2/Super-Intel-NPU/current/Super-Intel-NPU/venv_offering/lib/python3.12/site-packages/transformers/models/mistral/modeling_mistral.py:54:0
  %599 : Long(device=cpu) = prim::NumToTensor(%598), scope: __module.model/__module.model.layers.1/__module.model.layers.1.self_attn
  %600 : Long(requires_grad=0, device=cpu) = aten::floor_divide(%599, %225), scope: __module.model/__module.model.layers.1/__module.model.layers.1.self_attn # /home/phil2/Super-Intel-NPU/current/Super-Intel-NPU/venv_offering/lib/python3.12/site-packages/torch/_tensor.py:1119:0
  %601 : int = aten::Int(%600), scope: __module.model/__module.model.layers.1/__module.model.layers.1.self_attn
  %x2.5 : Float(2, 32, 16, 64, strides=[65536, 128, 4096, 1], requires_grad=0, device=cpu) = aten::slice(%q.3, %235, %601, %236, %242), scope: __module.model/__module.model.layers.1/__module.model.layers.1.self_attn # /home/phil2/Super-Intel-NPU/current/Super-Intel-NPU/venv_offering/lib/python3.12/site-packages/transformers/models/mistral/modeling_mistral.py:54:0
  %603 : Float(2, 32, 16, 64, strides=[32768, 64, 2048, 1], requires_grad=0, device=cpu) = aten::neg(%x2.5), scope: __module.model/__module.model.layers.1/__module.model.layers.1.self_attn # /home/phil2/Super-Intel-NPU/current/Super-Intel-NPU/venv_offering/lib/python3.12/site-packages/transformers/models/mistral/modeling_mistral.py:55:0
  %604 : Tensor[] = prim::ListConstruct(%603, %x1.5), scope: __module.model/__module.model.layers.1/__module.model.layers.1.self_attn
  %605 : Float(2, 32, 16, 128, strides=[65536, 2048, 128, 1], requires_grad=0, device=cpu) = aten::cat(%604, %231), scope: __module.model/__module.model.layers.1/__module.model.layers.1.self_attn # /home/phil2/Super-Intel-NPU/current/Super-Intel-NPU/venv_offering/lib/python3.12/site-packages/transformers/models/mistral/modeling_mistral.py:55:0
  %606 : Float(2, 32, 16, 128, strides=[65536, 2048, 128, 1], requires_grad=0, device=cpu) = aten::mul(%605, %sin.7), scope: __module.model/__module.model.layers.1/__module.model.layers.1.self_attn # /home/phil2/Super-Intel-NPU/current/Super-Intel-NPU/venv_offering/lib/python3.12/site-packages/transformers/models/mistral/modeling_mistral.py:80:0
  %query.3 : Float(2, 32, 16, 128, strides=[65536, 128, 4096, 1], requires_grad=0, device=cpu) = aten::add(%592, %606, %242), scope: __module.model/__module.model.layers.1/__module.model.layers.1.self_attn # /home/phil2/Super-Intel-NPU/current/Super-Intel-NPU/venv_offering/lib/python3.12/site-packages/transformers/models/mistral/modeling_mistral.py:80:0
  %608 : Float(2, 8, 16, 128, strides=[16384, 128, 1024, 1], requires_grad=0, device=cpu) = aten::mul(%k.3, %cos.7), scope: __module.model/__module.model.layers.1/__module.model.layers.1.self_attn # /home/phil2/Super-Intel-NPU/current/Super-Intel-NPU/venv_offering/lib/python3.12/site-packages/transformers/models/mistral/modeling_mistral.py:81:0
  %609 : int = aten::size(%k.3, %235), scope: __module.model/__module.model.layers.1/__module.model.layers.1.self_attn # /home/phil2/Super-Intel-NPU/current/Super-Intel-NPU/venv_offering/lib/python3.12/site-packages/transformers/models/mistral/modeling_mistral.py:53:0
  %610 : Long(device=cpu) = prim::NumToTensor(%609), scope: __module.model/__module.model.layers.1/__module.model.layers.1.self_attn
  %611 : Long(requires_grad=0, device=cpu) = aten::floor_divide(%610, %225), scope: __module.model/__module.model.layers.1/__module.model.layers.1.self_attn # /home/phil2/Super-Intel-NPU/current/Super-Intel-NPU/venv_offering/lib/python3.12/site-packages/torch/_tensor.py:1119:0
  %612 : int = aten::Int(%611), scope: __module.model/__module.model.layers.1/__module.model.layers.1.self_attn
  %x1.7 : Float(2, 8, 16, 64, strides=[16384, 128, 1024, 1], requires_grad=0, device=cpu) = aten::slice(%k.3, %235, %237, %612, %242), scope: __module.model/__module.model.layers.1/__module.model.layers.1.self_attn # /home/phil2/Super-Intel-NPU/current/Super-Intel-NPU/venv_offering/lib/python3.12/site-packages/transformers/models/mistral/modeling_mistral.py:53:0
  %614 : int = aten::size(%k.3, %235), scope: __module.model/__module.model.layers.1/__module.model.layers.1.self_attn # /home/phil2/Super-Intel-NPU/current/Super-Intel-NPU/venv_offering/lib/python3.12/site-packages/transformers/models/mistral/modeling_mistral.py:54:0
  %615 : Long(device=cpu) = prim::NumToTensor(%614), scope: __module.model/__module.model.layers.1/__module.model.layers.1.self_attn
  %616 : Long(requires_grad=0, device=cpu) = aten::floor_divide(%615, %225), scope: __module.model/__module.model.layers.1/__module.model.layers.1.self_attn # /home/phil2/Super-Intel-NPU/current/Super-Intel-NPU/venv_offering/lib/python3.12/site-packages/torch/_tensor.py:1119:0
  %617 : int = aten::Int(%616), scope: __module.model/__module.model.layers.1/__module.model.layers.1.self_attn
  %x2.7 : Float(2, 8, 16, 64, strides=[16384, 128, 1024, 1], requires_grad=0, device=cpu) = aten::slice(%k.3, %235, %617, %236, %242), scope: __module.model/__module.model.layers.1/__module.model.layers.1.self_attn # /home/phil2/Super-Intel-NPU/current/Super-Intel-NPU/venv_offering/lib/python3.12/site-packages/transformers/models/mistral/modeling_mistral.py:54:0
  %619 : Float(2, 8, 16, 64, strides=[8192, 64, 512, 1], requires_grad=0, device=cpu) = aten::neg(%x2.7), scope: __module.model/__module.model.layers.1/__module.model.layers.1.self_attn # /home/phil2/Super-Intel-NPU/current/Super-Intel-NPU/venv_offering/lib/python3.12/site-packages/transformers/models/mistral/modeling_mistral.py:55:0
  %620 : Tensor[] = prim::ListConstruct(%619, %x1.7), scope: __module.model/__module.model.layers.1/__module.model.layers.1.self_attn
  %621 : Float(2, 8, 16, 128, strides=[16384, 2048, 128, 1], requires_grad=0, device=cpu) = aten::cat(%620, %231), scope: __module.model/__module.model.layers.1/__module.model.layers.1.self_attn # /home/phil2/Super-Intel-NPU/current/Super-Intel-NPU/venv_offering/lib/python3.12/site-packages/transformers/models/mistral/modeling_mistral.py:55:0
  %622 : Float(2, 8, 16, 128, strides=[16384, 2048, 128, 1], requires_grad=0, device=cpu) = aten::mul(%621, %sin.7), scope: __module.model/__module.model.layers.1/__module.model.layers.1.self_attn # /home/phil2/Super-Intel-NPU/current/Super-Intel-NPU/venv_offering/lib/python3.12/site-packages/transformers/models/mistral/modeling_mistral.py:81:0
  %key_states.3 : Float(2, 8, 16, 128, strides=[16384, 128, 1024, 1], requires_grad=0, device=cpu) = aten::add(%608, %622, %242), scope: __module.model/__module.model.layers.1/__module.model.layers.1.self_attn # /home/phil2/Super-Intel-NPU/current/Super-Intel-NPU/venv_offering/lib/python3.12/site-packages/transformers/models/mistral/modeling_mistral.py:81:0
  %624 : Tensor[] = prim::ListConstruct(%41, %key_states.3), scope: __module.model/__module.model.layers.1/__module.model.layers.1.self_attn
  %hidden_states.39 : Float(2, 8, 32, 128, strides=[32768, 4096, 128, 1], requires_grad=0, device=cpu) = aten::cat(%624, %224), scope: __module.model/__module.model.layers.1/__module.model.layers.1.self_attn # /home/phil2/Super-Intel-NPU/current/Super-Intel-NPU/venv_offering/lib/python3.12/site-packages/optimum/exporters/onnx/model_patcher.py:500:0
  %626 : Tensor[] = prim::ListConstruct(%42, %value_states.3), scope: __module.model/__module.model.layers.1/__module.model.layers.1.self_attn
  %hidden_states.43 : Float(2, 8, 32, 128, strides=[32768, 4096, 128, 1], requires_grad=0, device=cpu) = aten::cat(%626, %224), scope: __module.model/__module.model.layers.1/__module.model.layers.1.self_attn # /home/phil2/Super-Intel-NPU/current/Super-Intel-NPU/venv_offering/lib/python3.12/site-packages/optimum/exporters/onnx/model_patcher.py:501:0
  %628 : int = aten::size(%hidden_states.39, %237), scope: __module.model/__module.model.layers.1/__module.model.layers.1.self_attn # /home/phil2/Super-Intel-NPU/current/Super-Intel-NPU/venv_offering/lib/python3.12/site-packages/transformers/integrations/sdpa_attention.py:23:0
  %629 : int = aten::size(%hidden_states.39, %242), scope: __module.model/__module.model.layers.1/__module.model.layers.1.self_attn # /home/phil2/Super-Intel-NPU/current/Super-Intel-NPU/venv_offering/lib/python3.12/site-packages/transformers/integrations/sdpa_attention.py:23:0
  %num_key_value_heads.5 : Long(device=cpu) = prim::NumToTensor(%629), scope: __module.model/__module.model.layers.1/__module.model.layers.1.self_attn
  %631 : int = aten::size(%hidden_states.39, %243), scope: __module.model/__module.model.layers.1/__module.model.layers.1.self_attn # /home/phil2/Super-Intel-NPU/current/Super-Intel-NPU/venv_offering/lib/python3.12/site-packages/transformers/integrations/sdpa_attention.py:23:0
  %632 : int = aten::size(%hidden_states.39, %235), scope: __module.model/__module.model.layers.1/__module.model.layers.1.self_attn # /home/phil2/Super-Intel-NPU/current/Super-Intel-NPU/venv_offering/lib/python3.12/site-packages/transformers/integrations/sdpa_attention.py:23:0
  %633 : Float(2, 8, 32, 128, strides=[32768, 4096, 128, 1], requires_grad=0, device=cpu) = aten::slice(%hidden_states.39, %237, %237, %236, %242), scope: __module.model/__module.model.layers.1/__module.model.layers.1.self_attn # /home/phil2/Super-Intel-NPU/current/Super-Intel-NPU/venv_offering/lib/python3.12/site-packages/transformers/integrations/sdpa_attention.py:26:0
  %634 : Float(2, 8, 32, 128, strides=[32768, 4096, 128, 1], requires_grad=0, device=cpu) = aten::slice(%633, %242, %237, %236, %242), scope: __module.model/__module.model.layers.1/__module.model.layers.1.self_attn # /home/phil2/Super-Intel-NPU/current/Super-Intel-NPU/venv_offering/lib/python3.12/site-packages/transformers/integrations/sdpa_attention.py:26:0
  %635 : Float(2, 8, 1, 32, 128, strides=[32768, 4096, 4096, 128, 1], requires_grad=0, device=cpu) = aten::unsqueeze(%634, %243), scope: __module.model/__module.model.layers.1/__module.model.layers.1.self_attn # /home/phil2/Super-Intel-NPU/current/Super-Intel-NPU/venv_offering/lib/python3.12/site-packages/transformers/integrations/sdpa_attention.py:26:0
  %636 : Float(2, 8, 1, 32, 128, strides=[32768, 4096, 4096, 128, 1], requires_grad=0, device=cpu) = aten::slice(%635, %235, %237, %236, %242), scope: __module.model/__module.model.layers.1/__module.model.layers.1.self_attn # /home/phil2/Super-Intel-NPU/current/Super-Intel-NPU/venv_offering/lib/python3.12/site-packages/transformers/integrations/sdpa_attention.py:26:0
  %637 : Float(2, 8, 1, 32, 128, strides=[32768, 4096, 4096, 128, 1], requires_grad=0, device=cpu) = aten::slice(%636, %234, %237, %236, %242), scope: __module.model/__module.model.layers.1/__module.model.layers.1.self_attn # /home/phil2/Super-Intel-NPU/current/Super-Intel-NPU/venv_offering/lib/python3.12/site-packages/transformers/integrations/sdpa_attention.py:26:0
  %638 : int[] = prim::ListConstruct(%628, %629, %234, %631, %632), scope: __module.model/__module.model.layers.1/__module.model.layers.1.self_attn
  %hidden_states.41 : Float(2, 8, 4, 32, 128, strides=[32768, 4096, 0, 128, 1], requires_grad=0, device=cpu) = aten::expand(%637, %638, %239), scope: __module.model/__module.model.layers.1/__module.model.layers.1.self_attn # /home/phil2/Super-Intel-NPU/current/Super-Intel-NPU/venv_offering/lib/python3.12/site-packages/transformers/integrations/sdpa_attention.py:26:0
  %640 : Long(requires_grad=0, device=cpu) = aten::mul(%num_key_value_heads.5, %223), scope: __module.model/__module.model.layers.1/__module.model.layers.1.self_attn # /home/phil2/Super-Intel-NPU/current/Super-Intel-NPU/venv_offering/lib/python3.12/site-packages/transformers/integrations/sdpa_attention.py:27:0
  %641 : int = aten::Int(%640), scope: __module.model/__module.model.layers.1/__module.model.layers.1.self_attn
  %642 : int[] = prim::ListConstruct(%628, %641, %631, %632), scope: __module.model/__module.model.layers.1/__module.model.layers.1.self_attn
  %key.3 : Float(2, 32, 32, 128, strides=[131072, 4096, 128, 1], requires_grad=0, device=cpu) = aten::reshape(%hidden_states.41, %642), scope: __module.model/__module.model.layers.1/__module.model.layers.1.self_attn # /home/phil2/Super-Intel-NPU/current/Super-Intel-NPU/venv_offering/lib/python3.12/site-packages/transformers/integrations/sdpa_attention.py:27:0
  %644 : int = aten::size(%hidden_states.43, %237), scope: __module.model/__module.model.layers.1/__module.model.layers.1.self_attn # /home/phil2/Super-Intel-NPU/current/Super-Intel-NPU/venv_offering/lib/python3.12/site-packages/transformers/integrations/sdpa_attention.py:23:0
  %645 : int = aten::size(%hidden_states.43, %242), scope: __module.model/__module.model.layers.1/__module.model.layers.1.self_attn # /home/phil2/Super-Intel-NPU/current/Super-Intel-NPU/venv_offering/lib/python3.12/site-packages/transformers/integrations/sdpa_attention.py:23:0
  %num_key_value_heads.7 : Long(device=cpu) = prim::NumToTensor(%645), scope: __module.model/__module.model.layers.1/__module.model.layers.1.self_attn
  %647 : int = aten::size(%hidden_states.43, %243), scope: __module.model/__module.model.layers.1/__module.model.layers.1.self_attn # /home/phil2/Super-Intel-NPU/current/Super-Intel-NPU/venv_offering/lib/python3.12/site-packages/transformers/integrations/sdpa_attention.py:23:0
  %648 : int = aten::size(%hidden_states.43, %235), scope: __module.model/__module.model.layers.1/__module.model.layers.1.self_attn # /home/phil2/Super-Intel-NPU/current/Super-Intel-NPU/venv_offering/lib/python3.12/site-packages/transformers/integrations/sdpa_attention.py:23:0
  %649 : Float(2, 8, 32, 128, strides=[32768, 4096, 128, 1], requires_grad=0, device=cpu) = aten::slice(%hidden_states.43, %237, %237, %236, %242), scope: __module.model/__module.model.layers.1/__module.model.layers.1.self_attn # /home/phil2/Super-Intel-NPU/current/Super-Intel-NPU/venv_offering/lib/python3.12/site-packages/transformers/integrations/sdpa_attention.py:26:0
  %650 : Float(2, 8, 32, 128, strides=[32768, 4096, 128, 1], requires_grad=0, device=cpu) = aten::slice(%649, %242, %237, %236, %242), scope: __module.model/__module.model.layers.1/__module.model.layers.1.self_attn # /home/phil2/Super-Intel-NPU/current/Super-Intel-NPU/venv_offering/lib/python3.12/site-packages/transformers/integrations/sdpa_attention.py:26:0
  %651 : Float(2, 8, 1, 32, 128, strides=[32768, 4096, 4096, 128, 1], requires_grad=0, device=cpu) = aten::unsqueeze(%650, %243), scope: __module.model/__module.model.layers.1/__module.model.layers.1.self_attn # /home/phil2/Super-Intel-NPU/current/Super-Intel-NPU/venv_offering/lib/python3.12/site-packages/transformers/integrations/sdpa_attention.py:26:0
  %652 : Float(2, 8, 1, 32, 128, strides=[32768, 4096, 4096, 128, 1], requires_grad=0, device=cpu) = aten::slice(%651, %235, %237, %236, %242), scope: __module.model/__module.model.layers.1/__module.model.layers.1.self_attn # /home/phil2/Super-Intel-NPU/current/Super-Intel-NPU/venv_offering/lib/python3.12/site-packages/transformers/integrations/sdpa_attention.py:26:0
  %653 : Float(2, 8, 1, 32, 128, strides=[32768, 4096, 4096, 128, 1], requires_grad=0, device=cpu) = aten::slice(%652, %234, %237, %236, %242), scope: __module.model/__module.model.layers.1/__module.model.layers.1.self_attn # /home/phil2/Super-Intel-NPU/current/Super-Intel-NPU/venv_offering/lib/python3.12/site-packages/transformers/integrations/sdpa_attention.py:26:0
  %654 : int[] = prim::ListConstruct(%644, %645, %234, %647, %648), scope: __module.model/__module.model.layers.1/__module.model.layers.1.self_attn
…
_attention.py:96:0
  %5316 : Float(2, 16, 32, 128, strides=[65536, 4096, 128, 1], requires_grad=0, device=cpu) = aten::transpose(%attn_output.125, %242, %243), scope: __module.model/__module.model.layers.31/__module.model.layers.31.self_attn # /home/phil2/Super-Intel-NPU/current/Super-Intel-NPU/venv_offering/lib/python3.12/site-packages/transformers/integrations/sdpa_attention.py:106:0
  %attn_output : Float(2, 16, 32, 128, strides=[65536, 4096, 128, 1], requires_grad=0, device=cpu) = aten::contiguous(%5316, %237), scope: __module.model/__module.model.layers.31/__module.model.layers.31.self_attn # /home/phil2/Super-Intel-NPU/current/Super-Intel-NPU/venv_offering/lib/python3.12/site-packages/transformers/integrations/sdpa_attention.py:106:0
  %5318 : int[] = prim::ListConstruct(%5223, %5224, %231), scope: __module.model/__module.model.layers.31/__module.model.layers.31.self_attn
  %5319 : Float(2, 16, 4096, strides=[65536, 4096, 1], requires_grad=0, device=cpu) = aten::reshape(%attn_output, %5318), scope: __module.model/__module.model.layers.31/__module.model.layers.31.self_attn # /home/phil2/Super-Intel-NPU/current/Super-Intel-NPU/venv_offering/lib/python3.12/site-packages/transformers/models/mistral/modeling_mistral.py:181:0
  %5320 : Float(2, 16, 4096, strides=[65536, 4096, 1], requires_grad=0, device=cpu) = aten::contiguous(%5319, %237), scope: __module.model/__module.model.layers.31/__module.model.layers.31.self_attn # /home/phil2/Super-Intel-NPU/current/Super-Intel-NPU/venv_offering/lib/python3.12/site-packages/transformers/models/mistral/modeling_mistral.py:181:0
  %weight.569 : Tensor = prim::GetAttr[name="weight"](%o_proj)
  %hidden_states.947 : Float(2, 16, 4096, strides=[65536, 4096, 1], requires_grad=0, device=cpu) = ^Trampoline[inplace=0, module="openvino.frontend.pytorch.patch_model", Subgraph=<Graph>](None)(%5320, %weight.569), scope: __module.model/__module.model.layers.31/__module.model.layers.31.self_attn/__module.model.layers.31.self_attn.o_proj # /home/phil2/Super-Intel-NPU/current/Super-Intel-NPU/venv_offering/lib/python3.12/site-packages/torch/autograd/function.py:581:0
  %5323 : (Float(2, 16, 4096, strides=[65536, 4096, 1], requires_grad=0, device=cpu), Float(2, 8, 32, 128, strides=[32768, 4096, 128, 1], requires_grad=0, device=cpu), Float(2, 8, 32, 128, strides=[32768, 4096, 128, 1], requires_grad=0, device=cpu)) = prim::TupleConstruct(%hidden_states.947, %hidden_states.939, %hidden_states.943)
  %5324 : Float(2, 16, 4096, strides=[65536, 4096, 1], requires_grad=0, device=cpu), %5325 : Float(2, 8, 32, 128, strides=[32768, 4096, 128, 1], requires_grad=0, device=cpu), %5326 : Float(2, 8, 32, 128, strides=[32768, 4096, 128, 1], requires_grad=0, device=cpu) = prim::TupleUnpack(%5323)
  %hidden_states.949 : Float(2, 16, 4096, strides=[65536, 4096, 1], requires_grad=0, device=cpu) = aten::add(%5218, %5324, %242), scope: __module.model/__module.model.layers.31 # /home/phil2/Super-Intel-NPU/current/Super-Intel-NPU/venv_offering/lib/python3.12/site-packages/transformers/models/mistral/modeling_mistral.py:241:0
  %weight.571 : Tensor = prim::GetAttr[name="weight"](%post_attention_layernorm)
  %hidden_states.951 : Float(2, 16, 4096, strides=[65536, 4096, 1], requires_grad=0, device=cpu) = aten::to(%hidden_states.949, %229, %239, %239, %241), scope: __module.model/__module.model.layers.31/__module.model.layers.31.post_attention_layernorm # /home/phil2/Super-Intel-NPU/current/Super-Intel-NPU/venv_offering/lib/python3.12/site-packages/transformers/models/mistral/modeling_mistral.py:198:0
  %5330 : Float(2, 16, 4096, strides=[65536, 4096, 1], requires_grad=0, device=cpu) = aten::pow(%hidden_states.951, %243), scope: __module.model/__module.model.layers.31/__module.model.layers.31.post_attention_layernorm # /home/phil2/Super-Intel-NPU/current/Super-Intel-NPU/venv_offering/lib/python3.12/site-packages/transformers/models/mistral/modeling_mistral.py:199:0
  %5331 : int[] = prim::ListConstruct(%231), scope: __module.model/__module.model.layers.31/__module.model.layers.31.post_attention_layernorm
  %variance.127 : Float(2, 16, 1, strides=[16, 1, 1], requires_grad=0, device=cpu) = aten::mean(%5330, %5331, %220, %241), scope: __module.model/__module.model.layers.31/__module.model.layers.31.post_attention_layernorm # /home/phil2/Super-Intel-NPU/current/Super-Intel-NPU/venv_offering/lib/python3.12/site-packages/transformers/models/mistral/modeling_mistral.py:199:0
  %5333 : Float(2, 16, 1, strides=[16, 1, 1], requires_grad=0, device=cpu) = aten::add(%variance.127, %219, %242), scope: __module.model/__module.model.layers.31/__module.model.layers.31.post_attention_layernorm # /home/phil2/Super-Intel-NPU/current/Super-Intel-NPU/venv_offering/lib/python3.12/site-packages/transformers/models/mistral/modeling_mistral.py:200:0
  %5334 : Float(2, 16, 1, strides=[16, 1, 1], requires_grad=0, device=cpu) = aten::rsqrt(%5333), scope: __module.model/__module.model.layers.31/__module.model.layers.31.post_attention_layernorm # /home/phil2/Super-Intel-NPU/current/Super-Intel-NPU/venv_offering/lib/python3.12/site-packages/transformers/models/mistral/modeling_mistral.py:200:0
  %hidden_states.953 : Float(2, 16, 4096, strides=[65536, 4096, 1], requires_grad=0, device=cpu) = aten::mul(%hidden_states.951, %5334), scope: __module.model/__module.model.layers.31/__module.model.layers.31.post_attention_layernorm # /home/phil2/Super-Intel-NPU/current/Super-Intel-NPU/venv_offering/lib/python3.12/site-packages/transformers/models/mistral/modeling_mistral.py:200:0
  %hidden_states.955 : Float(2, 16, 4096, strides=[65536, 4096, 1], requires_grad=0, device=cpu) = aten::to(%hidden_states.953, %229, %239, %239, %241), scope: __module.model/__module.model.layers.31/__module.model.layers.31.post_attention_layernorm # /home/phil2/Super-Intel-NPU/current/Super-Intel-NPU/venv_offering/lib/python3.12/site-packages/transformers/models/mistral/modeling_mistral.py:201:0
  %5337 : Float(2, 16, 4096, strides=[65536, 4096, 1], requires_grad=0, device=cpu) = aten::mul(%weight.571, %hidden_states.955), scope: __module.model/__module.model.layers.31/__module.model.layers.31.post_attention_layernorm # /home/phil2/Super-Intel-NPU/current/Super-Intel-NPU/venv_offering/lib/python3.12/site-packages/transformers/models/mistral/modeling_mistral.py:201:0
  %5338 : (Float(2, 16, 4096, strides=[65536, 4096, 1], requires_grad=0, device=cpu), Float(2, 16, 4096, strides=[65536, 4096, 1], requires_grad=0, device=cpu)) = prim::TupleConstruct(%5337, %hidden_states.951)
  %5339 : Float(2, 16, 4096, strides=[65536, 4096, 1], requires_grad=0, device=cpu), %5340 : Float(2, 16, 4096, strides=[65536, 4096, 1], requires_grad=0, device=cpu) = prim::TupleUnpack(%5338)
  %down_proj : __torch__.torch.nn.modules.linear.___torch_mangle_404.Linear = prim::GetAttr[name="down_proj"](%mlp)
  %up_proj : __torch__.torch.nn.modules.linear.___torch_mangle_403.Linear = prim::GetAttr[name="up_proj"](%mlp)
  %gate_proj : __torch__.torch.nn.modules.linear.___torch_mangle_402.Linear = prim::GetAttr[name="gate_proj"](%mlp)
  %weight.573 : Tensor = prim::GetAttr[name="weight"](%gate_proj)
  %input : Float(2, 16, 14336, strides=[229376, 14336, 1], requires_grad=0, device=cpu) = ^Trampoline[inplace=0, module="openvino.frontend.pytorch.patch_model", Subgraph=<Graph>](None)(%5339, %weight.573), scope: __module.model/__module.model.layers.31/__module.model.layers.31.mlp/__module.model.layers.31.mlp.gate_proj # /home/phil2/Super-Intel-NPU/current/Super-Intel-NPU/venv_offering/lib/python3.12/site-packages/torch/autograd/function.py:581:0
  %5346 : Float(2, 16, 14336, strides=[229376, 14336, 1], requires_grad=0, device=cpu) = aten::silu(%input), scope: __module.model/__module.model.layers.31/__module.model.layers.31.mlp/__module.model.layers.31.mlp.act_fn # /home/phil2/Super-Intel-NPU/current/Super-Intel-NPU/venv_offering/lib/python3.12/site-packages/torch/nn/functional.py:2371:0
  %weight.575 : Tensor = prim::GetAttr[name="weight"](%up_proj)
  %5348 : Float(2, 16, 14336, strides=[229376, 14336, 1], requires_grad=0, device=cpu) = ^Trampoline[inplace=0, module="openvino.frontend.pytorch.patch_model", Subgraph=<Graph>](None)(%5339, %weight.575), scope: __module.model/__module.model.layers.31/__module.model.layers.31.mlp/__module.model.layers.31.mlp.up_proj # /home/phil2/Super-Intel-NPU/current/Super-Intel-NPU/venv_offering/lib/python3.12/site-packages/torch/autograd/function.py:581:0
  %5349 : Float(2, 16, 14336, strides=[229376, 14336, 1], requires_grad=0, device=cpu) = aten::mul(%5346, %5348), scope: __module.model/__module.model.layers.31/__module.model.layers.31.mlp # /home/phil2/Super-Intel-NPU/current/Super-Intel-NPU/venv_offering/lib/python3.12/site-packages/transformers/models/mistral/modeling_mistral.py:47:0
  %weight.577 : Tensor = prim::GetAttr[name="weight"](%down_proj)
  %hidden_states.957 : Float(2, 16, 4096, strides=[65536, 4096, 1], requires_grad=0, device=cpu) = ^Trampoline[inplace=0, module="openvino.frontend.pytorch.patch_model", Subgraph=<Graph>](None)(%5349, %weight.577), scope: __module.model/__module.model.layers.31/__module.model.layers.31.mlp/__module.model.layers.31.mlp.down_proj # /home/phil2/Super-Intel-NPU/current/Super-Intel-NPU/venv_offering/lib/python3.12/site-packages/torch/autograd/function.py:581:0
  %hidden_states.959 : Float(2, 16, 4096, strides=[65536, 4096, 1], requires_grad=0, device=cpu) = aten::add(%5340, %hidden_states.957, %242), scope: __module.model/__module.model.layers.31 # /home/phil2/Super-Intel-NPU/current/Super-Intel-NPU/venv_offering/lib/python3.12/site-packages/transformers/models/mistral/modeling_mistral.py:247:0
  %5353 : (Float(2, 16, 4096, strides=[65536, 4096, 1], requires_grad=0, device=cpu), Float(2, 8, 32, 128, strides=[32768, 4096, 128, 1], requires_grad=0, device=cpu), Float(2, 8, 32, 128, strides=[32768, 4096, 128, 1], requires_grad=0, device=cpu)) = prim::TupleConstruct(%hidden_states.959, %5325, %5326)
  %5354 : Float(2, 16, 4096, strides=[65536, 4096, 1], requires_grad=0, device=cpu), %5355 : Float(2, 8, 32, 128, strides=[32768, 4096, 128, 1], requires_grad=0, device=cpu), %5356 : Float(2, 8, 32, 128, strides=[32768, 4096, 128, 1], requires_grad=0, device=cpu) = prim::TupleUnpack(%5353)
  %weight.579 : Tensor = prim::GetAttr[name="weight"](%norm)
  %hidden_states.961 : Float(2, 16, 4096, strides=[65536, 4096, 1], requires_grad=0, device=cpu) = aten::to(%5354, %229, %239, %239, %241), scope: __module.model/__module.model.norm # /home/phil2/Super-Intel-NPU/current/Super-Intel-NPU/venv_offering/lib/python3.12/site-packages/transformers/models/mistral/modeling_mistral.py:198:0
  %5359 : Float(2, 16, 4096, strides=[65536, 4096, 1], requires_grad=0, device=cpu) = aten::pow(%hidden_states.961, %243), scope: __module.model/__module.model.norm # /home/phil2/Super-Intel-NPU/current/Super-Intel-NPU/venv_offering/lib/python3.12/site-packages/transformers/models/mistral/modeling_mistral.py:199:0
  %5360 : int[] = prim::ListConstruct(%231), scope: __module.model/__module.model.norm
  %variance : Float(2, 16, 1, strides=[16, 1, 1], requires_grad=0, device=cpu) = aten::mean(%5359, %5360, %220, %241), scope: __module.model/__module.model.norm # /home/phil2/Super-Intel-NPU/current/Super-Intel-NPU/venv_offering/lib/python3.12/site-packages/transformers/models/mistral/modeling_mistral.py:199:0
  %5362 : Float(2, 16, 1, strides=[16, 1, 1], requires_grad=0, device=cpu) = aten::add(%variance, %219, %242), scope: __module.model/__module.model.norm # /home/phil2/Super-Intel-NPU/current/Super-Intel-NPU/venv_offering/lib/python3.12/site-packages/transformers/models/mistral/modeling_mistral.py:200:0
  %5363 : Float(2, 16, 1, strides=[16, 1, 1], requires_grad=0, device=cpu) = aten::rsqrt(%5362), scope: __module.model/__module.model.norm # /home/phil2/Super-Intel-NPU/current/Super-Intel-NPU/venv_offering/lib/python3.12/site-packages/transformers/models/mistral/modeling_mistral.py:200:0
  %hidden_states.963 : Float(2, 16, 4096, strides=[65536, 4096, 1], requires_grad=0, device=cpu) = aten::mul(%hidden_states.961, %5363), scope: __module.model/__module.model.norm # /home/phil2/Super-Intel-NPU/current/Super-Intel-NPU/venv_offering/lib/python3.12/site-packages/transformers/models/mistral/modeling_mistral.py:200:0
  %hidden_states.965 : Float(2, 16, 4096, strides=[65536, 4096, 1], requires_grad=0, device=cpu) = aten::to(%hidden_states.963, %229, %239, %239, %241), scope: __module.model/__module.model.norm # /home/phil2/Super-Intel-NPU/current/Super-Intel-NPU/venv_offering/lib/python3.12/site-packages/transformers/models/mistral/modeling_mistral.py:201:0
  %hidden_states : Float(2, 16, 4096, strides=[65536, 4096, 1], requires_grad=0, device=cpu) = aten::mul(%weight.579, %hidden_states.965), scope: __module.model/__module.model.norm # /home/phil2/Super-Intel-NPU/current/Super-Intel-NPU/venv_offering/lib/python3.12/site-packages/transformers/models/mistral/modeling_mistral.py:201:0
  %5367 : (Float(2, 16, 4096, strides=[65536, 4096, 1], requires_grad=0, device=cpu), Float(2, 8, 32, 128, strides=[32768, 4096, 128, 1], requires_grad=0, device=cpu), Float(2, 8, 32, 128, strides=[32768, 4096, 128, 1], requires_grad=0, device=cpu), Float(2, 8, 32, 128, strides=[32768, 4096, 128, 1], requires_grad=0, device=cpu), Float(2, 8, 32, 128, strides=[32768, 4096, 128, 1], requires_grad=0, device=cpu), Float(2, 8, 32, 128, strides=[32768, 4096, 128, 1], requires_grad=0, device=cpu), Float(2, 8, 32, 128, strides=[32768, 4096, 128, 1], requires_grad=0, device=cpu), Float(2, 8, 32, 128, strides=[32768, 4096, 128, 1], requires_grad=0, device=cpu), Float(2, 8, 32, 128, strides=[32768, 4096, 128, 1], requires_grad=0, device=cpu), Float(2, 8, 32, 128, strides=[32768, 4096, 128, 1], requires_grad=0, device=cpu), Float(2, 8, 32, 128, strides=[32768, 4096, 128, 1], requires_grad=0, device=cpu), Float(2, 8, 32, 128, strides=[32768, 4096, 128, 1], requires_grad=0, device=cpu), Float(2, 8, 32, 128, strides=[32768, 4096, 128, 1], requires_grad=0, device=cpu), Float(2, 8, 32, 128, strides=[32768, 4096, 128, 1], requires_grad=0, device=cpu), Float(2, 8, 32, 128, strides=[32768, 4096, 128, 1], requires_grad=0, device=cpu), Float(2, 8, 32, 128, strides=[32768, 4096, 128, 1], requires_grad=0, device=cpu), Float(2, 8, 32, 128, strides=[32768, 4096, 128, 1], requires_grad=0, device=cpu), Float(2, 8, 32, 128, strides=[32768, 4096, 128, 1], requires_grad=0, device=cpu), Float(2, 8, 32, 128, strides=[32768, 4096, 128, 1], requires_grad=0, device=cpu), Float(2, 8, 32, 128, strides=[32768, 4096, 128, 1], requires_grad=0, device=cpu), Float(2, 8, 32, 128, strides=[32768, 4096, 128, 1], requires_grad=0, device=cpu), Float(2, 8, 32, 128, strides=[32768, 4096, 128, 1], requires_grad=0, device=cpu), Float(2, 8, 32, 128, strides=[32768, 4096, 128, 1], requires_grad=0, device=cpu), Float(2, 8, 32, 128, strides=[32768, 4096, 128, 1], requires_grad=0, device=cpu), Float(2, 8, 32, 128, strides=[32768, 4096, 128, 1], requires_grad=0, device=cpu), Float(2, 8, 32, 128, strides=[32768, 4096, 128, 1], requires_grad=0, device=cpu), Float(2, 8, 32, 128, strides=[32768, 4096, 128, 1], requires_grad=0, device=cpu), Float(2, 8, 32, 128, strides=[32768, 4096, 128, 1], requires_grad=0, device=cpu), Float(2, 8, 32, 128, strides=[32768, 4096, 128, 1], requires_grad=0, device=cpu), Float(2, 8, 32, 128, strides=[32768, 4096, 128, 1], requires_grad=0, device=cpu), Float(2, 8, 32, 128, strides=[32768, 4096, 128, 1], requires_grad=0, device=cpu), Float(2, 8, 32, 128, strides=[32768, 4096, 128, 1], requires_grad=0, device=cpu), Float(2, 8, 32, 128, strides=[32768, 4096, 128, 1], requires_grad=0, device=cpu), Float(2, 8, 32, 128, strides=[32768, 4096, 128, 1], requires_grad=0, device=cpu), Float(2, 8, 32, 128, strides=[32768, 4096, 128, 1], requires_grad=0, device=cpu), Float(2, 8, 32, 128, strides=[32768, 4096, 128, 1], requires_grad=0, device=cpu), Float(2, 8, 32, 128, strides=[32768, 4096, 128, 1], requires_grad=0, device=cpu), Float(2, 8, 32, 128, strides=[32768, 4096, 128, 1], requires_grad=0, device=cpu), Float(2, 8, 32, 128, strides=[32768, 4096, 128, 1], requires_grad=0, device=cpu), Float(2, 8, 32, 128, strides=[32768, 4096, 128, 1], requires_grad=0, device=cpu), Float(2, 8, 32, 128, strides=[32768, 4096, 128, 1], requires_grad=0, device=cpu), Float(2, 8, 32, 128, strides=[32768, 4096, 128, 1], requires_grad=0, device=cpu), Float(2, 8, 32, 128, strides=[32768, 4096, 128, 1], requires_grad=0, device=cpu), Float(2, 8, 32, 128, strides=[32768, 4096, 128, 1], requires_grad=0, device=cpu), Float(2, 8, 32, 128, strides=[32768, 4096, 128, 1], requires_grad=0, device=cpu), Float(2, 8, 32, 128, strides=[32768, 4096, 128, 1], requires_grad=0, device=cpu), Float(2, 8, 32, 128, strides=[32768, 4096, 128, 1], requires_grad=0, device=cpu), Float(2, 8, 32, 128, strides=[32768, 4096, 128, 1], requires_grad=0, device=cpu), Float(2, 8, 32, 128, strides=[32768, 4096, 128, 1], requires_grad=0, device=cpu), Float(2, 8, 32, 128, strides=[32768, 4096, 128, 1], requires_grad=0, device=cpu), Float(2, 8, 32, 128, strides=[32768, 4096, 128, 1], requires_grad=0, device=cpu), Float(2, 8, 32, 128, strides=[32768, 4096, 128, 1], requires_grad=0, device=cpu), Float(2, 8, 32, 128, strides=[32768, 4096, 128, 1], requires_grad=0, device=cpu), Float(2, 8, 32, 128, strides=[32768, 4096, 128, 1], requires_grad=0, device=cpu), Float(2, 8, 32, 128, strides=[32768, 4096, 128, 1], requires_grad=0, device=cpu), Float(2, 8, 32, 128, strides=[32768, 4096, 128, 1], requires_grad=0, device=cpu), Float(2, 8, 32, 128, strides=[32768, 4096, 128, 1], requires_grad=0, device=cpu), Float(2, 8, 32, 128, strides=[32768, 4096, 128, 1], requires_grad=0, device=cpu), Float(2, 8, 32, 128, strides=[32768, 4096, 128, 1], requires_grad=0, device=cpu), Float(2, 8, 32, 128, strides=[32768, 4096, 128, 1], requires_grad=0, device=cpu), Float(2, 8, 32, 128, strides=[32768, 4096, 128, 1], requires_grad=0, device=cpu), Float(2, 8, 32, 128, strides=[32768, 4096, 128, 1], requires_grad=0, device=cpu), Float(2, 8, 32, 128, strides=[32768, 4096, 128, 1], requires_grad=0, device=cpu), Float(2, 8, 32, 128, strides=[32768, 4096, 128, 1], requires_grad=0, device=cpu), Float(2, 8, 32, 128, strides=[32768, 4096, 128, 1], requires_grad=0, device=cpu)) = prim::TupleConstruct(%hidden_states, %550, %551, %705, %706, %860, %861, %1015, %1016, %1170, %1171, %1325, %1326, %1480, %1481, %1635, %1636, %1790, %1791, %1945, %1946, %2100, %2101, %2255, %2256, %2410, %2411, %2565, %2566, %2720, %2721, %2875, %2876, %3030, %3031, %3185, %3186, %3340, %3341, %3495, %3496, %3650, %3651, %3805, %3806, %3960, %3961, %4115, %4116, %4270, %4271, %4425, %4426, %4580, %4581, %4735, %4736, %4890, %4891, %5045, %5046, %5200, %5201, %5355, %5356)
  %104 : Float(2, 16, 4096, strides=[65536, 4096, 1], requires_grad=0, device=cpu), %105 : Float(2, 8, 32, 128, strides=[32768, 4096, 128, 1], requires_grad=0, device=cpu), %106 : Float(2, 8, 32, 128, strides=[32768, 4096, 128, 1], requires_grad=0, device=cpu), %107 : Float(2, 8, 32, 128, strides=[32768, 4096, 128, 1], requires_grad=0, device=cpu), %108 : Float(2, 8, 32, 128, strides=[32768, 4096, 128, 1], requires_grad=0, device=cpu), %109 : Float(2, 8, 32, 128, strides=[32768, 4096, 128, 1], requires_grad=0, device=cpu), %110 : Float(2, 8, 32, 128, strides=[32768, 4096, 128, 1], requires_grad=0, device=cpu), %111 : Float(2, 8, 32, 128, strides=[32768, 4096, 128, 1], requires_grad=0, device=cpu), %112 : Float(2, 8, 32, 128, strides=[32768, 4096, 128, 1], requires_grad=0, device=cpu), %113 : Float(2, 8, 32, 128, strides=[32768, 4096, 128, 1], requires_grad=0, device=cpu), %114 : Float(2, 8, 32, 128, strides=[32768, 4096, 128, 1], requires_grad=0, device=cpu), %115 : Float(2, 8, 32, 128, strides=[32768, 4096, 128, 1], requires_grad=0, device=cpu), %116 : Float(2, 8, 32, 128, strides=[32768, 4096, 128, 1], requires_grad=0, device=cpu), %117 : Float(2, 8, 32, 128, strides=[32768, 4096, 128, 1], requires_grad=0, device=cpu), %118 : Float(2, 8, 32, 128, strides=[32768, 4096, 128, 1], requires_grad=0, device=cpu), %119 : Float(2, 8, 32, 128, strides=[32768, 4096, 128, 1], requires_grad=0, device=cpu), %120 : Float(2, 8, 32, 128, strides=[32768, 4096, 128, 1], requires_grad=0, device=cpu), %121 : Float(2, 8, 32, 128, strides=[32768, 4096, 128, 1], requires_grad=0, device=cpu), %122 : Float(2, 8, 32, 128, strides=[32768, 4096, 128, 1], requires_grad=0, device=cpu), %123 : Float(2, 8, 32, 128, strides=[32768, 4096, 128, 1], requires_grad=0, device=cpu), %124 : Float(2, 8, 32, 128, strides=[32768, 4096, 128, 1], requires_grad=0, device=cpu), %125 : Float(2, 8, 32, 128, strides=[32768, 4096, 128, 1], requires_grad=0, device=cpu), %126 : Float(2, 8, 32, 128, strides=[32768, 4096, 128, 1], requires_grad=0, device=cpu), %127 : Float(2, 8, 32, 128, strides=[32768, 4096, 128, 1], requires_grad=0, device=cpu), %128 : Float(2, 8, 32, 128, strides=[32768, 4096, 128, 1], requires_grad=0, device=cpu), %129 : Float(2, 8, 32, 128, strides=[32768, 4096, 128, 1], requires_grad=0, device=cpu), %130 : Float(2, 8, 32, 128, strides=[32768, 4096, 128, 1], requires_grad=0, device=cpu), %131 : Float(2, 8, 32, 128, strides=[32768, 4096, 128, 1], requires_grad=0, device=cpu), %132 : Float(2, 8, 32, 128, strides=[32768, 4096, 128, 1], requires_grad=0, device=cpu), %133 : Float(2, 8, 32, 128, strides=[32768, 4096, 128, 1], requires_grad=0, device=cpu), %134 : Float(2, 8, 32, 128, strides=[32768, 4096, 128, 1], requires_grad=0, device=cpu), %135 : Float(2, 8, 32, 128, strides=[32768, 4096, 128, 1], requires_grad=0, device=cpu), %136 : Float(2, 8, 32, 128, strides=[32768, 4096, 128, 1], requires_grad=0, device=cpu), %137 : Float(2, 8, 32, 128, strides=[32768, 4096, 128, 1], requires_grad=0, device=cpu), %138 : Float(2, 8, 32, 128, strides=[32768, 4096, 128, 1], requires_grad=0, device=cpu), %139 : Float(2, 8, 32, 128, strides=[32768, 4096, 128, 1], requires_grad=0, device=cpu), %140 : Float(2, 8, 32, 128, strides=[32768, 4096, 128, 1], requires_grad=0, device=cpu), %141 : Float(2, 8, 32, 128, strides=[32768, 4096, 128, 1], requires_grad=0, device=cpu), %142 : Float(2, 8, 32, 128, strides=[32768, 4096, 128, 1], requires_grad=0, device=cpu), %143 : Float(2, 8, 32, 128, strides=[32768, 4096, 128, 1], requires_grad=0, device=cpu), %144 : Float(2, 8, 32, 128, strides=[32768, 4096, 128, 1], requires_grad=0, device=cpu), %145 : Float(2, 8, 32, 128, strides=[32768, 4096, 128, 1], requires_grad=0, device=cpu), %146 : Float(2, 8, 32, 128, strides=[32768, 4096, 128, 1], requires_grad=0, device=cpu), %147 : Float(2, 8, 32, 128, strides=[32768, 4096, 128, 1], requires_grad=0, device=cpu), %148 : Float(2, 8, 32, 128, strides=[32768, 4096, 128, 1], requires_grad=0, device=cpu), %149 : Float(2, 8, 32, 128, strides=[32768, 4096, 128, 1], requires_grad=0, device=cpu), %150 : Float(2, 8, 32, 128, strides=[32768, 4096, 128, 1], requires_grad=0, device=cpu), %151 : Float(2, 8, 32, 128, strides=[32768, 4096, 128, 1], requires_grad=0, device=cpu), %152 : Float(2, 8, 32, 128, strides=[32768, 4096, 128, 1], requires_grad=0, device=cpu), %153 : Float(2, 8, 32, 128, strides=[32768, 4096, 128, 1], requires_grad=0, device=cpu), %154 : Float(2, 8, 32, 128, strides=[32768, 4096, 128, 1], requires_grad=0, device=cpu), %155 : Float(2, 8, 32, 128, strides=[32768, 4096, 128, 1], requires_grad=0, device=cpu), %156 : Float(2, 8, 32, 128, strides=[32768, 4096, 128, 1], requires_grad=0, device=cpu), %157 : Float(2, 8, 32, 128, strides=[32768, 4096, 128, 1], requires_grad=0, device=cpu), %158 : Float(2, 8, 32, 128, strides=[32768, 4096, 128, 1], requires_grad=0, device=cpu), %159 : Float(2, 8, 32, 128, strides=[32768, 4096, 128, 1], requires_grad=0, device=cpu), %160 : Float(2, 8, 32, 128, strides=[32768, 4096, 128, 1], requires_grad=0, device=cpu), %161 : Float(2, 8, 32, 128, strides=[32768, 4096, 128, 1], requires_grad=0, device=cpu), %162 : Float(2, 8, 32, 128, strides=[32768, 4096, 128, 1], requires_grad=0, device=cpu), %163 : Float(2, 8, 32, 128, strides=[32768, 4096, 128, 1], requires_grad=0, device=cpu), %164 : Float(2, 8, 32, 128, strides=[32768, 4096, 128, 1], requires_grad=0, device=cpu), %165 : Float(2, 8, 32, 128, strides=[32768, 4096, 128, 1], requires_grad=0, device=cpu), %166 : Float(2, 8, 32, 128, strides=[32768, 4096, 128, 1], requires_grad=0, device=cpu), %167 : Float(2, 8, 32, 128, strides=[32768, 4096, 128, 1], requires_grad=0, device=cpu), %168 : Float(2, 8, 32, 128, strides=[32768, 4096, 128, 1], requires_grad=0, device=cpu) = prim::TupleUnpack(%5367)
  %169 : int = prim::Constant[value=0]() # /home/phil2/Super-Intel-NPU/current/Super-Intel-NPU/venv_offering/lib/python3.12/site-packages/transformers/models/mistral/modeling_mistral.py:447:0
  %170 : int = prim::Constant[value=0]() # /home/phil2/Super-Intel-NPU/current/Super-Intel-NPU/venv_offering/lib/python3.12/site-packages/transformers/models/mistral/modeling_mistral.py:447:0
  %171 : int = prim::Constant[value=9223372036854775807]() # /home/phil2/Super-Intel-NPU/current/Super-Intel-NPU/venv_offering/lib/python3.12/site-packages/transformers/models/mistral/modeling_mistral.py:447:0
  %172 : int = prim::Constant[value=1]() # /home/phil2/Super-Intel-NPU/current/Super-Intel-NPU/venv_offering/lib/python3.12/site-packages/transformers/models/mistral/modeling_mistral.py:447:0
  %173 : Float(2, 16, 4096, strides=[65536, 4096, 1], requires_grad=0, device=cpu) = aten::slice(%104, %169, %170, %171, %172) # /home/phil2/Super-Intel-NPU/current/Super-Intel-NPU/venv_offering/lib/python3.12/site-packages/transformers/models/mistral/modeling_mistral.py:447:0
  %174 : int = prim::Constant[value=1]() # /home/phil2/Super-Intel-NPU/current/Super-Intel-NPU/venv_offering/lib/python3.12/site-packages/transformers/models/mistral/modeling_mistral.py:447:0
  %175 : int = prim::Constant[value=0]() # /home/phil2/Super-Intel-NPU/current/Super-Intel-NPU/venv_offering/lib/python3.12/site-packages/transformers/models/mistral/modeling_mistral.py:447:0
  %176 : int = prim::Constant[value=9223372036854775807]() # /home/phil2/Super-Intel-NPU/current/Super-Intel-NPU/venv_offering/lib/python3.12/site-packages/transformers/models/mistral/modeling_mistral.py:447:0
  %177 : int = prim::Constant[value=1]() # /home/phil2/Super-Intel-NPU/current/Super-Intel-NPU/venv_offering/lib/python3.12/site-packages/transformers/models/mistral/modeling_mistral.py:447:0
  %178 : Float(2, 16, 4096, strides=[65536, 4096, 1], requires_grad=0, device=cpu) = aten::slice(%173, %174, %175, %176, %177) # /home/phil2/Super-Intel-NPU/current/Super-Intel-NPU/venv_offering/lib/python3.12/site-packages/transformers/models/mistral/modeling_mistral.py:447:0
  %179 : int = prim::Constant[value=2]() # /home/phil2/Super-Intel-NPU/current/Super-Intel-NPU/venv_offering/lib/python3.12/site-packages/transformers/models/mistral/modeling_mistral.py:447:0
  %180 : int = prim::Constant[value=0]() # /home/phil2/Super-Intel-NPU/current/Super-Intel-NPU/venv_offering/lib/python3.12/site-packages/transformers/models/mistral/modeling_mistral.py:447:0
  %181 : int = prim::Constant[value=9223372036854775807]() # /home/phil2/Super-Intel-NPU/current/Super-Intel-NPU/venv_offering/lib/python3.12/site-packages/transformers/models/mistral/modeling_mistral.py:447:0
  %182 : int = prim::Constant[value=1]() # /home/phil2/Super-Intel-NPU/current/Super-Intel-NPU/venv_offering/lib/python3.12/site-packages/transformers/models/mistral/modeling_mistral.py:447:0
  %183 : Float(2, 16, 4096, strides=[65536, 4096, 1], requires_grad=0, device=cpu) = aten::slice(%178, %179, %180, %181, %182) # /home/phil2/Super-Intel-NPU/current/Super-Intel-NPU/venv_offering/lib/python3.12/site-packages/transformers/models/mistral/modeling_mistral.py:447:0
  %weight : Tensor = prim::GetAttr[name="weight"](%lm_head)
  %5369 : Float(2, 16, 32000, strides=[512000, 32000, 1], requires_grad=0, device=cpu) = ^Trampoline[inplace=0, module="openvino.frontend.pytorch.patch_model", Subgraph=<Graph>](None)(%183, %weight), scope: __module.lm_head # /home/phil2/Super-Intel-NPU/current/Super-Intel-NPU/venv_offering/lib/python3.12/site-packages/torch/autograd/function.py:581:0
  %185 : (Float(2, 8, 32, 128, strides=[32768, 4096, 128, 1], requires_grad=0, device=cpu), Float(2, 8, 32, 128, strides=[32768, 4096, 128, 1], requires_grad=0, device=cpu)) = prim::TupleConstruct(%105, %106)
  %186 : (Float(2, 8, 32, 128, strides=[32768, 4096, 128, 1], requires_grad=0, device=cpu), Float(2, 8, 32, 128, strides=[32768, 4096, 128, 1], requires_grad=0, device=cpu)) = prim::TupleConstruct(%107, %108)
  %187 : (Float(2, 8, 32, 128, strides=[32768, 4096, 128, 1], requires_grad=0, device=cpu), Float(2, 8, 32, 128, strides=[32768, 4096, 128, 1], requires_grad=0, device=cpu)) = prim::TupleConstruct(%109, %110)
  %188 : (Float(2, 8, 32, 128, strides=[32768, 4096, 128, 1], requires_grad=0, device=cpu), Float(2, 8, 32, 128, strides=[32768, 4096, 128, 1], requires_grad=0, device=cpu)) = prim::TupleConstruct(%111, %112)
  %189 : (Float(2, 8, 32, 128, strides=[32768, 4096, 128, 1], requires_grad=0, device=cpu), Float(2, 8, 32, 128, strides=[32768, 4096, 128, 1], requires_grad=0, device=cpu)) = prim::TupleConstruct(%113, %114)
  %190 : (Float(2, 8, 32, 128, strides=[32768, 4096, 128, 1], requires_grad=0, device=cpu), Float(2, 8, 32, 128, strides=[32768, 4096, 128, 1], requires_grad=0, device=cpu)) = prim::TupleConstruct(%115, %116)
  %191 : (Float(2, 8, 32, 128, strides=[32768, 4096, 128, 1], requires_grad=0, device=cpu), Float(2, 8, 32, 128, strides=[32768, 4096, 128, 1], requires_grad=0, device=cpu)) = prim::TupleConstruct(%117, %118)
  %192 : (Float(2, 8, 32, 128, strides=[32768, 4096, 128, 1], requires_grad=0, device=cpu), Float(2, 8, 32, 128, strides=[32768, 4096, 128, 1], requires_grad=0, device=cpu)) = prim::TupleConstruct(%119, %120)
  %193 : (Float(2, 8, 32, 128, strides=[32768, 4096, 128, 1], requires_grad=0, device=cpu), Float(2, 8, 32, 128, strides=[32768, 4096, 128, 1], requires_grad=0, device=cpu)) = prim::TupleConstruct(%121, %122)
  %194 : (Float(2, 8, 32, 128, strides=[32768, 4096, 128, 1], requires_grad=0, device=cpu), Float(2, 8, 32, 128, strides=[32768, 4096, 128, 1], requires_grad=0, device=cpu)) = prim::TupleConstruct(%123, %124)
  %195 : (Float(2, 8, 32, 128, strides=[32768, 4096, 128, 1], requires_grad=0, device=cpu), Float(2, 8, 32, 128, strides=[32768, 4096, 128, 1], requires_grad=0, device=cpu)) = prim::TupleConstruct(%125, %126)
  %196 : (Float(2, 8, 32, 128, strides=[32768, 4096, 128, 1], requires_grad=0, device=cpu), Float(2, 8, 32, 128, strides=[32768, 4096, 128, 1], requires_grad=0, device=cpu)) = prim::TupleConstruct(%127, %128)
  %197 : (Float(2, 8, 32, 128, strides=[32768, 4096, 128, 1], requires_grad=0, device=cpu), Float(2, 8, 32, 128, strides=[32768, 4096, 128, 1], requires_grad=0, device=cpu)) = prim::TupleConstruct(%129, %130)
  %198 : (Float(2, 8, 32, 128, strides=[32768, 4096, 128, 1], requires_grad=0, device=cpu), Float(2, 8, 32, 128, strides=[32768, 4096, 128, 1], requires_grad=0, device=cpu)) = prim::TupleConstruct(%131, %132)
  %199 : (Float(2, 8, 32, 128, strides=[32768, 4096, 128, 1], requires_grad=0, device=cpu), Float(2, 8, 32, 128, strides=[32768, 4096, 128, 1], requires_grad=0, device=cpu)) = prim::TupleConstruct(%133, %134)
  %200 : (Float(2, 8, 32, 128, strides=[32768, 4096, 128, 1], requires_grad=0, device=cpu), Float(2, 8, 32, 128, strides=[32768, 4096, 128, 1], requires_grad=0, device=cpu)) = prim::TupleConstruct(%135, %136)
  %201 : (Float(2, 8, 32, 128, strides=[32768, 4096, 128, 1], requires_grad=0, device=cpu), Float(2, 8, 32, 128, strides=[32768, 4096, 128, 1], requires_grad=0, device=cpu)) = prim::TupleConstruct(%137, %138)
  %202 : (Float(2, 8, 32, 128, strides=[32768, 4096, 128, 1], requires_grad=0, device=cpu), Float(2, 8, 32, 128, strides=[32768, 4096, 128, 1], requires_grad=0, device=cpu)) = prim::TupleConstruct(%139, %140)
  %203 : (Float(2, 8, 32, 128, strides=[32768, 4096, 128, 1], requires_grad=0, device=cpu), Float(2, 8, 32, 128, strides=[32768, 4096, 128, 1], requires_grad=0, device=cpu)) = prim::TupleConstruct(%141, %142)
  %204 : (Float(2, 8, 32, 128, strides=[32768, 4096, 128, 1], requires_grad=0, device=cpu), Float(2, 8, 32, 128, strides=[32768, 4096, 128, 1], requires_grad=0, device=cpu)) = prim::TupleConstruct(%143, %144)
  %205 : (Float(2, 8, 32, 128, strides=[32768, 4096, 128, 1], requires_grad=0, device=cpu), Float(2, 8, 32, 128, strides=[32768, 4096, 128, 1], requires_grad=0, device=cpu)) = prim::TupleConstruct(%145, %146)
  %206 : (Float(2, 8, 32, 128, strides=[32768, 4096, 128, 1], requires_grad=0, device=cpu), Float(2, 8, 32, 128, strides=[32768, 4096, 128, 1], requires_grad=0, device=cpu)) = prim::TupleConstruct(%147, %148)
  %207 : (Float(2, 8, 32, 128, strides=[32768, 4096, 128, 1], requires_grad=0, device=cpu), Float(2, 8, 32, 128, strides=[32768, 4096, 128, 1], requires_grad=0, device=cpu)) = prim::TupleConstruct(%149, %150)
  %208 : (Float(2, 8, 32, 128, strides=[32768, 4096, 128, 1], requires_grad=0, device=cpu), Float(2, 8, 32, 128, strides=[32768, 4096, 128, 1], requires_grad=0, device=cpu)) = prim::TupleConstruct(%151, %152)
  %209 : (Float(2, 8, 32, 128, strides=[32768, 4096, 128, 1], requires_grad=0, device=cpu), Float(2, 8, 32, 128, strides=[32768, 4096, 128, 1], requires_grad=0, device=cpu)) = prim::TupleConstruct(%153, %154)
  %210 : (Float(2, 8, 32, 128, strides=[32768, 4096, 128, 1], requires_grad=0, device=cpu), Float(2, 8, 32, 128, strides=[32768, 4096, 128, 1], requires_grad=0, device=cpu)) = prim::TupleConstruct(%155, %156)
  %211 : (Float(2, 8, 32, 128, strides=[32768, 4096, 128, 1], requires_grad=0, device=cpu), Float(2, 8, 32, 128, strides=[32768, 4096, 128, 1], requires_grad=0, device=cpu)) = prim::TupleConstruct(%157, %158)
  %212 : (Float(2, 8, 32, 128, strides=[32768, 4096, 128, 1], requires_grad=0, device=cpu), Float(2, 8, 32, 128, strides=[32768, 4096, 128, 1], requires_grad=0, device=cpu)) = prim::TupleConstruct(%159, %160)
  %213 : (Float(2, 8, 32, 128, strides=[32768, 4096, 128, 1], requires_grad=0, device=cpu), Float(2, 8, 32, 128, strides=[32768, 4096, 128, 1], requires_grad=0, device=cpu)) = prim::TupleConstruct(%161, %162)
  %214 : (Float(2, 8, 32, 128, strides=[32768, 4096, 128, 1], requires_grad=0, device=cpu), Float(2, 8, 32, 128, strides=[32768, 4096, 128, 1], requires_grad=0, device=cpu)) = prim::TupleConstruct(%163, %164)
  %215 : (Float(2, 8, 32, 128, strides=[32768, 4096, 128, 1], requires_grad=0, device=cpu), Float(2, 8, 32, 128, strides=[32768, 4096, 128, 1], requires_grad=0, device=cpu)) = prim::TupleConstruct(%165, %166)
  %216 : (Float(2, 8, 32, 128, strides=[32768, 4096, 128, 1], requires_grad=0, device=cpu), Float(2, 8, 32, 128, strides=[32768, 4096, 128, 1], requires_grad=0, device=cpu)) = prim::TupleConstruct(%167, %168)
  %217 : ((Float(2, 8, 32, 128, strides=[32768, 4096, 128, 1], requires_grad=0, device=cpu), Float(2, 8, 32, 128, strides=[32768, 4096, 128, 1], requires_grad=0, device=cpu)), (Float(2, 8, 32, 128, strides=[32768, 4096, 128, 1], requires_grad=0, device=cpu), Float(2, 8, 32, 128, strides=[32768, 4096, 128, 1], requires_grad=0, device=cpu)), (Float(2, 8, 32, 128, strides=[32768, 4096, 128, 1], requires_grad=0, device=cpu), Float(2, 8, 32, 128, strides=[32768, 4096, 128, 1], requires_grad=0, device=cpu)), (Float(2, 8, 32, 128, strides=[32768, 4096, 128, 1], requires_grad=0, device=cpu), Float(2, 8, 32, 128, strides=[32768, 4096, 128, 1], requires_grad=0, device=cpu)), (Float(2, 8, 32, 128, strides=[32768, 4096, 128, 1], requires_grad=0, device=cpu), Float(2, 8, 32, 128, strides=[32768, 4096, 128, 1], requires_grad=0, device=cpu)), (Float(2, 8, 32, 128, strides=[32768, 4096, 128, 1], requires_grad=0, device=cpu), Float(2, 8, 32, 128, strides=[32768, 4096, 128, 1], requires_grad=0, device=cpu)), (Float(2, 8, 32, 128, strides=[32768, 4096, 128, 1], requires_grad=0, device=cpu), Float(2, 8, 32, 128, strides=[32768, 4096, 128, 1], requires_grad=0, device=cpu)), (Float(2, 8, 32, 128, strides=[32768, 4096, 128, 1], requires_grad=0, device=cpu), Float(2, 8, 32, 128, strides=[32768, 4096, 128, 1], requires_grad=0, device=cpu)), (Float(2, 8, 32, 128, strides=[32768, 4096, 128, 1], requires_grad=0, device=cpu), Float(2, 8, 32, 128, strides=[32768, 4096, 128, 1], requires_grad=0, device=cpu)), (Float(2, 8, 32, 128, strides=[32768, 4096, 128, 1], requires_grad=0, device=cpu), Float(2, 8, 32, 128, strides=[32768, 4096, 128, 1], requires_grad=0, device=cpu)), (Float(2, 8, 32, 128, strides=[32768, 4096, 128, 1], requires_grad=0, device=cpu), Float(2, 8, 32, 128, strides=[32768, 4096, 128, 1], requires_grad=0, device=cpu)), (Float(2, 8, 32, 128, strides=[32768, 4096, 128, 1], requires_grad=0, device=cpu), Float(2, 8, 32, 128, strides=[32768, 4096, 128, 1], requires_grad=0, device=cpu)), (Float(2, 8, 32, 128, strides=[32768, 4096, 128, 1], requires_grad=0, device=cpu), Float(2, 8, 32, 128, strides=[32768, 4096, 128, 1], requires_grad=0, device=cpu)), (Float(2, 8, 32, 128, strides=[32768, 4096, 128, 1], requires_grad=0, device=cpu), Float(2, 8, 32, 128, strides=[32768, 4096, 128, 1], requires_grad=0, device=cpu)), (Float(2, 8, 32, 128, strides=[32768, 4096, 128, 1], requires_grad=0, device=cpu), Float(2, 8, 32, 128, strides=[32768, 4096, 128, 1], requires_grad=0, device=cpu)), (Float(2, 8, 32, 128, strides=[32768, 4096, 128, 1], requires_grad=0, device=cpu), Float(2, 8, 32, 128, strides=[32768, 4096, 128, 1], requires_grad=0, device=cpu)), (Float(2, 8, 32, 128, strides=[32768, 4096, 128, 1], requires_grad=0, device=cpu), Float(2, 8, 32, 128, strides=[32768, 4096, 128, 1], requires_grad=0, device=cpu)), (Float(2, 8, 32, 128, strides=[32768, 4096, 128, 1], requires_grad=0, device=cpu), Float(2, 8, 32, 128, strides=[32768, 4096, 128, 1], requires_grad=0, device=cpu)), (Float(2, 8, 32, 128, strides=[32768, 4096, 128, 1], requires_grad=0, device=cpu), Float(2, 8, 32, 128, strides=[32768, 4096, 128, 1], requires_grad=0, device=cpu)), (Float(2, 8, 32, 128, strides=[32768, 4096, 128, 1], requires_grad=0, device=cpu), Float(2, 8, 32, 128, strides=[32768, 4096, 128, 1], requires_grad=0, device=cpu)), (Float(2, 8, 32, 128, strides=[32768, 4096, 128, 1], requires_grad=0, device=cpu), Float(2, 8, 32, 128, strides=[32768, 4096, 128, 1], requires_grad=0, device=cpu)), (Float(2, 8, 32, 128, strides=[32768, 4096, 128, 1], requires_grad=0, device=cpu), Float(2, 8, 32, 128, strides=[32768, 4096, 128, 1], requires_grad=0, device=cpu)), (Float(2, 8, 32, 128, strides=[32768, 4096, 128, 1], requires_grad=0, device=cpu), Float(2, 8, 32, 128, strides=[32768, 4096, 128, 1], requires_grad=0, device=cpu)), (Float(2, 8, 32, 128, strides=[32768, 4096, 128, 1], requires_grad=0, device=cpu), Float(2, 8, 32, 128, strides=[32768, 4096, 128, 1], requires_grad=0, device=cpu)), (Float(2, 8, 32, 128, strides=[32768, 4096, 128, 1], requires_grad=0, device=cpu), Float(2, 8, 32, 128, strides=[32768, 4096, 128, 1], requires_grad=0, device=cpu)), (Float(2, 8, 32, 128, strides=[32768, 4096, 128, 1], requires_grad=0, device=cpu), Float(2, 8, 32, 128, strides=[32768, 4096, 128, 1], requires_grad=0, device=cpu)), (Float(2, 8, 32, 128, strides=[32768, 4096, 128, 1], requires_grad=0, device=cpu), Float(2, 8, 32, 128, strides=[32768, 4096, 128, 1], requires_grad=0, device=cpu)), (Float(2, 8, 32, 128, strides=[32768, 4096, 128, 1], requires_grad=0, device=cpu), Float(2, 8, 32, 128, strides=[32768, 4096, 128, 1], requires_grad=0, device=cpu)), (Float(2, 8, 32, 128, strides=[32768, 4096, 128, 1], requires_grad=0, device=cpu), Float(2, 8, 32, 128, strides=[32768, 4096, 128, 1], requires_grad=0, device=cpu)), (Float(2, 8, 32, 128, strides=[32768, 4096, 128, 1], requires_grad=0, device=cpu), Float(2, 8, 32, 128, strides=[32768, 4096, 128, 1], requires_grad=0, device=cpu)), (Float(2, 8, 32, 128, strides=[32768, 4096, 128, 1], requires_grad=0, device=cpu), Float(2, 8, 32, 128, strides=[32768, 4096, 128, 1], requires_grad=0, device=cpu)), (Float(2, 8, 32, 128, strides=[32768, 4096, 128, 1], requires_grad=0, device=cpu), Float(2, 8, 32, 128, strides=[32768, 4096, 128, 1], requires_grad=0, device=cpu))) = prim::TupleConstruct(%185, %186, %187, %188, %189, %190, %191, %192, %193, %194, %195, %196, %197, %198, %199, %200, %201, %202, %203, %204, %205, %206, %207, %208, %209, %210, %211, %212, %213, %214, %215, %216)
  %218 : (Float(2, 16, 32000, strides=[512000, 32000, 1], requires_grad=0, device=cpu), ((Float(2, 8, 32, 128, strides=[32768, 4096, 128, 1], requires_grad=0, device=cpu), Float(2, 8, 32, 128, strides=[32768, 4096, 128, 1], requires_grad=0, device=cpu)), (Float(2, 8, 32, 128, strides=[32768, 4096, 128, 1], requires_grad=0, device=cpu), Float(2, 8, 32, 128, strides=[32768, 4096, 128, 1], requires_grad=0, device=cpu)), (Float(2, 8, 32, 128, strides=[32768, 4096, 128, 1], requires_grad=0, device=cpu), Float(2, 8, 32, 128, strides=[32768, 4096, 128, 1], requires_grad=0, device=cpu)), (Float(2, 8, 32, 128, strides=[32768, 4096, 128, 1], requires_grad=0, device=cpu), Float(2, 8, 32, 128, strides=[32768, 4096, 128, 1], requires_grad=0, device=cpu)), (Float(2, 8, 32, 128, strides=[32768, 4096, 128, 1], requires_grad=0, device=cpu), Float(2, 8, 32, 128, strides=[32768, 4096, 128, 1], requires_grad=0, device=cpu)), (Float(2, 8, 32, 128, strides=[32768, 4096, 128, 1], requires_grad=0, device=cpu), Float(2, 8, 32, 128, strides=[32768, 4096, 128, 1], requires_grad=0, device=cpu)), (Float(2, 8, 32, 128, strides=[32768, 4096, 128, 1], requires_grad=0, device=cpu), Float(2, 8, 32, 128, strides=[32768, 4096, 128, 1], requires_grad=0, device=cpu)), (Float(2, 8, 32, 128, strides=[32768, 4096, 128, 1], requires_grad=0, device=cpu), Float(2, 8, 32, 128, strides=[32768, 4096, 128, 1], requires_grad=0, device=cpu)), (Float(2, 8, 32, 128, strides=[32768, 4096, 128, 1], requires_grad=0, device=cpu), Float(2, 8, 32, 128, strides=[32768, 4096, 128, 1], requires_grad=0, device=cpu)), (Float(2, 8, 32, 128, strides=[32768, 4096, 128, 1], requires_grad=0, device=cpu), Float(2, 8, 32, 128, strides=[32768, 4096, 128, 1], requires_grad=0, device=cpu)), (Float(2, 8, 32, 128, strides=[32768, 4096, 128, 1], requires_grad=0, device=cpu), Float(2, 8, 32, 128, strides=[32768, 4096, 128, 1], requires_grad=0, device=cpu)), (Float(2, 8, 32, 128, strides=[32768, 4096, 128, 1], requires_grad=0, device=cpu), Float(2, 8, 32, 128, strides=[32768, 4096, 128, 1], requires_grad=0, device=cpu)), (Float(2, 8, 32, 128, strides=[32768, 4096, 128, 1], requires_grad=0, device=cpu), Float(2, 8, 32, 128, strides=[32768, 4096, 128, 1], requires_grad=0, device=cpu)), (Float(2, 8, 32, 128, strides=[32768, 4096, 128, 1], requires_grad=0, device=cpu), Float(2, 8, 32, 128, strides=[32768, 4096, 128, 1], requires_grad=0, device=cpu)), (Float(2, 8, 32, 128, strides=[32768, 4096, 128, 1], requires_grad=0, device=cpu), Float(2, 8, 32, 128, strides=[32768, 4096, 128, 1], requires_grad=0, device=cpu)), (Float(2, 8, 32, 128, strides=[32768, 4096, 128, 1], requires_grad=0, device=cpu), Float(2, 8, 32, 128, strides=[32768, 4096, 128, 1], requires_grad=0, device=cpu)), (Float(2, 8, 32, 128, strides=[32768, 4096, 128, 1], requires_grad=0, device=cpu), Float(2, 8, 32, 128, strides=[32768, 4096, 128, 1], requires_grad=0, device=cpu)), (Float(2, 8, 32, 128, strides=[32768, 4096, 128, 1], requires_grad=0, device=cpu), Float(2, 8, 32, 128, strides=[32768, 4096, 128, 1], requires_grad=0, device=cpu)), (Float(2, 8, 32, 128, strides=[32768, 4096, 128, 1], requires_grad=0, device=cpu), Float(2, 8, 32, 128, strides=[32768, 4096, 128, 1], requires_grad=0, device=cpu)), (Float(2, 8, 32, 128, strides=[32768, 4096, 128, 1], requires_grad=0, device=cpu), Float(2, 8, 32, 128, strides=[32768, 4096, 128, 1], requires_grad=0, device=cpu)), (Float(2, 8, 32, 128, strides=[32768, 4096, 128, 1], requires_grad=0, device=cpu), Float(2, 8, 32, 128, strides=[32768, 4096, 128, 1], requires_grad=0, device=cpu)), (Float(2, 8, 32, 128, strides=[32768, 4096, 128, 1], requires_grad=0, device=cpu), Float(2, 8, 32, 128, strides=[32768, 4096, 128, 1], requires_grad=0, device=cpu)), (Float(2, 8, 32, 128, strides=[32768, 4096, 128, 1], requires_grad=0, device=cpu), Float(2, 8, 32, 128, strides=[32768, 4096, 128, 1], requires_grad=0, device=cpu)), (Float(2, 8, 32, 128, strides=[32768, 4096, 128, 1], requires_grad=0, device=cpu), Float(2, 8, 32, 128, strides=[32768, 4096, 128, 1], requires_grad=0, device=cpu)), (Float(2, 8, 32, 128, strides=[32768, 4096, 128, 1], requires_grad=0, device=cpu), Float(2, 8, 32, 128, strides=[32768, 4096, 128, 1], requires_grad=0, device=cpu)), (Float(2, 8, 32, 128, strides=[32768, 4096, 128, 1], requires_grad=0, device=cpu), Float(2, 8, 32, 128, strides=[32768, 4096, 128, 1], requires_grad=0, device=cpu)), (Float(2, 8, 32, 128, strides=[32768, 4096, 128, 1], requires_grad=0, device=cpu), Float(2, 8, 32, 128, strides=[32768, 4096, 128, 1], requires_grad=0, device=cpu)), (Float(2, 8, 32, 128, strides=[32768, 4096, 128, 1], requires_grad=0, device=cpu), Float(2, 8, 32, 128, strides=[32768, 4096, 128, 1], requires_grad=0, device=cpu)), (Float(2, 8, 32, 128, strides=[32768, 4096, 128, 1], requires_grad=0, device=cpu), Float(2, 8, 32, 128, strides=[32768, 4096, 128, 1], requires_grad=0, device=cpu)), (Float(2, 8, 32, 128, strides=[32768, 4096, 128, 1], requires_grad=0, device=cpu), Float(2, 8, 32, 128, strides=[32768, 4096, 128, 1], requires_grad=0, device=cpu)), (Float(2, 8, 32, 128, strides=[32768, 4096, 128, 1], requires_grad=0, device=cpu), Float(2, 8, 32, 128, strides=[32768, 4096, 128, 1], requires_grad=0, device=cpu)), (Float(2, 8, 32, 128, strides=[32768, 4096, 128, 1], requires_grad=0, device=cpu), Float(2, 8, 32, 128, strides=[32768, 4096, 128, 1], requires_grad=0, device=cpu)))) = prim::TupleConstruct(%5369, %217)
  return (%218)

2026-01-14 09:30:18,865 - DEBUG - matplotlib data path: /home/phil2/Super-Intel-NPU/current/Super-Intel-NPU/venv_offering/lib/python3.12/site-packages/matplotlib/mpl-data
2026-01-14 09:30:18,878 - DEBUG - CONFIGDIR=/home/phil2/.config/matplotlib
2026-01-14 09:30:18,880 - DEBUG - interactive is False
2026-01-14 09:30:18,880 - DEBUG - platform is linux
2026-01-14 09:30:18,987 - DEBUG - CACHEDIR=/home/phil2/.cache/matplotlib
2026-01-14 09:30:18,995 - DEBUG - Using fontManager instance from /home/phil2/.cache/matplotlib/fontlist-v390.json
2026-01-14 09:30:19,521 - DEBUG - {'conversion_parameters': {'framework': 'pytorch', 'is_python_object': True}}
2026-01-14 09:30:19,522 - DEBUG - Model Conversion API started
2026-01-14 09:30:19,525 - DEBUG - Placeholder shapes : [<PartialShape: [?,?]>, <PartialShape: [?,?]>, <PartialShape: [?,?]>, <PartialShape: [?,8,?,128]>, <PartialShape: [?,8,?,128]>, <PartialShape: [?,8,?,128]>, <PartialShape: [?,8,?,128]>, <PartialShape: [?,8,?,128]>, <PartialShape: [?,8,?,128]>, <PartialShape: [?,8,?,128]>, <PartialShape: [?,8,?,128]>, <PartialShape: [?,8,?,128]>, <PartialShape: [?,8,?,128]>, <PartialShape: [?,8,?,128]>, <PartialShape: [?,8,?,128]>, <PartialShape: [?,8,?,128]>, <PartialShape: [?,8,?,128]>, <PartialShape: [?,8,?,128]>, <PartialShape: [?,8,?,128]>, <PartialShape: [?,8,?,128]>, <PartialShape: [?,8,?,128]>, <PartialShape: [?,8,?,128]>, <PartialShape: [?,8,?,128]>, <PartialShape: [?,8,?,128]>, <PartialShape: [?,8,?,128]>, <PartialShape: [?,8,?,128]>, <PartialShape: [?,8,?,128]>, <PartialShape: [?,8,?,128]>, <PartialShape: [?,8,?,128]>, <PartialShape: [?,8,?,128]>, <PartialShape: [?,8,?,128]>, <PartialShape: [?,8,?,128]>, <PartialShape: [?,8,?,128]>, <PartialShape: [?,8,?,128]>, <PartialShape: [?,8,?,128]>, <PartialShape: [?,8,?,128]>, <PartialShape: [?,8,?,128]>, <PartialShape: [?,8,?,128]>, <PartialShape: [?,8,?,128]>, <PartialShape: [?,8,?,128]>, <PartialShape: [?,8,?,128]>, <PartialShape: [?,8,?,128]>, <PartialShape: [?,8,?,128]>, <PartialShape: [?,8,?,128]>, <PartialShape: [?,8,?,128]>, <PartialShape: [?,8,?,128]>, <PartialShape: [?,8,?,128]>, <PartialShape: [?,8,?,128]>, <PartialShape: [?,8,?,128]>, <PartialShape: [?,8,?,128]>, <PartialShape: [?,8,?,128]>, <PartialShape: [?,8,?,128]>, <PartialShape: [?,8,?,128]>, <PartialShape: [?,8,?,128]>, <PartialShape: [?,8,?,128]>, <PartialShape: [?,8,?,128]>, <PartialShape: [?,8,?,128]>, <PartialShape: [?,8,?,128]>, <PartialShape: [?,8,?,128]>, <PartialShape: [?,8,?,128]>, <PartialShape: [?,8,?,128]>, <PartialShape: [?,8,?,128]>, <PartialShape: [?,8,?,128]>, <PartialShape: [?,8,?,128]>, <PartialShape: [?,8,?,128]>, <PartialShape: [?,8,?,128]>, <PartialShape: [?,8,?,128]>]
2026-01-14 09:30:46,769 - INFO - >>> [Bake] Remediation: Enforcing STRICT STATIC shapes [1, 128] in-memory...
2026-01-14 09:30:46,813 - INFO -     > Locking input_ids to [1, 128]
2026-01-14 09:30:46,814 - INFO -     > Locking attention_mask to [1, 128]
2026-01-14 09:30:46,814 - INFO -     > Locking position_ids to [1, 128]
2026-01-14 09:30:46,814 - INFO -     > Locking beam_idx to [1]
2026-01-14 09:30:46,814 - INFO - Applying reshape directly to in-memory graph...
2026-01-14 09:30:46,893 - INFO - >>> [Bake] Propagating shapes to internal States/Variables...
2026-01-14 09:30:46,898 - INFO - >>> [Bake] Saving optimized binaries to ./models/neuralchat_int4...
2026-01-14 09:30:48,113 - INFO - >>> [Bake] Saving Tokenizer...
2026-01-14 09:30:48,173 - INFO - >>> [Bake] Cleaning up memory...
2026-01-14 09:30:48,525 - INFO - >>> [Bake] Verifying static shapes...
2026-01-14 09:30:48,596 - INFO -     > [Verify Input] input_ids: [1,128]
2026-01-14 09:30:48,597 - INFO -     > [Verify Input] attention_mask: [1,128]
2026-01-14 09:30:48,597 - INFO -     > [Verify Input] position_ids: [1,128]
2026-01-14 09:30:48,597 - INFO -     > [Verify Input] beam_idx: [1]
2026-01-14 09:30:48,597 - INFO -     > [Verify Output] logits: [1,128,32000]
2026-01-14 09:30:48,597 - INFO - >>> [Bake] Verification Passed: Model is fully static.
2026-01-14 09:30:48,597 - INFO - >>> [Bake] Success! Optimized NPU-ready model is at ./models/neuralchat_int4
